Agent2_Congkak_PPO.pt (torch, 215541 bytes, 11 tensors)

shared_layers.0.weight f4 [128, 16]
00000000: aae4 48be e6f2 fcbc 92a3 26bb 7429 3f3e
00000010: 2ec1 d6be 18dc 3ebf 6ce5 89be 1a24 bdbf
00000020: 9a1d bcbc fa5f 04bf bbc6 edbd 4e9e 9bbe
00000030: a885 d8bd 7879 c83d 48a8 97be d706 9cbe
00000040: 4031 f4bd 97c4 7f3e 76f9 e5bd 539e adbe
00000050: 98db 09be 774c 50be 7df9 92be 0481 5bbf
00000060: 7422 c6bd 688d 54bf 872f 08bf ae80 edbe
00000070: b134 e13d 5250 4e3d e7e0 6fbf 0411 ecbd
00000080: 4756 60be 7bee 15be d796 0ebe e23f 09be
00000090: f48e 723d 8e7f 81be eaf1 c5bd 2d90 d2bd
000000a0: 144d 833d 57f9 513d 99c4 dfbd acbe f6bc
000000b0: e8f2 81bd d6af 7cbe 3d64 debd ff76 25be
000000c0: 7053 70be 6b39 bbbe a6ec c4be 79d8 e5be
000000d0: b413 02bf e262 fbbd 1655 58bd da01 b1bf
000000e0: 0b74 99bc 54bf 57be df6f 2a3d 084e efbc
000000f0: b161 e9be 983d 85bd 6758 943e a262 dbbe
00000100: 15f0 89be e7cf d4bd d0ab 19be ede0 a8be
00000110: e442 07bf fe9c 1bbf f7e9 09bf d621 29bf
00000120: 65cf e83d a355 69bd c772 b5be 1f71 f0bd
00000130: 71cf 253e bb66 89be 1ad3 cabd 80f7 123d
00000140: 9a84 5dbe a332 61bf c35a f0be e983 56be
00000150: 8104 e0be d932 83be 74e1 8bbb 0574 24bf
00000160: 1a7c 7f3d 98f4 d3bd 1b78 1fbe 6f15 e3be
00000170: f618 d8be 366d 05bd 6878 923d 7fd4 c23d
00000180: 3d77 2ebe f76e a1bd 27a9 cabd 767e cb3d
00000190: 9fc6 d23d 8cf1 27be a5b3 32be aeb4 633d
000001a0: 5176 83be 4080 bcbd 6c51 23be 41d8 873d
000001b0: a507 b3bc 36b2 01bd aa26 03be 78d6 6abe
000001c0: 04e5 07be 01e4 9cbe 50dc 5abe 3aba 7cbe
000001d0: a384 62be 6763 d8be 1e5a 5fbe f1e3 83be
000001e0: 9dfd 013f 35b5 5bbe ca90 0abe 79cc a9bd
000001f0: 57c4 01be 5979 44be 4cc4 bd3c 37a9 7bbe
00000200: 87ca 19be 6141 bebd 5690 04be bf91 ffbd
00000210: cb45 2ebe 1a11 87be f8fa 9c39 3663 35be
00000220: d08e ccbc 7f19 20be e976 093e 717f 873c
00000230: b3d4 a2bb 52cb 363c d944 45be eb09 283e
00000240: d43e cdbc 9988 913c b76f 18be 508b a33d
00000250: c678 e43c 1e0e 82bb 5140 c1bc 02fa 04bf
00000260: 30a7 fabe a829 12be 62a4 9dbe 40fc 87bd
00000270: 0025 8fbe 9e05 0e3d 2b21 673d 26d2 bbbe
00000280: 3664 48be b970 59be 5092 d5bd 38a2 493e
00000290: a6a8 2bbe 5d3f 0cbe 72d6 35be 7adb 1bbe
000002a0: bcbf 74be 66e7 be3d 8acc 76bd 187a 39be
000002b0: e647 c23d 6371 0abe 647e 92be 8a10 153e
000002c0: 89a2 afbc ba7c 543d 0e52 1bbd d788 0bbf
000002d0: de57 29be c602 343e d09a cdbe ef01 a33d
000002e0: 081a 80be d586 5abe 09c4 15bd 4fd3 97be
000002f0: c07e 803d 1b1b bdbd 081b fbbc 707f 63be
00000300: 1af2 b8bd 2ea2 983e a37c b6be 5820 0dbf
00000310: dfd2 88be 0a94 5ebf 9667 51bf 5bab 62be
00000320: dca6 d9bd b4c9 22bf c7db 79bf 83d7 e0be
00000330: 4a35 f5be c03e 1abe 499a 81bd 8757 00be
00000340: 6d1c edbd f24c 0fbe 4145 943d aee4 abbe
00000350: 8445 de3d b225 cabe d269 d7bd 1e99 9cbe
00000360: a8ca 2bbe e115 c53d 1f4e 23be 80c3 9dbe
00000370: 3dfc 1a3d 6732 4bbe 1d2b f3bd 7cc6 35be
00000380: 279f 8ebe bd6d efbe 2288 8e3c 4c64 42be
00000390: 927f a2be bd23 f33d 78fd ccbc 1364 d4be
000003a0: 9f10 56bc 963c e8be 0aeb d8be 82d0 0dbe
000003b0: 6670 4f3e b67c 173e 81d4 f9bc 3266 51bf
000003c0: 92dd a0be 73fd 89bd d3b8 57be f8e8 dabe
000003d0: 9404 853e 5fa2 44bf 166e e53d bd98 c4bf
000003e0: 90f5 97bd 7a76 d73d 2ee5 60bf 6c71 c0be
000003f0: 0ea1 1cbf c594 d4bd bdec 12be cb71 debd
-0.19618478 -0.030877542 -0.0025427085 0.18668157 -0.4194426 -0.74554586 -0.26932847 -1.4776642
-0.022963334 -0.5170895 -0.116101705 -0.30394214 -0.10572368 0.09788793 -0.29620576 -0.30473968
-0.11923456 0.24977337 -0.112292215 -0.33909854 -0.13462675 -0.20341669 -0.2870597 -0.8574374
-0.0967454 -0.8302827 -0.5319752 -0.46387237 0.10996378 0.05036957 -0.9370255 -0.11526683
-0.21907912 -0.14641754 -0.13924728 -0.13403276 0.059218362 -0.2529263 -0.09665282 -0.102814056
0.06411186 0.05126318 -0.1092617 -0.030120216 -0.06345159 -0.24676451 -0.10858963 -0.16158675
-0.23469329 -0.36567244 -0.38461798 -0.44891718 -0.50811315 -0.1227472 -0.05281552 -1.382869
-0.018732091 -0.2106908 0.041610595 -0.029212013 -0.45582345 -0.06505889 0.28973696 -0.42848688
-0.2694098 -0.10391217 -0.15006948 -0.32984105 -0.5283644 -0.60786426 -0.5387263 -0.66067255
0.11367682 -0.056966435 -0.3543913 -0.11740326 0.16192414 -0.2683619 -0.09903546 0.035880566
-0.21632615 -0.8796789 -0.46944246 -0.20948757 -0.43753436 -0.2562473 -0.0042688195 -0.6423953
0.06237421 -0.10349387 -0.1557316 -0.4435229 -0.42206544 -0.032574855 0.07151872 0.09513187
-0.17037673 -0.07882493 -0.098955445 0.0993623 0.1029179 -0.16400737 -0.17451341 0.05559223
-0.25676206 -0.09204149 -0.15949029 0.06633044 -0.021854231 -0.031664096 -0.12807718 -0.22933376
-0.13270956 -0.30642703 -0.21373105 -0.24680415 -0.2212091 -0.42263338 -0.2181172 -0.25759843
0.5077761 -0.21455844 -0.13531795 -0.08290953 -0.12672554 -0.19186915 0.02316489 -0.24576269
-0.15018664 -0.09289814 -0.12945685 -0.12478971 -0.17018811 -0.26380235 0.00029941625 -0.17713627
-0.024970442 -0.15634726 0.13424267 0.016540261 -0.0049692034 0.011156874 -0.19264545 0.16410033
-0.025054373 0.01776533 -0.14886366 0.07985556 0.02788962 -0.003968968 -0.023590239 -0.5194398
-0.4895568 -0.14273703 -0.30789477 -0.0663991 -0.27957916 0.034673326 0.056428116 -0.36683768
-0.19569477 -0.21234407 -0.104282975 0.19690788 -0.16763553 -0.13696046 -0.17757586 -0.15220442
-0.23901266 0.093214795 -0.060253657 -0.18112981 0.0948637 -0.13519816 -0.28612053 0.1455709
-0.021439807 0.05187676 -0.03792005 -0.54505676 -0.16537425 0.17579183 -0.40157175 0.07959353
-0.2501986 -0.21340497 -0.036563907 -0.29653403 0.06274176 -0.092336856 -0.030652538 -0.22216582
-0.09030552 0.29811233 -0.35641965 -0.5512748 -0.26723382 -0.8694464 -0.81798685 -0.2213568
-0.10627529 -0.63589025 -0.9760098 -0.43914422 -0.4789222 -0.15063 -0.06328256 -0.12533389
-0.115776874 -0.13994196 0.07239772 -0.33572906 0.10853103 -0.39481884 -0.105182305 -0.3058557
-0.16776526 0.09623314 -0.1594777 -0.30813217 0.03783821 -0.19843446 -0.118734576 -0.17751497
-0.278558 -0.4676341 0.017398898 -0.18983573 -0.31737953 0.11872051 -0.025023207 -0.414826
-0.013065486 -0.45358723 -0.4236682 -0.1384907 0.2025772 0.14793667 -0.030496838 -0.8179656
-0.31419045 -0.06737795 -0.21066599 -0.42755866 0.25980055 -0.7681026 0.11202638 -1.5359112
-0.07419884 0.105206445 -0.878497 -0.37586534 -0.6118325 -0.10379938 -0.14348121 -0.10861548

shared_layers.0.bias f4 [128]
00000000: 16a1 22bd 8e6f 47be c496 d2be d94d 20be
00000010: 75ce debe 6d07 85be 56de a33d f0ac 48bb
00000020: c943 75be d151 84be e75e 953d 676d 81bd
00000030: c6b5 cebe 7b92 f3bd d75e 5ebe 11cb c63b
00000040: 0dbf 8fbe d71a cfbe 822d 74be 4235 653d
00000050: 3674 f43d 24de e1bd 7072 71be 75f9 38be
00000060: 0ba3 11be cb7c 88bc 4442 5d3e a7a9 bfbe
00000070: 7b7d d8be 5b42 c5be 9c3c e6be 32bf 90bd
00000080: 5fdd a6be 3a26 f1bd 62db 55be 1fd9 cdbe
00000090: 5b79 b1be f031 dc3a b3f5 a8be 1e7f f33c
000000a0: b84b 16be c336 87be 7a2f 31bd 8eeb abbd
000000b0: a998 34be e775 35be 56ba a2be 5f3f 6fbe
000000c0: 193f 9ebe 867d 293d 959f 1ebe 0db7 37be
000000d0: cc48 cdbe 2e07 43bf e55a b9bd 1a9c 1cbe
000000e0: 9459 b0be f327 923d 8409 11be b717 26be
000000f0: 25b7 d23c 96fd a9be 042a 65bd 8a8f e7be
00000100: 9f21 e7be 964a 8cbe 7051 c53d 1fa8 c5be
00000110: 0195 0cbe a511 0ebe ad8f 04be eb32 96bc
00000120: a2c5 babd de40 5bbe 5a2a 39be 8eab 8ebb
00000130: b361 953d f213 17be a884 b1bd c820 5dbd
00000140: 84c8 d3be 6c2c dabe 360e d7be 247e 01bf
00000150: 4032 ce3d f9a2 9dbe cd40 67bd e4fd 9dbe
00000160: 44df 9abe 4bee 33bf 6785 f2be 88b9 a1be
00000170: 346f aabe 6e8f 70be f4b1 edbe 2781 a23d
00000180: 1d25 9bbe 61ad c0bd a198 69be 4573 adbe
00000190: 429f 923d 2b8e 3ebe 5042 0cbe 4f43 98be
000001a0: 73f4 70be d7bf 9bbd e581 56be 50b1 5bbd
000001b0: 9625 3dbe 5528 95be f294 90be 67a6 09be
000001c0: ed90 82bd e4e9 12be fcc9 4ebe 20fc 84be
000001d0: da0a 853d 5dce d9bd c74b e0be 403c af39
000001e0: 5e66 953d ac9f d6be 5798 2bbf 6372 96be
000001f0: e837 e9be 0b94 2cbe b15a e0bc 7865 c4be
-0.039704405 -0.19476148 -0.4113065 -0.15654697 -0.4351689 -0.25982228 0.080013916 -0.0030620657
-0.23951639 -0.2584367 0.07293492 -0.06319695 -0.40373057 -0.11893173 -0.21715866 0.006066688
-0.28075448 -0.40450165 -0.23845485 0.055958994 0.11936228 -0.11028698 -0.2357881 -0.1806391
-0.14222352 -0.016661068 0.2160731 -0.37434122 -0.42283234 -0.38527188 -0.44968116 -0.070677176
-0.32590768 -0.11774869 -0.20884469 -0.40204713 -0.346629 0.001679955 -0.32999954 0.0297237
-0.14677322 -0.26408967 -0.043258168 -0.08394538 -0.1763636 -0.17720757 -0.31782788 -0.23364018
-0.30907515 0.041379474 -0.15490563 -0.17940922 -0.40094602 -0.7618283 -0.0905054 -0.15293923
-0.34443343 0.07136526 -0.14163786 -0.16219984 0.025722096 -0.33201283 -0.055948272 -0.452267
-0.45142838 -0.27400655 0.096346736 -0.3860483 -0.13728715 -0.13873918 -0.12945433 -0.018334826
-0.09119727 -0.21411464 -0.18082562 -0.004353947 0.07294025 -0.14753702 -0.0866788 -0.05398634
-0.4136392 -0.42612016 -0.4200303 -0.505831 0.10068178 -0.307884 -0.056458283 -0.30857766
-0.30248463 -0.7028548 -0.47367403 -0.31586862 -0.33287966 -0.23492214 -0.4642483 0.0793479
-0.30301753 -0.094080694 -0.2281213 -0.33877006 0.07159282 -0.1860892 -0.13697171 -0.29738852
-0.2353075 -0.0760495 -0.20947988 -0.053635895 -0.18471369 -0.29132333 -0.28238636 -0.13442384
-0.06375299 -0.14347035 -0.20194238 -0.25973606 0.064962104 -0.10635064 -0.43807814 0.0003342349
0.072949156 -0.41918695 -0.6702933 -0.29384145 -0.45550466 -0.16853349 -0.027386995 -0.38358665

shared_layers.2.weight f4 [128, 128]
00000000: 1176 8b3d db52 87be 2e9f b43d 950c 5ebe
00000010: 3d4f 2fbd 8537 873b 00cd b139 e738 a93e
00000020: 0735 30be 7ac5 04be 8847 a93c 69a0 73be
00000030: 329d 723c 2bea 8ebc d569 a6bd af4f a03d
00000040: f1fe 1dbe 76bd 39bf 08eb 17bf 49a2 113e
00000050: a02f adbd c0ec 36be f787 883d 890c a53d
00000060: a073 9ebd 5529 013e b2f9 c9bc 47ff aa3c
00000070: 0601 01be 0110 94be 425d febe e2f0 da3c
00000080: 0fb1 aebd 43fe febd 6562 1cbe a650 bbbd
00000090: 867a 2ebe b58b 903c b05d d6be 9133 20be
000000a0: d823 61bd e381 2b3d 2888 d73d 0e54 4fbd
000000b0: ba7d e4bc 73da 243e 0ca3 d3bd f853 143c
000000c0: 7089 41bd 6664 cbbd 2bee 4fbc 49a1 40bc
000000d0: ec62 8d3a f128 013e 1397 543d 33a2 3b3c
000000e0: 70b4 f8be b7dd b13e fdd9 e73c 2793 e23d
000000f0: 17ee 4bbd 1d34 113e 9f75 8bbd 93d2 cebd
00000100: 0fb5 243e de5a b73c 763f a2be 3817 79be
00000110: b4aa 013e cb52 95bd 6c13 d73c 23df 983d
00000120: e033 02bd cc4c 9d3d 1b6b 04bf 2f18 3f3d
00000130: 00eb 923d 9a97 9fbd b3b8 603b d787 9d3d
00000140: 53c1 603d 09d1 1ebe 088e 91ba b5eb 06bf
00000150: 55bd 5ebd a667 47bd 7a9a 7ebe 742e d8bc
00000160: 137d 9dbe 2873 31be 34bf a3bd ca13 7dbc
00000170: 61d1 ea3d 1a9d a6be 41e1 343e aee8 503d
00000180: bc47 71bd 79ca 7d3c d866 563d 9cd7 fabe
00000190: d89f 62bd 0289 963d e90a 2cbe c028 bbbe
000001a0: f79e 84bd 3d4b abbc 6ce8 22bf 037e 3a3d
000001b0: 9ffb a93e e652 3d3e f1cf 32bd 88d6 03be
000001c0: 5121 653d 3a7a c43c be4f eabc d318 593e
000001d0: 1f68 343e a092 4cbe 3e51 143e 6b21 b63d
000001e0: 2801 87be 9798 a13c 2d1f 19be 69e0 603d
000001f0: aad8 9fbe 8cb5 6abd e35d 063d 863a 4fbd
00000200: 3649 b7bc b0d6 e43a 998b 10bd 5e1c 1abd
00000210: 1a44 12be 5b84 6abe 0914 b93d 8fe8 043e
00000220: 9963 20bd 47a3 ae3c d07d 8dbd c8b7 083f
00000230: 6a32 f83b 1b69 b9bd 1ccf 853d f829 8bbc
00000240: e29e 06be 99ce 953b e1ab c1be dd9b 24bc
00000250: 43aa b7bd 7bfc 7abd 9576 843d 02fc f03c
00000260: 6aae 963d 3cd7 ef3d 6d09 d23d 8808 60bd
00000270: 1af6 85bd f316 1a3d e203 2c3e c8f6 823d
00000280: bffc 953d 9da8 58bd 1415 143d 1263 ecbe
00000290: a19f 883c 9466 04be baa5 57be ab37 0abd
000002a0: 660f 70be dd1e 383e 075c ff3d 898d bd3c
000002b0: 717f ddbd b084 09be 3565 07bd 6a40 0dbe
000002c0: c438 403c cb2d c9bd 70a9 283d 385b 3bbe
000002d0: 72a4 7abe d190 0cbe 2a61 bbbc d47d b7bd
000002e0: 0c93 33bf 0c8e 92be 9d47 94bc 5063 2bbe
000002f0: 81a1 4a3d 11a3 afbe 3aef fc3d 6d57 0b3e
00000300: 1227 e3bc 2449 80ba c6d3 c8bf 5396 1a3e
00000310: 7942 e2bd 1fc3 bcbd 7ff5 57bb bae3 e4bd
00000320: 3169 d2bd b67b 893c d234 16bf a5c1 bc3c
00000330: c406 153c f232 413e 0b1b 1dbd 362c 573d
00000340: c62b b4bd 2062 b53d 0f2a 18bd 5825 293e
00000350: 7468 b73d 1fae 4dba 0539 843d 5a15 43bc
00000360: a89f 833d 63d8 59be ee8c fabe 4608 9bbd
00000370: 25b6 763d b07c cdbc 739e 8abe 8d1a 103c
00000380: b204 1e3d 6843 90bd e625 3d3d 86ed 15bf
00000390: 8f78 d7bc a8f1 1b3d fde7 82bd 8a0e e7bd
000003a0: 9488 5cbd 97dc abbd 9982 a1bd 9565 883d
000003b0: cb13 9bbd cac7 2bbe c23b dbbd 2998 80bd
000003c0: 4a50 16be baa5 6b3d 9cac b3bd c20f b33e
000003d0: 1a07 12bf ccfb c63d fdfd 0bbe 0ffe b7bc
000003e0: fc5b a53e 0f55 97bd 3ac0 f63d 2320 79bd
000003f0: c1e2 c3bd e725 e13d 976c 76bd e410 c9bd
0.06809629 -0.264304 0.088194236 -0.21684487 -0.042800177 0.0041264915 0.00033912808 0.33051226
-0.17207728 -0.12965956 0.020663992 -0.2379166 0.014807986 -0.017445644 -0.081256546 0.078276984
-0.15429284 -0.7255472 -0.59343004 0.14222063 -0.084563494 -0.1786375 0.06666558 0.080590315
-0.077368975 0.12613423 -0.024655197 0.020873679 -0.12598047 -0.2891846 -0.49680525 0.02672619
-0.08529865 -0.1245084 -0.1527191 -0.09146242 -0.17038926 0.017644743 -0.41868353 -0.15644671
-0.054965824 0.041871917 0.105240166 -0.05061727 -0.027891982 0.16098957 -0.10333833 0.009053223
-0.04725021 -0.09931259 -0.012691061 -0.011757203 0.0010786927 0.12613274 0.051901888 0.0114522455
-0.48575163 0.34739468 0.028302187 0.11063223 -0.049787607 0.14180036 -0.06809544 -0.100987576
0.16084693 0.022382196 -0.31689042 -0.24325264 0.12662774 -0.07291182 0.026254378 0.07464435
-0.031787753 0.076806635 -0.5172593 0.046653923 0.07173729 -0.077925876 0.0034289777 0.07691925
0.05487187 -0.15509428 -0.0011104951 -0.5270341 -0.05437978 -0.04868283 -0.24863616 -0.026389338
-0.30759487 -0.17329085 -0.079954535 -0.015446613 0.11465717 -0.32541734 0.17664053 0.05100315
-0.0589063 0.015490168 0.052344173 -0.48992622 -0.05532822 0.07350351 -0.16801037 -0.36554527
-0.06475633 -0.0209099 -0.636359 0.04553033 0.33199784 0.18488654 -0.04365534 -0.12874806
0.055939976 0.023984063 -0.028602477 0.21200876 0.17617844 -0.19977808 0.14484116 0.08893093
-0.2636807 0.01972608 -0.14953299 0.054901514 -0.3121999 -0.057302043 0.03280438 -0.05059292
-0.022373777 0.0017459001 -0.03528938 -0.03762471 -0.14283791 -0.22902052 0.090370245 0.12979339
-0.039157484 0.021318091 -0.069087625 0.5340543 0.007574369 -0.090532504 0.065336436 -0.016987786
-0.13146546 0.0045717475 -0.37826446 -0.010046926 -0.08968022 -0.06127594 0.0646793 0.029417042
0.073574856 0.117109746 0.10255704 -0.054695636 -0.06541081 0.037619542 0.16798356 0.06394726
0.07323598 -0.052895177 0.036152914 -0.46169335 0.01667768 -0.12929755 -0.21059313 -0.033744495
-0.23443374 0.17980523 0.12468725 0.023138778 -0.10815323 -0.13429523 -0.033055503 -0.13794103
0.011732284 -0.098231874 0.041177213 -0.18296516 -0.24476793 -0.13727118 -0.02287348 -0.08959547
-0.7014625 -0.28623998 -0.018100554 -0.16737103 0.04947043 -0.34304097 0.12350316 0.13607569
-0.027728591 -0.0009787423 -1.5689628 0.15096407 -0.11047835 -0.09216904 -0.0032952724 -0.11176248
-0.1027397 0.016782623 -0.5867435 0.023041556 0.009095851 0.1886709 -0.03835587 0.052532397
-0.087974116 0.088566065 -0.037149485 0.16518152 0.0895547 -0.00078460755 0.06456188 -0.011906946
0.064269364 -0.21273951 -0.48935646 -0.075699374 0.0602323 -0.02508387 -0.27074012 0.008795393
0.038578697 -0.07044107 0.04617872 -0.58565557 -0.026302604 0.03807226 -0.063919045 -0.1128207
-0.05384119 -0.083916835 -0.07886238 0.0666 -0.075721346 -0.16775432 -0.10704757 -0.06279022
-0.14679065 0.057531096 -0.08773157 0.3497296 -0.57042086 0.09715995 -0.13671108 -0.022460012
0.3229674 -0.073892705 0.12048383 -0.060821664 -0.09564734 0.109935574 -0.060162153 -0.09817675

shared_layers.2.bias f4 [128]
00000000: a269 f53e 8164 df3d 9a52 86bf 9a12 033e
00000010: c040 223b 83c6 593e 60d1 b5bd d55d 973d
00000020: b96e cabf 907f 12bf a8dd 063f 6cac 00be
00000030: b762 b33e 6d7d 973e acf6 523e b880 823d
00000040: d878 61be bb99 b43e 8788 883f f8b7 0b40
00000050: 28e9 6d3f 0ba7 e7be 9f1a bbbc e6fa 943e
00000060: 4dbf 8b3f 0642 b03e 17a0 2dbe f4c5 a3ba
00000070: fbf9 51be 101c ca3f 4ea4 9e3e 69fc 06bf
00000080: 9427 543f aef2 313e 4e4f 8f3e 1a98 5a3f
00000090: 21a5 563f 62dd dbbe 5876 913f bd76 e13e
000000a0: 5b7e e7be f4ea ec3e e3e6 363e a636 a83f
000000b0: af76 94bf 9bcd fc3f 64a0 37bf 74e4 0d3e
000000c0: 4d0e bfbe 3bec 973e dda9 2d40 2e82 15c0
000000d0: 4bb0 243f 0616 3f3f a0cf 30bf 2d84 b2be
000000e0: e79e 483d d737 7d3f 04af 16be 5f7c 563e
000000f0: ba2e ff3e 3fbc 2e3c cbbe 4a3e ed0e 25bf
00000100: a3a4 f13d f14f cebf 0a3b c4be 0537 f73e
00000110: e471 fc3d a03e 9dbd 5f26 10be 991d b03d
00000120: bc2f 38bd b873 153f 437a 193e 75e5 03bf
00000130: 65bc 22be e864 b2be a4a2 fdbc 345b 783d
00000140: c066 8c3f 4eaf 0d3f 981f 403f d1b3 48bf
00000150: c578 c03e b9a2 523e 9f0c 283f 2f69 7c3f
00000160: a6bf 133f c270 27be 1f39 2fbf dd5d 5e3e
00000170: af90 483f 7afa 083e 7eda 0dc0 4a87 083f
00000180: 4e50 1f3f 8dbc a03d 3368 143f 5b33 ab3f
00000190: cc23 0d3f 41ec c43e 18d8 473f 8944 9b3d
000001a0: c4ce 0a3d 3059 00bf f6e0 133f 71d5 503e
000001b0: fabf 08bf 7649 6b3f 5e68 3a3f bf3b 0bbe
000001c0: dd6b ae3e 922d afbf 5f4a eabd 1293 1a3d
000001d0: c46f 363e 518f e33f 5c5b 503f 3fdd a13f
000001e0: c387 8e3f f463 863f db67 813f 1d09 e5be
000001f0: 74c7 f6bd e4f3 97be 54a0 6fbe 975f b5bc
0.47932154 0.109078415 -1.0493958 0.12800065 0.0024757832 0.21267132 -0.08877826 0.07390944
-1.581504 -0.57225895 0.5268197 -0.12565774 0.3503625 0.2958788 0.2060191 0.063722074
-0.22018754 0.35273537 1.0666665 2.1831036 0.92933893 -0.4524463 -0.022839842 0.2909767
1.0917755 0.34425372 -0.169556 -0.0012494908 -0.20505516 1.5789814 0.3098473 -0.527289
0.8287289 0.17377731 0.27990192 0.8538834 0.83845717 -0.4294234 1.1364241 0.44035903
-0.4521359 0.46273005 0.17861514 1.3141677 -1.1598719 1.9750246 -0.7172911 0.13856679
-0.37315598 0.29672417 2.7134926 -2.3360705 0.643315 0.7464298 -0.6906681 -0.34866467
0.048979666 0.9891333 -0.147152 0.20945881 0.49840337 0.010664999 0.19799344 -0.644759
0.1179898 -1.6118146 -0.38326293 0.48284164 0.123264104 -0.076779604 -0.14077137 0.08599395
-0.044967398 0.583797 0.14988045 -0.51522 -0.1589218 -0.3484261 -0.030961342 0.060633853
1.0968857 0.5534562 0.7504821 -0.7839938 0.3759214 0.20569886 0.6564426 0.98598
0.5771431 -0.16351607 -0.68446535 0.21715494 0.7834577 0.13376799 -2.2164607 0.53331435
0.6223191 0.07848463 0.57971495 1.3375047 0.55132747 0.38461497 0.7806411 0.075814314
0.033888593 -0.5013609 0.5776514 0.20393921 -0.53417933 0.9190897 0.728155 -0.1359701
0.34066668 -1.3685782 -0.114399664 0.037737913 0.17816073 1.7778112 0.81389403 1.2645644
1.1135181 1.0499253 1.0109819 -0.44733515 -0.120497614 -0.2967826 -0.23401004 -0.022140307

policy_layers.0.weight f4 [128, 128]
00000000: 6258 ac3d ef34 913d 9347 5c3c 4075 1abd
00000010: 7146 e43d 78dd febc 4e7a e73d 704e 653e
00000020: 1ccc 983d f73b b1bd 21e2 1e3d 5433 853e
00000030: 3442 403c 97ab 93be 839d 363e 3a20 923d
00000040: 8217 913e 443a ac3d 507d 48be ae96 a0bc
00000050: c937 e43d b542 84bd 9e0b b43c a6d7 1bbe
00000060: cb74 c73d 4082 ffbb 07b8 bcbd 7fbb 5c3e
00000070: 0c1c ecbe 0518 40be 104f f33d 8325 b73d
00000080: 88a3 87bd 9b5e 5a3d 2b63 c93d 365c 633e
00000090: b800 7c3d 60a2 6fbd 041a bcbe 3d98 863e
000000a0: 75fa 703d 7742 36be 3853 af3d 4604 93bc
000000b0: 5ef4 5b3e 7701 fcbe 9eac 9dbe bb96 4cbe
000000c0: 68a9 3b3e 647a 24be 4b21 2f3e f451 8fbe
000000d0: 65f4 9c3e f3f4 983e 08b4 8a3e 595a 18be
000000e0: ffd4 85be 7340 82bc 61a2 d8bc 88fb 763d
000000f0: dbab 163e ecd1 29be 181d c83e f587 4cbd
00000100: 82f3 46be 8427 c3bd 3075 bdbd fa9a 7dbe
00000110: eec5 b23d c923 043e 508b ccbe c7c3 603c
00000120: 0aa9 c83b 58c4 d5be 7fc6 863e 035c fcbd
00000130: 4286 e73d a36f 963d c837 38bd 4836 d2be
00000140: c991 5bbe 1cb8 5d3e 27fc b0be 5950 723d
00000150: c709 0bbb 8b81 e93c 7082 79be 5445 72be
00000160: 6259 ac3d 253a 15be 7a38 1fbe 527d bd3c
00000170: 185b 75bc c779 2c3e 562d ec3d bc48 963e
00000180: b312 5abe 3110 3e3b 1a96 b93e 47a6 aebe
00000190: b810 24bd 8e32 7ebe 620a c1be 412f 993e
000001a0: d71a f83d 6bfd 9e3e a5c1 3abd e2e8 aabd
000001b0: 875f 3b3e fbae 61bc e185 07bd b066 0cbe
000001c0: 0481 263e 4539 a63e 2a27 163e c7ca 11bd
000001d0: febd 79be f4dd abbd b8a8 b4be 65be ae3e
000001e0: f04c 8d3e 1e4a eb3c 5e57 68bb a0d9 823d
000001f0: b16f e0be dd1e 143e 1e3d 60bd 31ab 83bc
00000200: deaf 063d b58b 1dbe 968f 043e 9fc8 0abe
00000210: 72c2 ca3d ece9 aabd 5ddf 2cbd 5abf 533a
00000220: d6be 913e 4c08 4fbe 4659 8dbc 8a31 263e
00000230: 0ed7 3b3c 1dba 8cbe 74b8 8b3e e7e0 9cbe
00000240: 5b14 babc 13f6 133e 7b55 ccbe 462a 2cbe
00000250: a7d9 b1be 7d33 083f 609b 41be 7902 64be
00000260: 1b65 62be 2a36 e4bd 296d a3bd 707c 1d3d
00000270: b8cc 00be c781 6dbe 6e78 8bbd 64e4 63bd
00000280: eca1 9ebe 6876 a5bd 4fec 3c3d 27a3 51be
00000290: cceb 73be 9ff0 55be 661c 883e 670d f93d
000002a0: 0bcb 3e3d 9dd1 19be 844b babe 78ca 2bbe
000002b0: 5aaf b93e 4ec7 7cbd a6ca 843e 3df3 e1bb
000002c0: 15ca 933d b432 a6bd 7103 8a3e 5bc5 a4bd
000002d0: cb6d 263e 003a d43d 253b 1e3d df67 27be
000002e0: 9209 8dbe 7540 71be 440f d0bc 183d 063e
000002f0: c532 8abe f262 a23d c999 4cbe a928 303e
00000300: be94 c7be 267a b23d 5958 efbd e7dc 99bd
00000310: 93a0 8cbd cb1a fd3d 0862 27be a906 b7bd
00000320: 17a2 cd3d a1ea aa3c 649a 663e a741 f5bc
00000330: 0ce8 60be fe22 04bd e3fb 4f3d 2cb5 6cbe
00000340: cc7b e23d c2ff 40bd 6bdb 443e 700d 73be
00000350: 8e60 233e 7163 efbd 1b19 63be 6c4b 053d
00000360: 876f f13d 9489 fabd 5b7c 7dbc efa0 ec3d
00000370: 75a4 3e3e 6093 043e 11c6 7f3e 164b d33d
00000380: 542c c23d d2b5 153c 8a0b 9b3e 2379 c0be
00000390: b8b8 853d e813 4abe 422c c8bd c966 29be
000003a0: ccdf 3e3e 414f a63e 84c0 013e 58ff ea3c
000003b0: 14c7 9ebc eab2 d6bd 9081 883e bf2a d3bc
000003c0: 2202 df3d 8546 9f3e e86f 033e 11b5 b43c
000003d0: 1e83 b5be 4385 49be 5b34 393d 6132 b0bc
000003e0: 89b1 553e 59e5 42be 98db 83be f340 57be
000003f0: f742 c4bd 0558 3c3e 466d cfbc 9b86 0abd
0.08415295 0.070901744 0.013444799 -0.037709475 0.11146248 -0.031111464 0.11302625 0.22393203
0.07460806 -0.086540155 0.038789872 0.26015723 0.011734534 -0.2884185 0.17833523 0.07135053
0.28338248 0.08409551 -0.19579053 -0.0196031 0.11143453 -0.06458036 0.021978196 -0.15218982
0.09739073 -0.0077975094 -0.09214788 0.21555899 -0.46115148 -0.18759163 0.11880314 0.08942702
-0.06622988 0.05331288 0.09833368 0.22203144 0.061524123 -0.058504462 -0.36738598 0.26288024
0.058832604 -0.17798792 0.085607946 -0.017946374 0.21479937 -0.49219868 -0.3079576 -0.19979374
0.18326342 -0.16062313 0.17102544 -0.27992213 0.30655208 0.2987438 0.27090478 -0.14878215
-0.26139066 -0.015899872 -0.026444616 0.060298473 0.14713995 -0.16583985 0.39084697 -0.049934346
-0.19428828 -0.095290214 -0.09250867 -0.2476615 0.08729158 0.12904276 -0.39950037 0.013718552
0.0061236667 -0.4175136 0.26323316 -0.12322237 0.113049045 0.07345512 -0.044975072 -0.41057038
-0.21442331 0.21652263 -0.34567377 0.059158657 -0.0021215545 0.028504154 -0.24366164 -0.23659259
0.08415486 -0.14572962 -0.15548888 0.023131046 -0.014975332 0.1684333 0.11532085 0.29352367
-0.21296196 0.002900135 0.3624733 -0.34111235 -0.040055007 -0.24823973 -0.37703234 0.29918864
0.12114494 0.31052718 -0.04559483 -0.083452 0.1829816 -0.013774629 -0.03308666 -0.13711047
0.16260153 0.32465568 0.14663377 -0.035593774 -0.24388883 -0.083919436 -0.35284972 0.34129634
0.2759776 0.028721865 -0.0035452466 0.06389165 -0.43835214 0.14464898 -0.054745786 -0.016072841
0.032882564 -0.15385325 0.12945399 -0.13553093 0.09900369 -0.08345398 -0.042205203 0.0008077525
0.2846591 -0.20218009 -0.017254483 0.16229835 0.011464847 -0.27485743 0.27289164 -0.30640337
-0.022714784 0.14449339 -0.39908966 -0.16813001 -0.34736368 0.53203565 -0.18906927 -0.22266568
-0.22108881 -0.111431435 -0.07979805 0.03844875 -0.12578094 -0.23194037 -0.068100795 -0.055637732
-0.30982912 -0.08079225 0.0461238 -0.20472394 -0.23820418 -0.20892571 0.26584166 0.121607594
0.046580356 -0.15021367 -0.3638574 -0.16776454 0.36266595 -0.06171351 0.25935858 -0.0068954513
0.072162785 -0.081151396 0.2695575 -0.08045455 0.1625282 0.10362625 0.038630623 -0.16348217
-0.27546364 -0.23559745 -0.025397904 0.13109243 -0.2699186 0.079290286 -0.1998054 0.1720301
-0.3898067 0.08714704 -0.11686773 -0.07512837 -0.068665646 0.12358626 -0.1634599 -0.08936817
0.10040682 0.020863833 0.22519833 -0.029938532 -0.21963519 -0.032259934 0.050777327 -0.23115987
0.11058769 -0.04711891 0.19224326 -0.23735595 0.15954801 -0.11688889 -0.22177546 0.03254263
0.1178885 -0.12233272 -0.015471543 0.11554133 0.18617423 0.12946844 0.249779 0.10317056
0.09481111 0.009137588 0.3028224 -0.3759242 0.06529373 -0.19734156 -0.097740665 -0.16543116
0.18640059 0.3248234 0.12671095 0.02868621 -0.019382037 -0.10483344 0.26661348 -0.025777219
0.10889079 0.3110849 0.12835658 0.022058995 -0.35451597 -0.19679742 0.045215946 -0.021508398
0.20868506 -0.19032802 -0.25753474 -0.2102087 -0.09583085 0.18392952 -0.02532066 -0.033819776

policy_layers.0.bias f4 [128]
00000000: a042 913e 0d81 213f 41a4 d93e 21cf 263e
00000010: 21a8 103f f342 903c 1393 2c3f a656 49be
00000020: cc24 093f 7115 40be 60c6 fe3e 4843 38bd
00000030: ccd6 28be c66c 983e 79ff 963e 0619 243f
00000040: f5b1 bc3d a157 0a3e b209 673f faf6 e2bd
00000050: ac27 b83e ee80 1b3f 8303 033f 8a52 f63e
00000060: c199 5d3f 1a6e 453f 8728 673f a2f3 2f3f
00000070: ef1a ff3e f9fc 9e3d dd6d a63e 02b8 16be
00000080: 9e4b 0d3f f8e2 073f f49f 253f 6b9e 063e
00000090: 00ee 733e 8ac6 3f3f 1f7f 37be 029c 333e
000000a0: e720 e83e 7274 193f 605e 6e3d 7fa9 143e
000000b0: 4be0 563f 55e7 3c3f 4c56 2c3a 9a2b 053f
000000c0: 57a2 3c3f 09cf dbbd 3353 223e 7377 63bd
000000d0: ec3c f03e f2ce 0d3f f0aa 013f a12f d03e
000000e0: 2778 af3e d74d dd3e c69f 7bbe 2009 413e
000000f0: d7c2 1e3b 55be 323f 34f9 323f f3c7 023f
00000100: f99e c53d a206 a73e 21c7 3c3f 8f36 2c3f
00000110: 0314 3f3f 3920 8e3e 733e 0fbe 541f 82be
00000120: 958a 803f 3f0d 1c3f 0dad afbc 02b7 ea3e
00000130: 4943 60bd 25ec 293e 5501 223f 34de 143e
00000140: 64e1 af3d 13a6 163e 528b 71bd 4da0 e63e
00000150: ef37 edbd 3501 133f 118e 5dbd 6fa7 553d
00000160: d4f0 543f 94d6 3a3f 53cf 913e 4578 e43e
00000170: a3f0 dcbd 3032 653e c911 113f c510 203f
00000180: d42a 753f fc93 c23e c1ec e33e e0f0 513e
00000190: b049 bd3e 5e43 88bb c794 103d bb32 323f
000001a0: 5d13 f23e f922 d13e da40 143f faa8 c33e
000001b0: 2f88 2c3e 1a5f 62be ce62 ce3e 82e3 5d3f
000001c0: 9a4f 5e3f 3edb 41be 7772 373e b774 93be
000001d0: ef93 263f 5ac9 763f 910b 5a3f bc12 b83c
000001e0: cbe6 1b3f 8cd0 aa3d 1eeb 5c3f 328c df3e
000001f0: 4be7 523e 0cb3 553e 6953 183f 5ff9 73bc
0.28371143 0.6308754 0.42508128 0.16289951 0.56506544 0.017610049 0.6741192 -0.1966196
0.5357177 -0.18758179 0.49760723 -0.04498604 -0.16488189 0.29770488 0.29491785 0.6410068
0.0921363 0.1350999 0.9024917 -0.11082263 0.35967767 0.60743606 0.51177233 0.48109847
0.86562735 0.77121127 0.90296215 0.6873113 0.49825236 0.077630945 0.32505694 -0.14718631
0.5519351 0.530807 0.64697194 0.13146369 0.23821259 0.7491232 -0.17919587 0.17539981
0.45337602 0.59943306 0.05819547 0.14517783 0.83935994 0.73790485 0.00065741385 0.52019656
0.7368521 -0.10732848 0.1585205 -0.055533838 0.4692148 0.553939 0.50651455 0.40661338
0.34271356 0.4322345 -0.24572667 0.18851137 0.002422502 0.69821674 0.69911504 0.5108635
0.09649462 0.32622248 0.73741347 0.6727075 0.7463991 0.2775896 -0.13988666 -0.25414526
1.0042292 0.6095771 -0.021444822 0.4584275 -0.054751668 0.16593988 0.6328328 0.14537889
0.08587912 0.1471179 -0.058970757 0.45044175 -0.11582934 0.57423717 -0.054090563 0.05216163
0.83179975 0.7298367 0.28478488 0.44623008 -0.10788085 0.22382426 0.56667763 0.6252559
0.95768476 0.38003528 0.44516566 0.20502043 0.36970282 -0.0041584214 0.035298135 0.6960866
0.47280398 0.40846995 0.57911456 0.38214856 0.16848825 -0.22106591 0.40309757 0.86675274
0.8684021 -0.1893129 0.17914759 -0.28799984 0.6506948 0.9640099 0.851739 0.02246987
0.6089904 0.083405584 0.8629626 0.43661648 0.20596044 0.20869082 0.59502274 -0.014890998

policy_layers.2.weight f4 [7, 128]
00000000: fed1 6a3f dbd3 2f3f 0470 f43e 6735 783f
00000010: 4198 083f a453 3c3f 2d0d 293e eafd a13f
00000020: 246d 9c3f df1f eb3f 3629 4b3f 6116 c23f
00000030: 1cde b53f a2f2 cf3f 1627 163f c775 053f
00000040: 6cfc 463f c199 903d 83ce d53e 6713 423f
00000050: 1b93 e53e 875d a23f 557a 223f a2a6 6a3e
00000060: 24a9 6e3e 8a3a 823f 3d8d e83d 5630 aa3f
00000070: 7e40 833f de5d 933f c21d 843f 06fa c53f
00000080: 95b7 3d3f 36e1 de3f 19e5 4a3f 61f5 6e3f
00000090: 4798 df3e 4df8 123f 2ab5 763f 477f 923f
000000a0: 40f5 973f 35d8 043f 2275 923f 4e62 b33f
000000b0: c36d 0c3f 189f a43f 3467 833f 2500 363f
000000c0: 9f35 633f d21c bb3f ba00 803f 22dc dd3f
000000d0: b76e 103f 7edf ed3e 082e 653f 118f 563f
000000e0: 46d0 193f 779e 653f 540b b93f d085 aa3f
000000f0: 04f4 563f 5c6a 8a3f 3893 8d3e 2367 ab3f
00000100: 156e 683f 8e5e bb3f 6ba9 a93e 474a 353f
00000110: 4cf4 603f 1926 ae3f 05c4 af3f 0332 c63f
00000120: 69ac 413f 9474 3a3f 85a8 f23f 5a1e 9a3f
00000130: 1199 563f e09b 2b3f 5554 1b3f bf09 8e3f
00000140: a7ce 9c3f ed77 2c3f 09f9 de3f e783 6b3f
00000150: 2e2e 513f 57f8 673f 1b7a 413f 77f6 b43f
00000160: 9c13 e73e 5274 f23e 89d5 183f 910a 6a3f
00000170: 6d0c 323f de19 683f 78a7 8f3f b496 4a3f
00000180: e2e0 bdbc 0004 733f 5bb6 273f 739f c83f
00000190: 5ec5 943f 6628 cd3f 4c02 073f e8f0 d93e
000001a0: 8447 323e 620c 7d3f 0258 1c3f 9b70 b53f
000001b0: 9c8e e03f e2c1 d93f 3c27 5d3f 0461 693f
000001c0: 9e23 193f acd3 873e 3dcb 0c40 1a3c d23f
000001d0: 8f36 893f 4ab2 a33e 729c 993e c8ae 563f
000001e0: 3b2d 153f 52fa c03f b86f fd3e db09 c23e
000001f0: 806c 903d dece 483f f8c7 703f f6d5 9c3f
00000200: c5d6 b53f 0e6f 8c3f 3f6c 603f 4091 9a3f
00000210: 8970 193f 10cc e23f 26e6 9d3e b40e 0240
00000220: 6f97 a23f 30c5 cf3f ee66 853f ccd4 fe3f
00000230: 62a5 c23f f684 953f 36a6 ef3f 426d f03e
00000240: f0c2 1d40 3883 943f 724b 8c3f d5a4 d43f
00000250: a4ca f83f 930c 8b3f c66d 533f c8c4 8a3e
00000260: df60 243f a370 923f 9faa 3d3e ee33 8c3f
00000270: 9f5b 2a3f 8350 f23e f06d 9b3f 7c85 913f
00000280: 756c 6c3f c3ea f43e ff02 6e3f e460 623f
00000290: 5a01 903f 93e3 933f dda6 c13f 134d c23e
000002a0: 2e48 163f 182c b43e 0d0f 9c3f 7d14 d63f
000002b0: 2000 b23e abcd 643f 52fb 1a40 e19e 4b3f
000002c0: 3c6f c2bb c139 f23f 4601 af3f e327 1040
000002d0: 1b0f 4a3f cdc6 ad3f ed12 f63f 3e3e 0640
000002e0: fd9c 683f 1f64 ba3f e97c 853f 5f09 8b3f
000002f0: 10bf 393f 8d9e 7a3f bc8c 8d3e cfd9 2c3f
00000300: e957 e53f d588 0940 9ad7 fc3e 32c2 103f
00000310: cc00 893f d5c4 a43f 313e b13f 99c6 743e
00000320: 87c2 0a3f 980d 6f3f 1dbb 2b40 0de7 913f
00000330: e327 0f3f a8fb b03f 4a1d fb3e 31b7 dd3f
00000340: 58d2 4c3f 7cd8 8d3f b23d a73f bd21 6d3f
00000350: 3b26 de3f e68a 593f c7d1 d53f dbfe e53f
00000360: 4a26 893e ac88 313f c73b b53f d7d6 863f
00000370: eee6 0c40 e000 9b3f 1809 0b40 0daf ea3e
00000380: 79be aa3e 9a77 c83f 54d9 6e3f a35f 923f
00000390: c815 5f3f daf6 dc3f e62a 4a3f 3281 853e
000003a0: d667 983e 577f b63f f1ad 0e3f 8a07 713f
000003b0: 1677 753f dcc6 9a3f f6dd a03f 6587 9ebd
000003c0: 4e7b 803f bc98 603f 06ec b53f 2c2d 0e40
000003d0: 0375 3e3f 4e37 4f3e 76a5 093f 1863 3d3f
000003e0: 9c7e 4e3f 01c3 d63f cb27 173e 8d79 b73f
000003f0: 3f6f ae3f 5f76 0b40 2dc3 103f 7bdc 6b3f
0.9172667 0.6868264 0.4774171 0.96956486 0.5335732 0.73565125 0.16508932 1.2655613
1.2220807 1.8369101 0.7935976 1.516308 1.4208407 1.6245921 0.5865339 0.5213284
0.77728915 0.07060576 0.41759118 0.75810856 0.44838795 1.2684792 0.63467914 0.22915128
0.2330671 1.0174115 0.11355064 1.3296001 1.0254056 1.1513021 1.0321581 1.5466926
0.7410825 1.7412479 0.79255825 0.9334317 0.43670866 0.57410127 0.96370184 1.1445092
1.1871719 0.51892406 1.1441996 1.4014375 0.54854983 1.2861052 1.026587 0.7109397
0.88753694 1.461817 1.0000222 1.7332804 0.5641894 0.46459574 0.89523363 0.8381205
0.60083425 0.89694923 1.4456582 1.3322086 0.8396609 1.0813708 0.27651381 1.339085
0.9079297 1.4638231 0.33137068 0.70816463 0.8787277 1.3605376 1.3731695 1.5484012
0.756537 0.72834134 1.8957678 1.2040513 0.8382731 0.6703472 0.60675555 1.1096724
1.2250565 0.6737049 1.741975 0.9199814 0.8171109 0.9061331 0.75576943 1.4137715
0.45132148 0.4735437 0.5970083 0.91422373 0.6955021 0.9066447 1.1222982 0.79136205
-0.023178522 0.9492798 0.6551263 1.567366 1.1622732 1.6027954 0.5273788 0.4256661
0.17410094 0.9884702 0.6107179 1.417499 1.7543521 1.7012293 0.8638799 0.9116366
0.5981997 0.2652868 2.1999047 1.6424592 1.0719775 0.3197196 0.3000217 0.83860445
0.5827214 1.5076392 0.49499297 0.37898144 0.07051945 0.78440654 0.9405513 1.2252796
1.4206167 1.0971391 0.8766517 1.2075577 0.5993734 1.7718525 0.30839652 2.0321474
1.2702464 1.6232052 1.0422037 1.990869 1.5206721 1.1681201 1.8722599 0.46958357
2.465023 1.1602545 1.0960524 1.6612803 1.9436841 1.0863212 0.82589376 0.27103257
0.64210314 1.1440624 0.18522118 1.0953348 0.6654605 0.4732705 1.2142925 1.1368861
0.9235299 0.4783536 0.9297332 0.88429093 1.1250412 1.1553825 1.5129048 0.37949428
0.5870389 0.3518989 1.2192093 1.6725003 0.3476572 0.89376324 2.4215894 0.79539305
-0.0059336703 1.8923875 1.3672264 2.2524345 0.789293 1.3576294 1.9224526 2.097549
0.90864545 1.4561805 1.0428745 1.0862235 0.72557163 0.9789818 0.27646434 0.6751985
1.7917453 2.1489766 0.4938324 0.5654632 1.0703368 1.2872568 1.3847104 0.23903884
0.54203075 0.9338012 2.6832955 1.1398636 0.5592024 1.3826799 0.49045783 1.732153
0.8000846 1.1081691 1.3065703 0.92629606 1.7355417 0.8497757 1.6704644 1.7968401
0.26787025 0.6934917 1.4158868 1.0534314 2.2015948 1.2109642 2.17243 0.45836678
0.33348444 1.56615 0.93300366 1.1435436 0.8714261 1.7262833 0.7897171 0.2607513
0.2976672 1.4257611 0.55734164 0.9415213 0.95884836 1.2091937 1.2567737 -0.07740668
1.003763 0.87733054 1.4212654 2.221507 0.74397296 0.20235941 0.537681 0.7397933
0.8066194 1.677826 0.14761274 1.4333969 1.36277 2.1790998 0.56547815 0.921333

policy_layers.2.bias f4 [7]
00000000: b2de bf3e a42b fa3d 06f5 423e fa92 863e
00000010: 7186 313f 269b 293f 42b8 793f
0.3747459 0.12215355 0.19038782 0.2628401 0.69345766 0.6625236 0.9754678

value_layers.0.weight f4 [128, 128]
00000000: c390 8d3d a68f 24be 3c58 96be a2d2 5cbd
00000010: 3cd2 56be 45f6 f4bc 7b08 83bd 7853 ac3d
00000020: 2ed8 d5be f50b 1fbe 66bf 16be 0580 acbd
00000030: 82ae 86be 16c3 e7be 89e5 a63d 7eb2 74be
00000040: 7881 20bd 4d3c e03d 64b1 b2bd 6e7e a93b
00000050: d148 79be 69b6 853e 7d1b a3bd 8e58 9bbd
00000060: f7e0 ddbc 30c6 3a3d d12a a83d 9a52 99bd
00000070: e8cb 673d cd4d b2bd 3391 84bd 5e8a a8be
00000080: f278 db3b bec2 713d 6b30 1bbf d595 9c3e
00000090: 0b33 30be 4a4d 063d 8230 603e 1caa 443d
000000a0: c681 13bd ea0c 85be aed8 71bd 7fec 46be
000000b0: e26e 96be 6ca1 1f3e 4868 febe 6fbb d0be
000000c0: b1bb 8c3d 463e ac3c 7acb 11bf 8612 51be
000000d0: dd4e e2bd 80f4 9b3c cce8 65bc 27b3 0bbe
000000e0: 0f83 1b3c ea22 463d e28e 6a3d 9057 f6bf
000000f0: 5fe9 ad3c 7020 823b 715f 66be 628b 84be
00000100: 00bf 44b9 ccc8 ecbd 72c4 f2bb 1643 ed3c
00000110: d297 b5bd de1e 753e 3dda 74be 8df7 f8be
00000120: 94b4 16be f9b0 8c3d ccd1 ae3d eb80 c7bd
00000130: 9130 74bd 4b25 353d ba52 bfbd df35 64bd
00000140: 77f2 cdbd 36a3 02bd 3573 22be 1061 8d3e
00000150: de3f a43c 5c81 4c3e 7099 a13d e8e8 20be
00000160: 3bc1 29be 88a4 aa3a 649e 813d 55bf 7a3d
00000170: 2890 4c3e 9aeb 28bd b597 1f3e f0c7 fa3c
00000180: f636 08be abbe c7bd a685 a1be 7332 03be
00000190: d949 243e bb5a a9be 84ca 3dbe 5e0b 953c
000001a0: eaa8 0b3d d5a5 b7bd ceb6 c63c e0e7 163e
000001b0: 42b9 293e 368e 09bc 6ee9 81bd 4364 a43d
000001c0: cbd5 b23d 35fc 0dbe 64b2 2ebe 538e 7a3d
000001d0: 9aff f1bd c1e8 7d3e b28d 973d fca4 aebe
000001e0: 710f dabe 5362 c33d 8373 b3bc 304a ba3d
000001f0: 4a40 9ebd 8be3 82bd ad49 323e 22b8 43be
00000200: 2112 a4be 4c10 dc3c bf2f 68bf c848 01bc
00000210: 0c24 35bc bf80 e9bc b6a8 16bf 025a 83bd
00000220: fd42 51be 3078 0cbe d9eb 5ebe 331c 13bc
00000230: ccd8 c0bd bacf 65be 49e4 39bf c7c8 03bf
00000240: 3835 88bc 0a06 043e ff86 883e 8cac b0bd
00000250: 020f 23bf b88a 98be cbbd 9f3c c79f e33c
00000260: a109 973d 3917 2b3e 9f22 6d3d f742 81bd
00000270: 8e91 21bf dfde 0b3f 1522 173c ea1d b43d
00000280: 18c5 a53c e36c 05bd 0e11 40bd 889b 583e
00000290: 6579 8fbe e840 14bd 284c 283e 221e a2be
000002a0: 01da d6be abfd 8cbe 866b a0bc 6f08 04be
000002b0: 02e5 bbbe 66f1 733e 71f6 d3be 6a25 8bbe
000002c0: 9b50 343e 19fb 8f3d b044 e8bc 9026 76be
000002d0: 8852 883c ea4e 74bd fae5 533e 126c fd3d
000002e0: 9de3 6ebe 6aec f53e 21b5 44be 7b21 c0be
000002f0: dcaa 7ebe fc65 20be 4670 a5bd aa89 80bd
00000300: 5d06 a3be 4db4 b03c bed6 96bd 408b 90b9
00000310: 9ed6 94be 69f3 08be d71d bbbf cb9f 1cbd
00000320: a89f b5bb 971d ca3d b779 883e a007 c13d
00000330: 8f7a 04be 6f77 e93d 42c0 9cbd 565a b53d
00000340: 603c 0cbf 7c0d d23c fcdb b6be 2330 30be
00000350: 3d12 9bbd 3055 97be 7597 fabd 5d2f 11bf
00000360: c033 cebe f2a6 283b 5cb1 9ebe 75ed f5bd
00000370: cd5a 8c3e e974 60bd f5f6 a7be f6ce 24bc
00000380: 0c9f 58be a5c2 26bd 3e8f 1cbe 6ea1 90bc
00000390: c366 47bd 2e39 6ebe dcb9 7b3d f224 19bd
000003a0: bf7a 12be 65c7 f63d 3a43 58bd f67c ed3e
000003b0: f7a2 cfbe 11ef 083e bc26 1bbc 0a14 2d3d
000003c0: b9e0 6a3d 1867 9f3c 02ac cbbe 6ed6 44bd
000003d0: b07f 093e 466a 05bf 8e17 4bbd 1569 733d
000003e0: 3740 013d 0dce 4d3d 75af fabe 6f95 2e3d
000003f0: 9774 9b3d d2ee 2fbd 2444 9e3d 9a20 6dbe
0.06912377 -0.16070423 -0.29364192 -0.053911813 -0.20978636 -0.029902587 -0.06398102 0.08414358
-0.41766495 -0.15531905 -0.1472145 -0.08422855 -0.26305014 -0.45266026 0.08149249 -0.23896214
-0.03918597 0.109490015 -0.08725241 0.0051725423 -0.24344184 0.2611573 -0.07964227 -0.0758525
-0.02708481 0.045599163 0.082112916 -0.07486458 0.056590945 -0.087062456 -0.06473007 -0.32918066
0.0066977674 0.05902361 -0.60620755 0.30583063 -0.17206971 0.032788552 0.21893504 0.04801379
-0.036012433 -0.25986415 -0.059044532 -0.19426154 -0.29381472 0.15588921 -0.49688935 -0.40768
0.06871737 0.021025788 -0.56951106 -0.20417222 -0.11050198 0.019037485 -0.014032554 -0.1364256
0.009491696 0.04837314 0.05726517 -1.9245472 0.021229444 0.003971152 -0.22497346 -0.2588759
-0.0001876317 -0.115617365 -0.007408672 0.028962653 -0.08866848 0.23937556 -0.23911376 -0.48626366
-0.14717323 0.06869692 0.08536109 -0.09741386 -0.05961663 0.04422502 -0.09341951 -0.055715438
-0.10056012 -0.03189393 -0.1586426 0.27613115 0.020049985 0.19971222 0.07890594 -0.15713847
-0.16577618 0.0013019005 0.06329039 0.061217625 0.19976866 -0.041240312 0.15585215 0.030612916
-0.13302216 -0.09753164 -0.31547278 -0.12812214 0.16043796 -0.33077034 -0.18534285 0.018193897
0.034096636 -0.08967177 0.02425709 0.14736891 0.16574576 -0.008395722 -0.06343351 0.08026936
0.08732184 -0.1386574 -0.17060238 0.061170887 -0.1181633 0.2479582 0.07400073 -0.34110248
-0.42589906 0.09540238 -0.021905666 0.090961814 -0.07727106 -0.063910566 0.17410918 -0.1911321
-0.3204508 0.02686324 -0.90697855 -0.007890888 -0.0110559575 -0.028503774 -0.5885118 -0.06413652
-0.2043571 -0.13717723 -0.21769656 -0.008978891 -0.09416351 -0.22442523 -0.7261396 -0.51478237
-0.01662694 0.12892929 0.26665494 -0.08626661 -0.63694775 -0.29793334 0.01949968 0.027786149
0.073748834 0.16708077 0.057894345 -0.06311601 -0.63112724 0.5463695 0.009224434 0.08794768
0.020235583 -0.032574546 -0.046891265 0.2115308 -0.28022304 -0.036194712 0.16435301 -0.31663615
-0.419632 -0.27537283 -0.019582521 -0.12893842 -0.36698157 0.23822555 -0.41398957 -0.27176982
0.17608874 0.07030315 -0.028353065 -0.24038148 0.016640916 -0.05964557 0.20693198 0.123741284
-0.23329015 0.48031932 -0.1920972 -0.37525544 -0.24869865 -0.15663904 -0.08078055 -0.06276257
-0.31840792 0.02157035 -0.073651776 -0.0002756957 -0.2906999 -0.13374104 -1.4618481 -0.038238328
-0.005542714 0.09868925 0.2665536 0.094252825 -0.12937377 0.11399733 -0.07653858 0.08855121
-0.54779625 0.025641195 -0.3571471 -0.17205863 -0.07571838 -0.2955718 -0.122359194 -0.56712896
-0.40273857 0.0025734273 -0.3099469 -0.12008182 0.27413025 -0.054798994 -0.328056 -0.010059109
-0.21154422 -0.04071297 -0.15289018 -0.0176551 -0.048681986 -0.23264 0.061456546 -0.03738875
-0.14304636 0.1204975 -0.052798487 0.463844 -0.4055402 0.13372447 -0.009469684 0.04225544
0.05734322 0.019458339 -0.3977967 -0.04805606 0.13427615 -0.52115285 -0.04958301 0.059426386
0.03155538 0.050245333 -0.48961988 0.04262298 0.07590597 -0.042952366 0.077278405 -0.23156968

value_layers.0.bias f4 [128]
00000000: d1cd 88bf 5067 acb9 e75e 8f3e 8648 983e
00000010: 021d 583f 7891 11bf 26b5 ae3e 9252 32be
00000020: a1cf 8fbe 3678 a6be 12f0 d1bd bf07 da3e
00000030: f1a3 48bf 4964 acbe c51d 543e 7cef 35be
00000040: 28d7 763e 0be9 dcbe e6c0 df3d c964 dc3a
00000050: 46ce 423f b25d 51be c5ae b43e 4c74 02bf
00000060: 410b 4fbe 57a0 9c3e 2c94 8c3e 9252 cabc
00000070: 3647 d73e 17b2 cf3e a774 eb3d c58c ba3f
00000080: 3f6f 8dbe 76ed 0740 e719 22bd 1ebe b7bd
00000090: 70fb 2c3f 7d33 39be e093 bbbd e28f 3440
000000a0: 5d26 e3be 4cfa 99be de6b 83bf 98c9 cf3e
000000b0: d840 0a40 b7af 903f d2ad 4940 6ef4 80be
000000c0: 775f 91be aa15 223f 20b9 2dbe b046 f9bd
000000d0: 35db 26bf fe97 0dbe 2b7a 31bd 7742 df3e
000000e0: c781 08bf ee39 c3be 4fd3 e1bd c0f2 21be
000000f0: 83b0 11bd f253 023e b7af fcbe 9de4 78bf
00000100: ccbe c9bd 53ed 18be 7fc5 b83f f82f 1cbf
00000110: fc49 1ebf 412e 1bbf c95a e1be 3478 3e40
00000120: 9dca c2be 0329 4940 6b23 1cbf 098e 19be
00000130: aeff 0ebf fe50 3a3e f1a7 87be 068a 21be
00000140: a940 93bb 598d 1e3f 7849 d7bd d20b a1be
00000150: af70 c5be 24f6 793f 27b2 513f d360 b6bd
00000160: fedf 8dbd a3a8 c2bf 5ccc 4bbf d272 a2be
00000170: 1726 dcbe 26f1 903f 26b5 37be 9c4b a03f
00000180: 37b4 8e3f f864 ecbd d2a8 09be 253b 81bd
00000190: f06a b6be de74 0e3f 8f55 5f3f 81b8 27bf
000001a0: 5a00 c4be d8ee 863f 80f7 59bf 516e 983f
000001b0: e361 a73f 152b b3bd 6213 f73e 029b b13e
000001c0: 1bfd 52be 5665 31be b993 40bf 5346 c13f
000001d0: 3bc8 2abf c6cc 45bf 2ced 1a3f 4116 61bf
000001e0: baae aabe fae3 19bf 66ac a93d 3276 8dbf
000001f0: eb20 d6be dc93 5fbf 3fa7 853f cd7f 4c3d
-1.068781 -0.0003288337 0.28002092 0.2974283 0.8441926 -0.5686259 0.3412258 -0.1741431
-0.28088096 -0.3251359 -0.10250868 0.42584035 -0.78375155 -0.33670262 0.20714481 -0.17767137
0.24105513 -0.43146548 0.10925464 0.0016814704 0.76096 -0.20445898 0.3528959 -0.50958705
-0.20219137 0.3059108 0.27456796 -0.024697576 0.42046517 0.4056556 0.11496859 1.457421
-0.27623937 2.1238685 -0.039575484 -0.08971809 0.67571163 -0.18086047 -0.09159064 2.821282
-0.44365206 -0.30073774 -1.0267293 0.4058349 2.1602077 1.1303624 3.1512341 -0.25186485
-0.28393146 0.63314307 -0.16965151 -0.12171686 -0.65178233 -0.13827512 -0.0433294 0.43605396
-0.53323025 -0.38130134 -0.11026632 -0.15815258 -0.035568725 0.12727335 -0.4935281 -0.97223836
-0.09850845 -0.14934282 1.4435271 -0.61010695 -0.6183164 -0.6061745 -0.44014576 2.9760866
-0.38045207 3.1431282 -0.60991544 -0.14995588 -0.55858886 0.18194959 -0.26495317 -0.15775308
-0.004493792 0.6193443 -0.1051206 -0.3145433 -0.38562533 0.97641206 0.81912464 -0.089051865
-0.06927489 -1.5207714 -0.796087 -0.31728226 -0.4299781 1.1323593 -0.17940196 1.2523074
1.1148747 -0.11542696 -0.13443306 -0.06310109 -0.35628462 0.55647075 0.8723993 -0.65515906
-0.38281518 1.0541639 -0.8514328 1.1908666 1.3076748 -0.087484516 0.48256975 0.34688574
-0.20604365 -0.17323813 -0.75225407 1.5099586 -0.6671178 -0.77265584 0.60518146 -0.8792458
-0.3333643 -0.6011349 0.082848355 -1.1051695 -0.4182199 -0.8733499 1.0441664 0.049926568

value_layers.2.weight f4 [1, 128]
00000000: e9a8 8bbf ac5c 553f 3f82 d1bf bdcb 0bc0
00000010: 1a54 533f cab7 adbf a780 1140 aad0 0d3f
00000020: d41a 133f 2cd2 103f 1b5d cabf 494e 3fbf
00000030: e7b5 a4be fe4c 70bf e810 473f 4807 9bbf
00000040: 80c6 4abf 2970 6b3f c6d8 ed3e 7978 243f
00000050: 61bb 593e d0cc c5bf dc87 9abf b5fd 663f
00000060: ada9 383f 56f8 c73f 6fbd 31bf 0949 8d3f
00000070: e0e7 9e3f bd73 c43e 1f29 a1bf 38cf 2abf
00000080: d8f9 36bf f951 d33e 602a 0abf 9a8e b1bf
00000090: 96d2 863f bf8a 543f a6b3 aa3f ef65 d73e
000000a0: df39 32bf 1491 cbbf 9e46 72bf 5d87 d3be
000000b0: d23a 38bf 36d5 17bf bf37 573e 2e5b 85bf
000000c0: a2e4 40bf 4e08 243f 7347 b8bf 8135 26c0
000000d0: 3253 71bf ed68 65bf 67af dbbf 459b 883f
000000e0: 6cb6 50bf ce25 a6bf 2890 1cc0 037c a7bf
000000f0: aef9 7a3e 69af 81bf 2f0e 36bf 5ce9 24bf
00000100: 3576 883f 2896 a6bf 1439 77bf ad2e 753f
00000110: 2481 413e 4611 9f3f cd68 81bf 041d d3bd
00000120: 3119 443f 6f0d e1be bef6 ccbf 94be d03e
00000130: ba15 83be d817 a63e 2d0f f6bf 9c3c 5f3f
00000140: 7f9e eebf ebb7 873f ee2d 58bf 424d 803f
00000150: 2a8b 1c3f 976f 183f 5be8 cc3f afdb 04c0
00000160: ba09 c3bf 2bc5 37bf e7bd 99bf 8cf0 403f
00000170: 68f2 b7bf 05a1 56bf 7fa0 753f c053 48bf
00000180: a8d5 0c3f e2e1 5abf 580c 3c3f 8f71 b4bf
00000190: 26ed 113f c47f cf3e a083 7b3f eb31 063f
000001a0: 1ae7 013f f0ea 243f 9f2f a0bf 7883 b03f
000001b0: 0ead 213f e71a 1bbd 66e6 393f 252e 713f
000001c0: a93f abbe 23fb 0c3f 8393 58bf 62ac 023d
000001d0: dbfe 63bd 61f4 5c3f 0216 82bf 1929 abbf
000001e0: aef3 883f 4b32 683f 534d 34bf dfbf 9cbf
000001f0: e8f8 833f e959 6ebf 86e4 633f 15d5 163f
-1.0910922 0.8334453 -1.6367873 -2.1843102 0.82550204 -1.3571713 2.2734773 0.5539652
0.5746281 0.56570697 -1.5809664 -0.7472883 -0.3217003 -0.9386748 0.7776017 -1.2111597
-0.79209137 0.9196802 0.46454448 0.64246327 0.21262886 -1.5453129 -1.2072711 0.90230876
0.72133905 1.5622661 -0.6942968 1.1037914 1.2414513 0.3836955 -1.2590674 -0.6672244
-0.7147498 0.41273478 -0.5397091 -1.3871644 1.0533016 0.8302421 1.3336074 0.42069957
-0.69619554 -1.5903649 -0.94639003 -0.4131421 -0.7196475 -0.5930971 0.21017359 -1.0418451
-0.75348866 0.6407517 -1.4396805 -2.5970156 -0.9426757 -0.8961323 -1.7162904 1.0672385
-0.81528354 -1.2980287 -2.4462986 -1.308472 0.24509308 -1.0131656 -0.7111539 -0.6441858
1.0661074 -1.3014574 -0.9657147 0.95774347 0.1889692 1.2427146 -1.0110108 -0.10308269
0.7660094 -0.43955562 -1.60128 0.407704 -0.25602514 0.32440066 -1.9223381 0.8720186
-1.8642119 1.0603002 -0.84445083 1.0023577 0.6114985 0.5954527 1.6008409 -2.0759084
-1.5237343 -0.7178523 -1.2011079 0.75367045 -1.4370852 -0.83839446 0.9594802 -0.7825279
0.55013514 -0.8550092 0.73456335 -1.4097155 0.57002485 0.40527165 0.9824772 0.5241992
0.5074326 0.64420986 -1.2514533 1.3790121 0.63154685 -0.037867453 0.72617185 0.94211036
-0.33447006 0.55070704 -0.84600085 0.03190268 -0.05566297 0.8631039 -1.0162966 -1.3371917
1.0699365 0.9070174 -0.7043049 -1.2246054 1.0310335 -0.9310594 0.89020574 0.5891889
