Agent1_Congkak_PPO.pt (torch, 215541 bytes, 11 tensors)

shared_layers.0.weight f4 [128, 16]
0	0xbe899250	-0.2686944
1	0x3ca1b3d4	0.019739069
2	0xbea375ed	-0.31925908
3	0xbea30dc2	-0.31846434
4	0x3e44b6a4	0.19210297
5	0x3ca661e6	0.020310353
6	0x3e0ec4a3	0.13942198
7	0xbe0238b4	-0.12716943
8	0xbe991e7d	-0.29906073
9	0x3e18dd2e	0.14928123
10	0xbe881952	-0.26581818
11	0xbe9dd75e	-0.30828375
12	0xbed009fb	-0.40632614
13	0xbecbe6c1	-0.3982449
14	0xbcbe4513	-0.023226297
15	0xbdee69e0	-0.11641288
16	0xbe4e647d	-0.2015552
17	0x3c159e4c	0.009131979
18	0xbe4d73de	-0.20063731
19	0xbe04fbbf	-0.12986659
20	0x3d4bf7cd	0.049796868
21	0x3d1ab523	0.0377704
22	0xbef15e4f	-0.47142264
23	0x3dac7e8b	0.08422574
24	0xbe8c0280	-0.27345657
25	0xbd502570	-0.050816953
26	0x3d99d4bc	0.07511279
27	0xbd9405d9	-0.07227678
28	0x3d2e3613	0.042532038
29	0x3d2063ae	0.039157562
30	0x3d32ff84	0.04370071
31	0xbe6a09a8	-0.22855246
32	0xbc89911b	-0.016792824
33	0xbee13e5c	-0.4399289
34	0xbe974f2a	-0.29552585
35	0xbe66f66f	-0.22554944
36	0xbda1e53c	-0.07905051
37	0xbe123755	-0.1427892
38	0xbe5e03ba	-0.21681109
39	0xbed6c402	-0.41946417
40	0xbe6b546e	-0.22981426
41	0x3e10dd6c	0.14146966
42	0x3e24eb10	0.16105294
43	0xbea867db	-0.32891735
44	0xbc5e56d6	-0.013570508
45	0x3d1f0525	0.038823266
46	0xbed0b47e	-0.40762705
47	0xbf1df2f8	-0.61698866
48	0x3df1de31	0.11809958
49	0xbef1e266	-0.4724304
50	0x3d9ccbdd	0.07656071
51	0xbcb3d27e	-0.021950956
52	0x3d951b70	0.07280624
53	0xbd9017b1	-0.07035769
54	0xbc42f5d7	-0.011899433
55	0xbf82e07d	-1.0224758
56	0xbec58602	-0.38578802
57	0x3d261756	0.0405496
58	0xbd392009	-0.045196567
59	0xbee60e7a	-0.4493292
60	0xbf1f19c3	-0.62148684
61	0xbe87790a	-0.26459533
62	0x3e7da465	0.24769743
63	0x3eb55294	0.35414565
64	0xbd539abe	-0.051661246
65	0x3e3fcb3c	0.18729872
66	0xbe626127	-0.22107373
67	0xbf1f7a87	-0.62296337
68	0xbe30f40a	-0.17280594
69	0xbef485f1	-0.4775844
70	0xbf582dc6	-0.84444845
71	0x3e027b88	0.12742436
72	0xbe0638cc	-0.13107604
73	0xbd033ac8	-0.03203848
74	0xbe3f9964	-0.18710858
75	0xbe187592	-0.148886
76	0xbf70d9a4	-0.94082093
77	0x3e1107bb	0.14163105
78	0xbd4759fe	-0.048669808
79	0xbe82562f	-0.25456378
80	0xbf3701a7	-0.71486896
81	0xbe81f4e4	-0.2538215
82	0xbc23e6b3	-0.010003733
83	0x3e4a7857	0.19772469
84	0xbe17bd3e	-0.14818284
85	0x3d38e21a	0.045137502
86	0xbec2ab0a	-0.38021117
87	0xbd404af8	-0.046946496
88	0x3d88b377	0.06674855
89	0xbea3ae2d	-0.31968823
90	0xbe19aca8	-0.1500727
91	0xbe81ac2c	-0.2532667
92	0x3e72d7d8	0.2371515
93	0xbeaf6fc8	-0.3426497
94	0xbd9e1f8e	-0.07720862
95	0xbf8d032f	-1.1016597
96	0xbcfdec77	-0.030996544
97	0x3d524fe4	0.05134572
98	0xbed295b2	-0.41129833
99	0x3e0f25ac	0.13979214
100	0xbe82e1db	-0.2556294
101	0xbca94438	-0.020662412
102	0xbd83993a	-0.0642571
103	0x3e0ea4a8	0.13929999
104	0xbeace8c7	-0.33771345
105	0x3dfe3cde	0.12413953
106	0x3d9ad4fb	0.07560154
107	0xbe2d2e8f	-0.16912292
108	0xbd2f0534	-0.04272957
109	0xbe97c0bb	-0.2963923
110	0xbeb25679	-0.34831598
111	0xbe30d057	-0.17266975
112	0xbe5c73a4	-0.21528488
113	0xbe6c430f	-0.23072456
114	0xbe1a8b7f	-0.15092276
115	0xbf481749	-0.7816053
116	0xbbb10e64	-0.005403327
117	0xbde53333	-0.11191406
118	0xbf0ef189	-0.55837303
119	0x3dd39737	0.10331576
120	0xbe451510	-0.19246316
121	0x3e9b1230	0.30287313
122	0xbee4f4a5	-0.447179
123	0x3d701290	0.058611453
124	0xbeeccafc	-0.46248615
125	0xbf210bd7	-0.6290869
126	0x3eb1ea56	0.34749097
127	0xbfb608c8	-1.422143
128	0x3ccda056	0.025100868
129	0xbef176dc	-0.47160995
130	0xbebdcea0	-0.37071705
131	0x3d93f6ae	0.07224785
132	0xbe372463	-0.17884974
133	0xbf3fb53d	-0.7488592
134	0xbe29edd1	-0.16594626
135	0xbeb8c904	-0.36090863
136	0xbe99fc2b	-0.300752
137	0xbf079021	-0.529543
138	0xbf425167	-0.7590546
139	0xbeaa9508	-0.33316827
140	0x3e4fcf59	0.2029394
141	0xbe81b253	-0.25331363
142	0x3e4e8b91	0.20170428
143	0xbd27d190	-0.04097134
144	0xba070724	-0.00051509053
145	0x3bdd6748	0.006756697
146	0xbb82ccac	-0.003991684
147	0xbe1e7275	-0.1547335
148	0xbb9d21e8	-0.0047953017
149	0xbe821538	-0.25406814
150	0xbaf67cc4	-0.0018805494
151	0xbe725470	-0.23665023
152	0xbe3ccba5	-0.18437059
153	0x3d960a8a	0.07326229
154	0xbe5a825f	-0.21338795
155	0x3d7fa974	0.062417462
156	0x3dc4a899	0.0960247
157	0xbe520474	-0.20509511
158	0xbdf842c8	-0.121221125
159	0xbea2dd1a	-0.31809312
160	0xbd569c5a	-0.052395202
161	0xbea76d67	-0.32700655
162	0x3d8e81c0	0.069583416
163	0xbea558da	-0.3229435
164	0xbe47279e	-0.19448707
165	0xbd1bde94	-0.038054064
166	0x3e2511d7	0.16120087
167	0x3ec375c5	0.3817579
168	0xbf096e42	-0.53683865
169	0xbf62cae6	-0.8859085
170	0xbe0c5304	-0.13703543
171	0xbe9d4d23	-0.30722913
172	0xbea32ec0	-0.31871605
173	0xbf51b1bf	-0.81911844
174	0xbd0bf46c	-0.034168646
175	0xbe62e567	-0.22157823
176	0xbea1a4b5	-0.31570974
177	0xbe612c82	-0.21989635
178	0xbce6ba30	-0.028164953
179	0x3eaaee68	0.33385015
180	0xbe00cfdb	-0.1257929
181	0xbf0b9b33	-0.5453369
182	0xbf337fa3	-0.70116633
183	0xbd9e52f8	-0.07730669
184	0xbd8510bf	-0.06497335
185	0xbdea9978	-0.11455053
186	0xbf1a3bfc	-0.6024778
187	0xbe8cfd7f	-0.27537152
188	0xbd2ae269	-0.041719828
189	0xbf2dce09	-0.6789251
190	0x3d987d3f	0.07445764
191	0x3b291bb8	0.0025803875
192	0xbd926c63	-0.071495794
193	0x3dc10ca7	0.09426241
194	0x3e02263b	0.12709896
195	0xbe88accb	-0.2669433
196	0xbe91f003	-0.28503427
197	0xbe9bc3c5	-0.30422798
198	0xbe9b6eac	-0.30357873
199	0x3dab50e6	0.083650395
200	0xbe23b3ba	-0.15986529
201	0xbe6add5c	-0.22936004
202	0xbe4d5a52	-0.20053986
203	0xbd63ee6e	-0.055647306
204	0x3da303d0	0.079597116
205	0xbe205307	-0.15656672
206	0x3dc2ce4a	0.09512003
207	0xbea49605	-0.32145706
208	0x3ca5ba22	0.020230357
209	0x3d719bd2	0.058986492
210	0xbebed051	-0.37268308
211	0xbd0327a6	-0.032020234
212	0x3e1e67a6	0.15469226
213	0xbe6139e4	-0.2199474
214	0xbe04abf3	-0.12956218
215	0xbecf4759	-0.4048412
216	0xbec961bc	-0.39332378
217	0x3e7449e1	0.23856308
218	0xbefd2743	-0.49444017
219	0x3e0421dc	0.12903541
220	0x3e821716	0.25408238
221	0xbf0f8a7f	-0.56070703
222	0xbed40d01	-0.4141617
223	0xbed232e6	-0.41054457
224	0xbd7836db	-0.06059919
225	0xbe4d2614	-0.20034057
226	0xbc9dd8d2	-0.019268427
227	0xbe2d69b8	-0.1693486
228	0xbd94aea8	-0.072598755
229	0x3d8cf359	0.068823524
230	0xbe6e7fe6	-0.23290977
231	0x3d7e4294	0.062075213
232	0xbe84e233	-0.25953826
233	0xbea182f2	-0.31545216
234	0xbe43ab4e	-0.19108316
235	0xbda268ed	-0.07930169
236	0xbe6ee0e6	-0.2332798
237	0x3d0a54bc	0.033772215
238	0x3df445e8	0.11927396
239	0xbf26c250	-0.6514025
240	0xbee52be7	-0.44760057
241	0xbdb55bb7	-0.08855384
242	0x3d88d64a	0.066814974
243	0xbeac65a3	-0.33671293
244	0xbd04b6d6	-0.03240093
245	0xbe153c75	-0.14573844
246	0xbdd7eb50	-0.10542929
247	0xbe4d3d1c	-0.20042843
248	0x3e18f9db	0.14939062
249	0xbdcb031f	-0.09912705
250	0xbdbf30e3	-0.09335496
251	0xbdf69425	-0.12039975
252	0xbe5a5070	-0.21319747
253	0xbeb0aa84	-0.34505093
254	0x3cf09b98	0.029371068
255	0xbebd7c16	-0.37008733

shared_layers.0.bias f4 [128]
0	0xbe390fd7	-0.18072449
1	0xbc8ec06a	-0.017425735
2	0x3cfd175a	0.030894924
3	0xbf0489bc	-0.51772666
4	0xbb85cd3b	-0.0040833033
5	0xbefaf2a4	-0.49013245
6	0xbe9822a3	-0.29713926
7	0xbe4fbf96	-0.20287928
8	0xbeb2d66f	-0.34929225
9	0xbe3ed12d	-0.18634482
10	0xbc60197f	-0.013677954
11	0xbe320350	-0.17384076
12	0x3c33d665	0.010976409
13	0xbd97b2a9	-0.074071236
14	0xbe9614b8	-0.29312682
15	0x3e8a6cfb	0.2703627
16	0xbdf63702	-0.12022211
17	0xbe94b27a	-0.29042417
18	0xbe9560e8	-0.29175496
19	0x3dab37a1	0.0836022
20	0x3db30978	0.087420404
21	0x3d670b82	0.05640746
22	0xbe98b4e8	-0.2982552
23	0xbee162d6	-0.44020718
24	0xbf116ad4	-0.5680363
25	0xbe53665c	-0.20644516
26	0x3def7fe1	0.11694313
27	0x3d54f6e8	0.05199328
28	0xbde20f1c	-0.11038038
29	0xbe6ab9bb	-0.22922413
30	0xbed4aafe	-0.41536707
31	0xbe41ff0a	-0.18944946
32	0xbde2ebf8	-0.11080164
33	0xbbe09ff5	-0.006855006
34	0xbdc3a4d9	-0.095529266
35	0xbc076812	-0.008264558
36	0xbde43996	-0.11143796
37	0xbe05ada1	-0.13054515
38	0xbf010f43	-0.5041391
39	0xbf175089	-0.5910726
40	0xbdbea35e	-0.093085036
41	0xbf10f1af	-0.5661878
42	0xbe9dbd7e	-0.30808634
43	0xbe87fcd8	-0.26560092
44	0xbe1c0cde	-0.15239283
45	0xbe622dae	-0.22087738
46	0xbbb7c9ef	-0.005608789
47	0xbdcc81f9	-0.09985728
48	0x3e070e72	0.13189104
49	0xbf06b49d	-0.52619344
50	0xbe939520	-0.2882471
51	0x3e24915e	0.16071078
52	0xbe4227d6	-0.18960509
53	0xbef51183	-0.47864923
54	0xbf62ef49	-0.8864637
55	0xbea8eb04	-0.32991803
56	0x3e057474	0.13032705
57	0xbed698f8	-0.4191358
58	0xbe036a73	-0.12833576
59	0xbe441a40	-0.19150639
60	0x3da2ee88	0.079556525
61	0xbdc0726e	-0.09396826
62	0xbd9cedf8	-0.076625764
63	0xbec6a38e	-0.38796657
64	0x3cb666b4	0.02226577
65	0xbf208e80	-0.6271744
66	0x3d13a33d	0.036044348
67	0xbebf2f2c	-0.37340677
68	0xbeef0391	-0.46682408
69	0xbe5ed798	-0.2176193
70	0xbe3d6ea2	-0.18499234
71	0xbeb2bf05	-0.3491136
72	0xbe91dc9f	-0.28488633
73	0xbe8e94f6	-0.27848023
74	0xbe8cc132	-0.27491146
75	0xbea66f74	-0.32506907
76	0x3e25d47f	0.16194342
77	0xbdd66448	-0.10468346
78	0xbe23a511	-0.15980937
79	0xbee9584c	-0.45575178
80	0xbe1746b6	-0.14773068
81	0xbc2e81e3	-0.010651085
82	0x3e0dc24e	0.13843653
83	0xbebd657a	-0.36991483
84	0xbe902988	-0.28156686
85	0x3c5b3cdb	0.013381208
86	0x3dcb1162	0.09915425
87	0x3d950319	0.072759815
88	0x3e1c7a2b	0.15280978
89	0x3e267b37	0.1625794
90	0xbea3a1f2	-0.31959492
91	0xbc918bce	-0.01776686
92	0xbeb3ec46	-0.351412
93	0xbeb9a7e1	-0.36260894
94	0x3d47571d	0.048667062
95	0xbea08b21	-0.31356147
96	0x3ee61762	0.44939715
97	0xbf28ddab	-0.6596324
98	0xbd86fd96	-0.065913364
99	0xbe7f3690	-0.24923158
100	0xbedf2568	-0.43583226
101	0xbd0df8af	-0.03466099
102	0xbea7e710	-0.32793474
103	0xbe606bdb	-0.21916144
104	0xbeb946d5	-0.36186853
105	0xbd2ce869	-0.04221383
106	0x3d9af207	0.07565694
107	0xbdf17ca2	-0.1179135
108	0x3cf6e3f8	0.030138
109	0xbd120abf	-0.03565478
110	0xbda80092	-0.08203234
111	0xbd74fcf1	-0.059811536
112	0xbeb02583	-0.3440362
113	0xbefee230	-0.49781942
114	0x3c4412b0	0.011967346
115	0xbea23860	-0.31683636
116	0xbea5925b	-0.32338223
117	0x3f043110	0.51637363
118	0x3f13d5f2	0.5774833
119	0xbeecf144	-0.4627782
120	0xbe8ca160	-0.2746687
121	0x3dfd5220	0.1236918
122	0xbead9625	-0.33903614
123	0xbdf54a2b	-0.11977037
124	0xbefe57e1	-0.4967642
125	0x3e84ad5d	0.25913516
126	0xbe1a78b7	-0.15085112
127	0xbe50f91b	-0.20407526

shared_layers.2.weight f4 [128, 128]
0	0x3cb388ba	0.021915782
1	0xbdd215dc	-0.102580756
2	0xbf04fa5a	-0.51944506
3	0xbe49aeb0	-0.19695544
4	0xbc2dea0d	-0.010614884
5	0x3cf380b6	0.02972446
6	0xbce2c8e5	-0.027683685
7	0xbe4a3bc7	-0.19749366
8	0xbd96c073	-0.073609255
9	0xbd0e93d6	-0.034808956
10	0xbec05a30	-0.37568808
11	0xbdedf2bb	-0.11618563
12	0x3dfe4ed9	0.12417383
13	0xbdd50da6	-0.10402994
14	0xbc976fdc	-0.018485956
15	0xbd75e46d	-0.060032297
16	0x3cc1cbea	0.023656804
17	0xbcec247e	-0.028825995
18	0xbe3577a8	-0.17721426
19	0xbcacc6e2	-0.021090928
20	0x3e308408	0.17237866
21	0xbd8979d0	-0.06712687
22	0xbe5ab3de	-0.21357676
23	0xbf599a87	-0.85001415
24	0x3db7005e	0.08935617
25	0x3d7bdbbb	0.06148885
26	0xbc2dd8c8	-0.010610767
27	0xbd82c067	-0.06384354
28	0xbd1ff4e0	-0.03905189
29	0xbe8525bb	-0.2600535
30	0x3d083ce4	0.033261195
31	0x3d9c4112	0.07629599
32	0xb88d2438	-6.73015e-05
33	0x3d57e90f	0.052712496
34	0xbd859b08	-0.065237105
35	0x3e7ce766	0.24697646
36	0xbeaf8e94	-0.34288466
37	0xbe445108	-0.19171536
38	0xbd0577fb	-0.032585125
39	0xbf468e3e	-0.77560794
40	0xbc3899fa	-0.01126718
41	0xbdd52eb1	-0.10409296
42	0xbd6296ee	-0.05531972
43	0xbe1831bf	-0.14862727
44	0xbda37665	-0.07981566
45	0xbd3c1084	-0.045914188
46	0xbe3b5af9	-0.18296422
47	0xbda18a76	-0.078877375
48	0xbe8f3d3d	-0.2797641
49	0xbcc0ba52	-0.023526344
50	0x3d1ba888	0.03800252
51	0xbe3a665a	-0.18203107
52	0xbe38008c	-0.17968959
53	0xbee9e94c	-0.45685804
54	0x3bc31240	0.0059531033
55	0xbd332516	-0.04373654
56	0x3de50674	0.111828715
57	0xbe128327	-0.14307843
58	0xbde6d712	-0.1127149
59	0xbd2823da	-0.041049816
60	0xbd31d3c1	-0.043414835
61	0x3c45c6e4	0.012071345
62	0xbeb0aa8d	-0.3450512
63	0x3b3dbe20	0.0028952435
64	0x3c423218	0.011852764
65	0xbe269157	-0.1626638
66	0x3d36af66	0.044600867
67	0xbeb35fc6	-0.35034007
68	0xbcda2b46	-0.026631963
69	0x3df4c75b	0.119520865
70	0xbe07ee1c	-0.13274425
71	0xbd4350fe	-0.047684662
72	0xbe87eae2	-0.2654639
73	0xbd5da00f	-0.054107722
74	0xbd3315fa	-0.04372213
75	0xbd8292e9	-0.06375677
76	0x3cb71e24	0.02235324
77	0x3e72bb06	0.23704156
78	0xbe211ee4	-0.1573444
79	0xbe30d4d2	-0.17268685
80	0xbf912aee	-1.1341226
81	0xbc622a46	-0.013804024
82	0xbf0f0b9d	-0.55877095
83	0x3e1a98e3	0.15097384
84	0xbda49812	-0.080368176
85	0xbf506204	-0.8139956
86	0xbe044457	-0.12916695
87	0xbd8a8e4d	-0.06765423
88	0xbd0fb1c0	-0.035081625
89	0xbeff03c2	-0.49807554
90	0x3dc7a336	0.09747927
91	0xbde0f39e	-0.10983966
92	0xbd108551	-0.03528339
93	0xbe65a578	-0.22426403
94	0xbe105dac	-0.14098233
95	0xbca219b4	-0.019787647
96	0xbea3559a	-0.31901246
97	0xbe096a21	-0.13419391
98	0xbd73184e	-0.05934935
99	0xbf0494c7	-0.51789516
100	0x3c964a03	0.018345838
101	0x3d398063	0.045288455
102	0xbddcd788	-0.10783297
103	0xbdab9d74	-0.08379641
104	0x3dac58d7	0.08415382
105	0xbd99df77	-0.07513326
106	0x3d1e4d66	0.03864803
107	0xbd23fb20	-0.040034413
108	0x3e277f1b	0.1635708
109	0xbe5d1fa7	-0.21594106
110	0x3e908a9e	0.28230757
111	0x3c838a21	0.016057076
112	0xbdcb7409	-0.09934241
113	0x3e00f526	0.12593517
114	0xbd1edb70	-0.03878349
115	0xbdf44941	-0.119280346
116	0xbcaa3583	-0.02077747
117	0xbe73d196	-0.2381042
118	0x3d23bae7	0.039973166
119	0x3bb80edb	0.0056170053
120	0xbe09e5c0	-0.13466549
121	0x3c84e43b	0.01622211
122	0xbeda0c6a	-0.42587596
123	0x3a97093e	0.001152314
124	0xbcc48909	-0.023991125
125	0xbea1ce47	-0.3160269
126	0xbe210b36	-0.15726933
127	0xbe163fc4	-0.14672762
128	0xbdaafa1d	-0.083484866
129	0xbd7d898e	-0.06189876
130	0xbe569436	-0.20954975
131	0x3d04ef78	0.032454938
132	0xbce44df8	-0.02786921
133	0xbd1c5f79	-0.038176987
134	0xbdf31f0d	-0.11871157
135	0x3da85be4	0.08220652
136	0xbd98dec9	-0.07464368
137	0xbd7c215e	-0.06155526
138	0xbc84ef02	-0.016227249
139	0x3cab3c54	0.02090279
140	0xbda33df4	-0.07970801
141	0xbd56b46c	-0.052418157
142	0xbbac2866	-0.0052538393
143	0xbd2ab8f2	-0.041680284
144	0xbd453638	-0.04814741
145	0xbd258bc6	-0.0404165
146	0xbe40cc21	-0.18827869
147	0xbdb2aae0	-0.08723998
148	0x3da30d38	0.07961506
149	0x3cc04606	0.02347089
150	0xbd84723c	-0.06467101
151	0xbee78b8a	-0.45223647
152	0xbd1e07ae	-0.038581543
153	0xbcdb51a0	-0.02677232
154	0xbfbf5fd7	-1.4951123
155	0xbd7c679a	-0.06162224
156	0xbc648c72	-0.0139495
157	0xbe852e72	-0.26011997
158	0xbdcd3275	-0.100193895
159	0xbdb0f923	-0.08641269
160	0x3b12c3bc	0.0022394499
161	0xbda1a1b5	-0.07892171
162	0xbd802c79	-0.062584825
163	0xbe922350	-0.28542566
164	0xbd584256	-0.052797638
165	0x3d24c642	0.040228136
166	0x3d1bce12	0.03803832
167	0xbdab7a28	-0.08372909
168	0xbbb98c9b	-0.0056625134
169	0xbc81a028	-0.015823439
170	0xbf34b629	-0.70590454
171	0x39fbf0a0	0.0004805373
172	0x3db0d27a	0.08633895
173	0x3d96bfa6	0.07360773
174	0xbbdbe7ba	-0.0067109736
175	0x3d607c82	0.05480624
176	0xbe90134b	-0.2813972
177	0xbd5d2fd1	-0.05400068
178	0x3ce21478	0.02759765
179	0x3c31d117	0.010853074
180	0xbeaaf4b7	-0.33389828
181	0x3d9073d6	0.07053344
182	0x3e3139b9	0.17307176
183	0x3d8ee037	0.06976359
184	0xbe3bd81b	-0.18344156
185	0xbcf5d788	-0.03001
186	0x3e90be3f	0.28270146
187	0x3de6034f	0.112311
188	0xbe1f93c1	-0.15583707
189	0x3d6c3679	0.057669137
190	0x3e4add2b	0.19810931
191	0x3d77d5b1	0.060506526
192	0xbd67448f	-0.056461867
193	0xbe50acb3	-0.2037838
194	0x3ea9888d	0.33111992
195	0x3e884eb6	0.26622552
196	0xbd311d9c	-0.04324113
197	0xba945408	-0.0011316547
198	0xbdd9bc97	-0.10631674
199	0x3e95ab6e	0.29232353
200	0xbd290e8e	-0.041273646
201	0xbe83aeae	-0.25719208
202	0x3cef6510	0.029222995
203	0xbecc948a	-0.39957076
204	0xbd3afed9	-0.045653198
205	0x3dd3264c	0.10310039
206	0xbe56b8ee	-0.20968983
207	0x3e46a244	0.19397837
208	0xbd974f48	-0.073881686
209	0xbc8665de	-0.016405996
210	0xbef42319	-0.47683027
211	0x3d8a8010	0.06762707
212	0xbcc82d6c	-0.024435721
213	0x3ec7b7ed	0.39007512
214	0xbe0105e1	-0.12599899
215	0xbe26bdb6	-0.16283306
216	0xbd504dea	-0.050855555
217	0xbddbbd20	-0.10729432
218	0xbd304104	-0.043030754
219	0xbc449f4a	-0.012000868
220	0xbceb734e	-0.028741505
221	0xbd774573	-0.060368966
222	0xbfa42774	-1.282454
223	0x3cbcc13e	0.023041364
224	0xbf24739f	-0.64238924
225	0xbdc8d403	-0.09806063
226	0xbd90f9a6	-0.07078867
227	0xbded0fef	-0.11575305
228	0xbdc54f44	-0.09634259
229	0xbd6598fa	-0.056054093
230	0x3e1782ff	0.14796065
231	0xbd88b111	-0.06674398
232	0xbce067ef	-0.02739331
233	0xbd6d65bb	-0.057958346
234	0x3ce79026	0.028266978
235	0xbd5ce817	-0.053932276
236	0x3e13eeef	0.14446615
237	0x3dabef47	0.08395248
238	0xbe16b780	-0.14718437
239	0x3e5b1446	0.21394452
240	0xbd7293a5	-0.059222836
241	0x3d25f7e1	0.0405196
242	0x3ec8a2b6	0.3918664
243	0x3d9c487e	0.07631014
244	0xbceac6f9	-0.02865933
245	0xbc4977c7	-0.012296624
246	0xbd2fc0ed	-0.042908598
247	0xbd4c8ad5	-0.049937088
248	0xbd89a54e	-0.067209825
249	0xbe6599a0	-0.22421885
250	0xbc5d080e	-0.01349069
251	0xbd8afef3	-0.06786909
252	0x37cc3ce0	2.4347042e-05
253	0x3e031b03	0.12803273
254	0xbd803df1	-0.062618144
255	0xbd0c156a	-0.03420011

shared_layers.2.bias f4 [128]
0	0xbb8d88e2	-0.004319296
1	0xbf2b577b	-0.6693036
2	0x3fdb6ff9	1.7143546
3	0xbc8eed0a	-0.017447013
4	0x3eeaa81e	0.45831388
5	0x3f24e2b2	0.6440841
6	0xbe8a9a9d	-0.27071086
7	0xbb419424	-0.0029537762
8	0xbd207e4e	-0.039182954
9	0xbe99a360	-0.30007458
10	0xbe13d228	-0.14435637
11	0x3e298458	0.16554391
12	0x3ed9d16a	0.42542583
13	0x3ecfa5e6	0.40556258
14	0x3f3db8c7	0.7411007
15	0x3e43daaf	0.1912639
16	0x3ed9ec8f	0.42563292
17	0x3eab1855	0.33417
18	0x3e8896fe	0.26677698
19	0x3eb4243b	0.35183892
20	0x3eb56d91	0.35435155
21	0xbeb2c328	-0.34914517
22	0x3f3a1b82	0.72698224
23	0xbfd17e1c	-1.636661
24	0xbe93204b	-0.28735575
25	0xbfe357e3	-1.7761196
26	0xba1febd8	-0.0006100512
27	0xbeb11135	-0.3458344
28	0x3f051baa	0.51995337
29	0x3e6f712c	0.23383015
30	0x3dcef5d3	0.10105481
31	0x3edfe8db	0.43732342
32	0x3e7cdcaf	0.24693559
33	0x3f0da06c	0.5532291
34	0xbefeb0df	-0.49744317
35	0x3ee3e908	0.44513726
36	0xbb03feba	-0.0020140843
37	0x3e6b242f	0.22963022
38	0xbf0c7950	-0.5487261
39	0x3f259b8b	0.64690465
40	0x3f057485	0.5213092
41	0xbdc057f7	-0.09391778
42	0x3ef004dc	0.46878707
43	0x3ea64fa0	0.32482624
44	0x3dadbf1b	0.08483716
45	0x3f0aa0e8	0.54151773
46	0xbe410498	-0.18849409
47	0xbd5287d3	-0.051399063
48	0x3edaa2d0	0.4270234
49	0xbcf3c84e	-0.029758599
50	0x3f25318f	0.64528745
51	0x3e7befcb	0.24603193
52	0x3e916d7f	0.2840385
53	0x3f1d3f20	0.61424446
54	0x3e3ce29c	0.1844582
55	0xbf9f4c00	-1.2445068
56	0xbd0a1d9f	-0.033719655
57	0xbf34c4a8	-0.70612574
58	0x3ee02035	0.43774572
59	0x3f863c92	1.0487235
60	0xbee31119	-0.44348982
61	0x3f909f84	1.129868
62	0xbfbe7561	-1.4879571
63	0xbe2bb344	-0.16767603
64	0x3e9ec9ac	0.31013238
65	0xbe803956	-0.25043744
66	0x3f2211ed	0.633086
67	0xbef50d7d	-0.47861853
68	0x3f24e906	0.64418066
69	0x3f4d36d3	0.8016178
70	0x3dd3396c	0.10313687
71	0xbdb79d10	-0.08965504
72	0xbc7ad449	-0.015309402
73	0x3ebba15e	0.3664655
74	0xbdf63ffa	-0.12023921
75	0x3e09fd80	0.13475609
76	0x3f67bd9b	0.9052369
77	0x3edee8e6	0.43537062
78	0x3e7962f1	0.2435415
79	0x3f0cd9d8	0.55019903
80	0x3f921e2d	1.1415459
81	0x3f42798a	0.75966704
82	0x3d53329e	0.051561944
83	0x3e3fd266	0.18732604
84	0xc03af82b	-2.921397
85	0x3d925de4	0.071468145
86	0xbf14a300	-0.5806122
87	0x3f00147f	0.50031275
88	0x3e3bcfc9	0.18340982
89	0x3f5ca920	0.86195564
90	0x3f0a5727	0.54039234
91	0x3ecf09dd	0.40437213
92	0x3f54e9f5	0.8316949
93	0x3ebb7565	0.36613002
94	0x3ecf71c1	0.40516475
95	0x3e83e5f3	0.25761375
96	0x3e9145a1	0.28373435
97	0x3e6615d0	0.22469258
98	0x3e092879	0.13394345
99	0x3e31aadf	0.17350338
100	0xbd20d17e	-0.039262287
101	0x3e2efe5d	0.1708922
102	0xbe75249e	-0.2393975
103	0x3ef666cb	0.481253
104	0xbe3afe27	-0.18261014
105	0xbd13a89e	-0.036049478
106	0x3e84b363	0.2591811
107	0x3e9c6d50	0.3055215
108	0xbe1dc6d7	-0.15407883
109	0x3e974e3f	0.29551885
110	0x3ed9a72f	0.42510363
111	0xbd55d318	-0.052203268
112	0xbefbc20e	-0.4917149
113	0x3f1d9988	0.61562395
114	0xbd3e5eeb	-0.04647724
115	0x3dac6707	0.084180884
116	0x3e2b357c	0.16719621
117	0x3ed4d752	0.41570526
118	0x3e8d1299	0.2755325
119	0x3eacbec9	0.33739308
120	0xbe0b00f0	-0.13574576
121	0x3e64964d	0.2232296
122	0xbf9d5e5c	-1.2294421
123	0xba672644	-0.00088176527
124	0x3edcfeb3	0.4316307
125	0x3f1d1b26	0.6136955
126	0x3db5e7a3	0.08882072
127	0x3eca9ff9	0.39575174

policy_layers.0.weight f4 [128, 128]
0	0x3e7c7a4a	0.24656025
1	0x3e06b42e	0.1315467
2	0x3d887aee	0.06664072
3	0xbe1a0353	-0.1504033
4	0xbd2b07a3	-0.04175533
5	0xbec41ffa	-0.38305646
6	0x3d8dc1c8	0.069217265
7	0x3e6ddd49	0.23228945
8	0x3e7de982	0.24796107
9	0xbe34f5f3	-0.17671947
10	0x3e778689	0.24172415
11	0x3e2c97c9	0.16854776
12	0x3cd7cc11	0.026342424
13	0xbe9d1e23	-0.30687055
14	0xbf113487	-0.56720775
15	0xbed24d5d	-0.41074648
16	0x3d0e9fb0	0.03482026
17	0x3ea9c241	0.33156016
18	0x3e3357fe	0.17514035
19	0x3e939530	0.2882476
20	0x3efbe5cc	0.4919876
21	0x3e9e299c	0.3089112
22	0xbd36a2ae	-0.044588737
23	0x3e63e7dd	0.22256418
24	0x3e24346f	0.16035627
25	0x3e9cbc78	0.3061254
26	0x3e851d97	0.25999138
27	0x3e928965	0.2862045
28	0x3e626fc2	0.22112945
29	0xbd8bc54c	-0.06824741
30	0x3d101ce1	0.03518379
31	0xbe977fdb	-0.29589733
32	0xbe1574cd	-0.14595337
33	0xbec9b0ed	-0.39392796
34	0xbcaaba13	-0.02084068
35	0xbd4ba829	-0.049720917
36	0x3dc33395	0.09531323
37	0x3d76c234	0.0602438
38	0xbc70cefb	-0.0146977855
39	0x3efb14f4	0.49039423
40	0xbe110798	-0.14163053
41	0x3e23b8b6	0.1598843
42	0x3dbe2a6e	0.092854366
43	0x3e51a88a	0.20474449
44	0x3e33358f	0.175009
45	0x3e970cab	0.29501852
46	0x3e9c73db	0.3055714
47	0x3eab92a5	0.33510318
48	0xbd86c100	-0.065797806
49	0xbeec2fd3	-0.46130237
50	0x3e2a44b5	0.16627772
51	0xbe770ea1	-0.24126674
52	0xbe73e117	-0.23816334
53	0x3e8b547e	0.272129
54	0x3e9dafc2	0.30798155
55	0xbdf29a2a	-0.11845811
56	0x3d83192e	0.06401287
57	0x3e89ad9c	0.26890266
58	0x3e284fae	0.16436645
59	0xbe250bb0	-0.1611774
60	0xbcd9a2bb	-0.026566854
61	0x3dfd2b18	0.12361735
62	0xbee3e3c5	-0.44509712
63	0xbefc6e2c	-0.49302804
64	0x3cdfbc0d	0.02731135
65	0xbd844adb	-0.0645959
66	0x3e039e98	0.12853467
67	0xbe156ea6	-0.1459299
68	0xbd7d3b1e	-0.061823957
69	0x3d4a77a7	0.049430516
70	0x3eaed0ad	0.34143582
71	0xbe39ac36	-0.181321
72	0x3e4364ca	0.19081417
73	0x3e975277	0.29555103
74	0x3e5d6c1e	0.21623275
75	0x3eac0235	0.33595434
76	0x3ef3ad27	0.47593042
77	0x3c47b162	0.012188287
78	0x3eb54c5f	0.3540983
79	0x3e2928fa	0.16519538
80	0x3f1c23bc	0.60992026
81	0xbdb2f2dc	-0.08737728
82	0x3e0574b5	0.13032801
83	0xbe88f70e	-0.26750988
84	0x3db8af75	0.09017841
85	0x3c30e5cb	0.010796974
86	0xbe098923	-0.1343122
87	0x3ea0f8d7	0.3143985
88	0xbe1383c2	-0.1440573
89	0x3dcd8fae	0.1003717
90	0xbda07c78	-0.078362405
91	0xbe817410	-0.2528386
92	0x3db32083	0.087464355
93	0x3e18b6ff	0.14913557
94	0xbbf51488	-0.007479254
95	0x3d3460fb	0.0440378
96	0x3d6f2c26	0.058391713
97	0x3decb223	0.115574144
98	0xbde04290	-0.10950196
99	0x3deb08bb	0.114762746
100	0x3c832964	0.016010948
101	0x3b563eb4	0.0032691183
102	0xbded4179	-0.115847535
103	0x3e2ef16b	0.17084281
104	0x3f0d10ac	0.55103564
105	0x3e7f3556	0.2492269
106	0xbda9dbca	-0.082938746
107	0x3cfc9b6b	0.030835828
108	0x3e5d923f	0.2163782
109	0x3e9df314	0.30849516
110	0x3d879710	0.0662061
111	0x3ec64705	0.3872606
112	0xbd895321	-0.06705309
113	0x3e9a0374	0.3008076
114	0xbe55e34a	-0.20887485
115	0xbef0d49d	-0.4703721
116	0x3e7a5b17	0.2444881
117	0xbecd9aa4	-0.40157044
118	0xbcf03336	-0.029321294
119	0x3c59ec1a	0.01330092
120	0x3d1e5469	0.03865472
121	0xbeeaf0ed	-0.45886937
122	0x3e895381	0.2682152
123	0xbe9b915e	-0.30384344
124	0xbbbbbcbf	-0.0057292874
125	0x3e61b523	0.22041754
126	0x3eb855a9	0.36002854
127	0x3f02d5a1	0.5110722
128	0xbed5b7a4	-0.4174167
129	0xbe8a74f8	-0.27042365
130	0xbe0c4726	-0.13699016
131	0x3e8a21d3	0.2697893
132	0xbf014edf	-0.5051097
133	0xbcd9e9d2	-0.026600752
134	0xbe097c10	-0.13426232
135	0xbef0efa5	-0.47057834
136	0xbd0ab196	-0.033860765
137	0xbccbf5eb	-0.024897536
138	0xbd8efa7b	-0.06981369
139	0x3c54dd2e	0.0129921865
140	0xbda62417	-0.08112352
141	0x3d56d088	0.052444965
142	0xbe98a30f	-0.29811904
143	0xbd79ee2c	-0.061018154
144	0xbe8bd7c4	-0.27313054
145	0xbe34afcb	-0.17645185
146	0x3e991a64	0.29902947
147	0x3e65826f	0.22413038
148	0xbe92480e	-0.28570598
149	0xbe5ec534	-0.21754915
150	0xbe58aee8	-0.21160471
151	0xbe2c323c	-0.16816038
152	0xbd117a2e	-0.03551691
153	0xbdb60800	-0.08888245
154	0x3d96dcdd	0.07366345
155	0xbc60e369	-0.013726094
156	0x3dda9683	0.10673239
157	0x3ee75dee	0.4518885
158	0x3deffcfa	0.11718173
159	0x3e85a43f	0.26101872
160	0x3e52e7c8	0.2059623
161	0xbf214494	-0.62995267
162	0xbdb3a840	-0.087723255
163	0xbde58a2c	-0.11207995
164	0xbce1a1a6	-0.0275429
165	0x3d1b91c5	0.037980814
166	0xbd1cbe5d	-0.038267482
167	0xbdf70f76	-0.12063496
168	0xbdd08472	-0.10181512
169	0x3d8cc38a	0.068732336
170	0x3deba649	0.11506326
171	0x3eacd524	0.33756363
172	0xbe96a33b	-0.2942141
173	0xbeecca1a	-0.4624794
174	0xbc1874d3	-0.009305197
175	0x3ddce4ed	0.10785852
176	0xbe8b5081	-0.27209857
177	0x3dc82acd	0.097737886
178	0x3ed34da8	0.41270185
179	0xbe200b96	-0.1562942
180	0x3f006c5b	0.5016534
181	0xbe2d2456	-0.16908392
182	0x3dc40528	0.09571296
183	0xbddb1f56	-0.10699336
184	0x3d210988	0.03931573
185	0x3dc8a030	0.09796178
186	0xbe42e747	-0.19033538
187	0x3cefc87b	0.029270401
188	0xbda4d432	-0.080482855
189	0xbefb125e	-0.4903745
190	0x3e9f4a18	0.31111217
191	0xbe7a9dcd	-0.24474259
192	0xbe841849	-0.25799778
193	0xbe005e6f	-0.12536024
194	0x3d364b7b	0.044505578
195	0xbe2ef536	-0.17085728
196	0x3d677829	0.056511078
197	0xbde483a8	-0.11157924
198	0x3ed16d85	0.4090387
199	0xbdd14f55	-0.102202095
200	0x3e0050a7	0.12530766
201	0xbe98eb30	-0.29866934
202	0x3d2cb42a	0.042164005
203	0xbdb2a974	-0.08723727
204	0xbea3e55e	-0.3201093
205	0x3f035cb2	0.51313317
206	0xbd66b965	-0.05632915
207	0xbe4da923	-0.20084052
208	0x3e2f5a19	0.17124213
209	0x3e7b6a48	0.24552262
210	0x3ca73332	0.020410154
211	0xbeca3a1f	-0.39497468
212	0xbe6426bd	-0.22280402
213	0xbdf362ed	-0.11884103
214	0xbe864398	-0.26223445
215	0xbeb47983	-0.35248956
216	0x3e05bcd5	0.13060315
217	0x3d7cb7e9	0.061698828
218	0x3e83f7f2	0.25775105
219	0x3eb8f56f	0.3612475
220	0xbe3bcd43	-0.1834002
221	0x3e8d388a	0.27582198
222	0xbda3f5fc	-0.08005902
223	0x3e13fc70	0.14451766
224	0x3eb07bde	0.34469503
225	0xbe7f4738	-0.24929512
226	0x3e33aa77	0.17545496
227	0xbe8a5e1d	-0.27024928
228	0xbd0108a6	-0.03150239
229	0x3e3f92fe	0.18708417
230	0x3e0c352b	0.13692157
231	0x3f0a18ce	0.539441
232	0x3d2393a8	0.039935738
233	0x3e808e0c	0.25108373
234	0x3d020e97	0.031752195
235	0x3e505f99	0.20348968
236	0xbda84fd1	-0.08218349
237	0xbef2d3f1	-0.47427323
238	0xbe19dd17	-0.15025745
239	0xbdff5bea	-0.12468703
240	0xbd41b5a2	-0.04729236
241	0x3d5ebc92	0.054379053
242	0x3e1c67e0	0.15274
243	0x3d419c4b	0.047268193
244	0xbc0ff7bd	-0.008787093
245	0x3e0516d7	0.12996994
246	0x3ea13667	0.31486818
247	0x3e104a64	0.14090878
248	0xbd56586a	-0.052330412
249	0xbe99c5ff	-0.30033872
250	0x3c6fcb83	0.014635923
251	0x3e967c2b	0.29391608
252	0xbe119fb0	-0.14221072
253	0x3e23e6c2	0.16005996
254	0x3f155144	0.58327127
255	0xbd887a2c	-0.066639274

policy_layers.0.bias f4 [128]
0	0x3d72c650	0.059271157
1	0x3eb2e963	0.34943685
2	0x3f935431	1.1510068
3	0x3f0eb3c6	0.5574306
4	0xbe306ff1	-0.17230202
5	0xbef42c23	-0.47689924
6	0xbebc7b19	-0.36812666
7	0x3ee1d3b6	0.44106835
8	0x3f34bb95	0.7059873
9	0xbe86e864	-0.26349175
10	0x3f978e5f	1.1840323
11	0xbf1455eb	-0.579436
12	0x3f95ef49	1.1713649
13	0x3eb1c626	0.34721488
14	0x3f4a2154	0.78957105
15	0x3f7afa4a	0.9803816
16	0x3f8bc700	1.0920105
17	0xbe5111bd	-0.20416923
18	0x3f7bd06d	0.9836491
19	0x3e33090f	0.17483924
20	0x3e8a1239	0.26967028
21	0x3f90d57d	1.1315151
22	0xbedb3624	-0.42814744
23	0xbf107b38	-0.56438017
24	0xbedc7be9	-0.43063286
25	0x3ed170a1	0.40906242
26	0x3ee1f5b4	0.4413277
27	0x3f7ab603	0.9793398
28	0xbea18a07	-0.3155062
29	0x3fa171d2	1.261286
30	0xbec96794	-0.39336836
31	0x3f3037fb	0.6883542
32	0x3f280802	0.6563722
33	0xbea05f0e	-0.3132252
34	0xbebb09b6	-0.36530846
35	0xbeca60fb	-0.39527115
36	0xbe9ce17f	-0.3064079
37	0xbeacdfa0	-0.33764362
38	0xbed95a3a	-0.4245165
39	0x3eeaf4a8	0.45889783
40	0x3f8bb68c	1.0915084
41	0xbe2062b7	-0.15662657
42	0xbed8c240	-0.423357
43	0x3f852623	1.0402263
44	0x3e893095	0.26794878
45	0x3f94abe3	1.1614956
46	0x3f243729	0.6414667
47	0xbe8d2c23	-0.27572736
48	0xbe43a607	-0.19106303
49	0x3e15005a	0.14550915
50	0xbea5244b	-0.32254252
51	0x3d470381	0.048587326
52	0x3f8c38e3	1.095486
53	0xbe57d515	-0.21077378
54	0x3f85b8cd	1.0447022
55	0xbe8086f2	-0.25102955
56	0x3ee59489	0.44839886
57	0xbecf94d9	-0.4054325
58	0x3e1ea161	0.15491249
59	0x3fa55c65	1.2918822
60	0xbedcfd4e	-0.43162006
61	0x3e99cb5b	0.3003796
62	0x3f8bf5e3	1.0934414
63	0xbebba686	-0.36650485
64	0x3edf73ea	0.43643123
65	0x3f09e7fc	0.53869605
66	0x3f7ddab4	0.9916184
67	0xbeaa8fac	-0.33312738
68	0xbead41f0	-0.3383937
69	0xbe74d60d	-0.23909779
70	0x3f314486	0.69245183
71	0xbeeedbbb	-0.46652016
72	0xbeb28eba	-0.34874517
73	0xbee5784b	-0.4481834
74	0x3f49f395	0.788873
75	0x3fa5f224	1.296452
76	0x3f8b3424	1.0875287
77	0xbc10dd59	-0.008841836
78	0x3f3e138e	0.7424859
79	0x3f63e120	0.8901539
80	0x3f6a1a12	0.9144603
81	0x3f912c55	1.1341654
82	0x3f902651	1.1261693
83	0xbef06065	-0.46948543
84	0x3f3c0f95	0.73461276
85	0x3faee025	1.3662153
86	0x3fa68900	1.3010559
87	0x3ef8aac8	0.48567796
88	0xbdd915bc	-0.10599849
89	0xbecbd8b3	-0.39813766
90	0x3eb599e1	0.35468963
91	0x3dae5185	0.08511642
92	0x3f89c514	1.0763268
93	0x3f90318c	1.126512
94	0xbec9fca5	-0.39450565
95	0x3f9b01b4	1.2109895
96	0x3f6327b2	0.88732445
97	0x3f3948e9	0.7237688
98	0x3f605596	0.87630594
99	0xbe2f65c4	-0.17128664
100	0x3fa55640	1.2916946
101	0x3f12fa01	0.57412726
102	0xbe4363cc	-0.19081038
103	0x3d2e4d6d	0.042554308
104	0x3efb23f0	0.49050856
105	0x3f725fef	0.94677633
106	0x3fab3611	1.3375875
107	0xbefc367f	-0.49260327
108	0x3f788789	0.9708181
109	0x3e9876d7	0.29778168
110	0x3ec18943	0.37800035
111	0x3f44650b	0.7671668
112	0x3ec24b99	0.379483
113	0xbf125e27	-0.57174915
114	0x3e0cbc55	0.13743718
115	0x3faaf2c2	1.3355334
116	0xbdaec7a4	-0.08534172
117	0xbed31c54	-0.4123255
118	0x3f759bdf	0.95940965
119	0xbeb6bafa	-0.35689527
120	0x3faedfd9	1.3662063
121	0xbe8f280a	-0.27960235
122	0x3f0129a7	0.5045418
123	0x3d2021d9	0.03909478
124	0xbef2194a	-0.4728492
125	0x3f4a64bb	0.7905995
126	0x3f6e55a2	0.93099415
127	0x3f33e8e1	0.7027722

policy_layers.2.weight f4 [7, 128]
0	0x3f802821	1.0012246
1	0x3f896088	1.0732584
2	0x3eae92ac	0.34096277
3	0x3fc103bd	1.5079266
4	0x3f7b43a6	0.981501
5	0x400ccbe2	2.199944
6	0x3fc05d0b	1.5028394
7	0x3f983477	1.1891011
8	0x3f80cb27	1.0061997
9	0x3fd4100e	1.65674
10	0x3f12f9cd	0.57412416
11	0x3fe9e135	1.8271853
12	0x3e7f150a	0.2491037
13	0x3ff07cd4	1.8788095
14	0x3f2805b5	0.6563371
15	0x3f1b244f	0.6060228
16	0x3f1a717b	0.6032941
17	0x4041ae02	3.0262456
18	0x3e408a8d	0.18802853
19	0x3fdb21f7	1.711974
20	0x3f72466d	0.9463871
21	0x3e27d0c3	0.1638823
22	0x3f75280a	0.9576422
23	0x40079101	2.1182253
24	0x3fbdfa61	1.4842035
25	0x3f448c93	0.76777
26	0x3fa1f14b	1.2651762
27	0x3f896653	1.0734352
28	0x3fbbce2e	1.4672296
29	0x3ef84449	0.48489597
30	0x4009a5af	2.1507375
31	0x3f32ccbf	0.6984367
32	0x3f64e765	0.8941558
33	0x3fbdf404	1.4840093
34	0x3fe4c3f6	1.7872303
35	0x3f816d7c	1.0111537
36	0x3f0b17fa	0.5433346
37	0x3f9358e3	1.1511501
38	0x4020764f	2.507221
39	0x3f6161f3	0.88040084
40	0x3ee7a8d3	0.4524599
41	0x3f86105e	1.0473745
42	0x3ff54a57	1.9163312
43	0x3f340bc6	0.70330465
44	0x402d33d6	2.7062888
45	0x3f41af4f	0.75658125
46	0x3fa48667	1.2853516
47	0x3fd0ad6e	1.6302927
48	0x3ffd4631	1.9787046
49	0x3facb92f	1.3494014
50	0x3f890d05	1.0707098
51	0x3f7c7db2	0.98629296
52	0x3ed9062c	0.4238752
53	0x401a891c	2.4146185
54	0x3fcbb48d	1.5914475
55	0x3f23c05f	0.6396541
56	0x3f936ece	1.151819
57	0x3fadd17a	1.3579552
58	0x3f435ad2	0.76310456
59	0xbe7318b7	-0.23739897
60	0x3ff5caa9	1.9202472
61	0x400241f0	2.0352745
62	0x3ec2878f	0.37994048
63	0x3fa0d2c6	1.2564323
64	0x3f6ac295	0.9170316
65	0x3fb5f636	1.4215763
66	0x3f42983d	0.7601355
67	0x3f914a27	1.1350754
68	0x3f9913d7	1.195918
69	0x3fac90f2	1.3481734
70	0x3f7456ee	0.95445144
71	0x40241eeb	2.564387
72	0x3fb1dc40	1.389534
73	0x3fd1b9df	1.6384848
74	0x3f906f25	1.1283919
75	0x3e492e4e	0.1964657
76	0x3f062498	0.5239959
77	0x3f3b28cd	0.7310913
78	0x3f8d2978	1.102828
79	0x3f8894f6	1.0670459
80	0x3f8c056a	1.0939152
81	0x3eead2a2	0.45863825
82	0x3d7eb19e	0.062181108
83	0x3fdb768f	1.7145556
84	0x3e8f8f7c	0.28039157
85	0x3dc7092f	0.097185485
86	0x3e91b8ba	0.28461248
87	0x3ffb8fa6	1.9653213
88	0x3f9777d5	1.1833445
89	0x3fd0c99f	1.631153
90	0x3fc457b1	1.5339261
91	0x3fa7d449	1.3111659
92	0x3eaaba82	0.3334542
93	0x3e32435e	0.17408511
94	0x3f73d5aa	0.952479
95	0x3f4e6df1	0.8063651
96	0x3f814c85	1.0101477
97	0x3fbf848a	1.4962323
98	0x3fb070e2	1.3784449
99	0x3ff1ee8a	1.8900921
100	0x3c96bc01	0.018400194
101	0x3f623833	0.88367003
102	0x3ff6bba8	1.9276018
103	0x3f2aaa00	0.6666565
104	0x3f9b143d	1.2115551
105	0x3f2b44dc	0.66901946
106	0x3f03c421	0.51471144
107	0x3fd03059	1.6264755
108	0x3f05fc74	0.5233834
109	0x3ff76f7c	1.9330897
110	0x3f15e6d6	0.5855535
111	0x3faa3d78	1.3300009
112	0x400894be	2.1340785
113	0x402b9032	2.680676
114	0x3fe977e1	1.8239709
115	0x3efb019b	0.49024662
116	0x3f83b10c	1.0288405
117	0x3fb7fec9	1.4374629
118	0x3e794707	0.24343501
119	0x3fe3d387	1.7798928
120	0xbe15ef5a	-0.14642087
121	0x3f978cea	1.1839879
122	0x3f7dccfd	0.9914091
123	0x3fcd1e06	1.6024787
124	0x3f6bc9fe	0.9210509
125	0x3f9bf9f7	1.2185658
126	0x3ec098a1	0.37616447
127	0x3f9f11c7	1.24273
128	0x3f62072c	0.88292193
129	0x3ebb303a	0.3656023
130	0x3f42b00b	0.7604987
131	0x3f296553	0.66170233
132	0x3f6a8fd5	0.9162572
133	0x3fca86b4	1.5822358
134	0x3fc84929	1.5647327
135	0x3faba834	1.3410707
136	0x3eec84dc	0.46195114
137	0x3feb8341	1.839943
138	0x3e330674	0.1748293
139	0x3fa58f23	1.2934307
140	0x3f77686e	0.9664372
141	0x3febeef9	1.8432304
142	0x3f855914	1.041781
143	0x3f172457	0.59039825
144	0x3d987fb5	0.07446233
145	0x40119ded	2.275264
146	0x3e4322e8	0.19056284
147	0x3f9f70e8	1.2456331
148	0x3f92d03f	1.1469802
149	0x3e634bc7	0.22196876
150	0x3fde8131	1.7383176
151	0x40040307	2.0626848
152	0x3fb09752	1.3796179
153	0x3f4ae088	0.7924886
154	0x3f8504b8	1.0392065
155	0x3fac5eac	1.3466392
156	0x3f82157b	1.0162805
157	0x3f0a32de	0.5398387
158	0x3fe0d898	1.7566099
159	0x3f2a910a	0.6662756
160	0x3fd4ba31	1.6619321
161	0x3f8a40ca	1.0801022
162	0x3faae64e	1.3351533
163	0x3f9f08da	1.2424576
164	0x3f702326	0.9380363
165	0x3f8adddf	1.084896
166	0x3fae96b1	1.3639737
167	0x3fbcf13a	1.4761117
168	0x3f4fa4f1	0.81111056
169	0x3fa33b06	1.2752388
170	0x400566b7	2.0843942
171	0x3f107282	0.56424725
172	0x3fc8df46	1.5693138
173	0x3effa86a	0.49933177
174	0x3f90492a	1.1272328
175	0x3fc56884	1.5422521
176	0x4002b847	2.0424974
177	0x3fae3044	1.360848
178	0x3f9066e4	1.12814
179	0x3fc7f142	1.5620501
180	0x3f14fb51	0.5819598
181	0x4000135b	2.0011814
182	0x3f3783af	0.7168531
183	0x3ff7db0a	1.936372
184	0x3f276dcd	0.6540192
185	0x3fc4256b	1.5323919
186	0x3fe749b2	1.8069365
187	0xbe40a50c	-0.1881296
188	0x3fd7c374	1.6856523
189	0x3f92f373	1.1480545
190	0x3f1de5b9	0.61678654
191	0x3f47cc4d	0.78046113
192	0x3f348233	0.7051117
193	0x3f7dfaca	0.992108
194	0x3eb6a88f	0.35675475
195	0x3fd638b8	1.6736059
196	0x3f96ec4e	1.1790864
197	0x3fb1a306	1.3877876
198	0x3f766d01	0.96260077
199	0x3fbdac9a	1.4818299
200	0x3e8380c4	0.25684178
201	0x3fbd6c11	1.4798604
202	0x3f9ffa24	1.2498212
203	0x3e7c063e	0.24611756
204	0x3f4c517c	0.79811835
205	0x3fbb15b7	1.4616002
206	0x3fa1da72	1.2644789
207	0x3f1aee3b	0.6051976
208	0x3f625e07	0.88424724
209	0x3e796cb4	0.24357873
210	0x3f55ae2b	0.83468884
211	0x3fdda83b	1.7316965
212	0x3f268d5b	0.6505944
213	0x3de1ffbd	0.11035106
214	0x3f652761	0.8951321
215	0x3fc4e114	1.5381188
216	0x3f894e5d	1.072704
217	0x3ff08965	1.879193
218	0x3f9f5dbb	1.2450479
219	0x3faeba23	1.3650554
220	0x3f1a97ba	0.60387766
221	0x3eb869ad	0.36018124
222	0x3f8c0ebc	1.0941997
223	0x3f3bf41e	0.7341937
224	0x3f9febf9	1.2493888
225	0x3f59c514	0.8506634
226	0x3f3d1017	0.73852676
227	0x4002a0b4	2.0410585
228	0x3d202541	0.039098028
229	0x3fb0cef1	1.3813154
230	0x3fd587de	1.6682088
231	0x3ff599ba	1.9187539
232	0x3f97e721	1.186741
233	0x3f1c8f60	0.6115627
234	0x3e71cf77	0.23614298
235	0x400343dd	2.051017
236	0x3f011a46	0.50430715
237	0x4003fb8d	2.0622284
238	0x3fa4a7c3	1.2863697
239	0x3f53dc38	0.827579
240	0x3fb05278	1.3775167
241	0x3fdd32d5	1.7281138
242	0x3fd7be6f	1.6854991
243	0x3f29b970	0.6629858
244	0x3fb16eef	1.3861979
245	0x3fde497c	1.7366176
246	0x3f5deb1e	0.86686885
247	0x40019302	2.0245976
248	0x3eb6a313	0.3567129
249	0x3fada673	1.3566421
250	0x3f47e710	0.7808695
251	0x3faceef2	1.351042
252	0x3fbc4cf1	1.4710981
253	0x3fa45010	1.2836933
254	0x3e0e4734	0.1389435
255	0x3f4ef43a	0.8084141

policy_layers.2.bias f4 [7]
0	0x3eb0865e	0.34477514
1	0x3e6c0d67	0.23051988
2	0x3c180601	0.009278775
3	0x3ea48e31	0.32139733
4	0x3f5cf060	0.86304283
5	0x3f09364e	0.5359849
6	0x3f59b078	0.85034895

value_layers.0.weight f4 [128, 128]
0	0xbf134085	-0.57520324
1	0xbe6ca44e	-0.23109552
2	0xbebd070a	-0.36919433
3	0x3f24f748	0.6443982
4	0xbefa3611	-0.48869374
5	0xbeb7abb5	-0.3587319
6	0xbbdf6398	-0.0068172924
7	0x3e3034b9	0.17207612
8	0xbeb4e1aa	-0.35328418
9	0xbe4b3a94	-0.19846565
10	0xbc5da40a	-0.0135278795
11	0x3daa3115	0.08310143
12	0x3f14ff61	0.5820218
13	0x3e9bb130	0.3040862
14	0xbcfe3349	-0.031030314
15	0xbf1460b5	-0.57960063
16	0xbdfb8df4	-0.12282935
17	0x3d7d0762	0.06177462
18	0xbdca5784	-0.098799735
19	0x3e04fe7b	0.12987702
20	0x3ef04c2a	0.4693311
21	0x3e894cdd	0.26816455
22	0x3dfc3150	0.12314093
23	0xbf194ead	-0.59885675
24	0xbe17104c	-0.1475231
25	0xbf077b10	-0.52922153
26	0xbde71a29	-0.112842865
27	0x3e4cd26c	0.20002145
28	0x3ebe1334	0.37124026
29	0x3e8e28ab	0.27765402
30	0xbeb068e0	-0.34455013
31	0x3dfd9746	0.12382369
32	0x3e5d6c0d	0.2162325
33	0x3ea6eef6	0.32604188
34	0xbfbcc009	-1.4746104
35	0xbe2e3d57	-0.17015587
36	0xbf4da1e1	-0.8032513
37	0xbc892312	-0.016740356
38	0x3de8920b	0.113559805
39	0xbe3d16fe	-0.18465802
40	0x3f106959	0.5641075
41	0xbf10e42b	-0.56598157
42	0x3ea403c2	0.32034117
43	0xbd519fe1	-0.051177863
44	0xbe945425	-0.28970447
45	0x3ecb4fab	0.3970922
46	0xbd6b3836	-0.057426654
47	0x3f02c54d	0.5108231
48	0xbde6e06e	-0.11273275
49	0x3d0a9ac3	0.033839
50	0xbe8e6783	-0.27813348
51	0x3d9cc382	0.07654478
52	0xbfa02dba	-1.2513955
53	0x3f0060d3	0.5014774
54	0x3e9637b5	0.29339376
55	0xbf1ab94e	-0.60439
56	0xbdd23569	-0.102640934
57	0x3e6fccb9	0.23417939
58	0x3e973116	0.29529637
59	0xbec47cb7	-0.383764
60	0x3e06bb5c	0.1315741
61	0xbedc96c3	-0.43083772
62	0x3eede635	0.46464697
63	0x3dcb7443	0.099342845
64	0xbf6a60c4	-0.915539
65	0x3c1fc47b	0.009751434
66	0x3e0c5ea7	0.13707982
67	0x3e001e87	0.12511645
68	0x3f12e23a	0.57376444
69	0x3efc6008	0.49292016
70	0xbf19cf83	-0.6008226
71	0xbf2c4ff0	-0.67309475
72	0x3e6c18f7	0.23056398
73	0xbf35112e	-0.7072934
74	0xbe2a3a12	-0.16623715
75	0x3f110dac	0.56661487
76	0xbf97e989	-1.1868144
77	0x3e620528	0.2207228
78	0xbe0ff2fa	-0.14057532
79	0xbe3c331b	-0.1837887
80	0x3e6af26f	0.22944044
81	0x3e97dd07	0.29660818
82	0x3d266909	0.040627513
83	0xbf4d1ba2	-0.8012029
84	0xbf8572fa	-1.0425713
85	0x3d9d2212	0.07672514
86	0xbe028ffb	-0.12750237
87	0x3ddbd692	0.107342854
88	0xbdb3bb8e	-0.087760076
89	0xbf15d6d6	-0.5853094
90	0x3e863bde	0.2621755
91	0x3ee67556	0.45011395
92	0xbe655536	-0.22395787
93	0xbd409b3d	-0.047023047
94	0x3e018fb0	0.12652469
95	0x3e187cf7	0.1489142
96	0x3e249acb	0.16074674
97	0x3f4176d8	0.75571966
98	0x3c95f9ae	0.018307533
99	0xbeb1df66	-0.34740752
100	0x3d9efe26	0.07763319
101	0xbd298c99	-0.04139385
102	0x3c11036f	0.008850916
103	0x3ecdb0f1	0.40174058
104	0xbdaf05c5	-0.08546022
105	0xbc774834	-0.015092898
106	0xbe2b0ec7	-0.16704856
107	0xbe63a7bb	-0.22231953
108	0xbd958ab1	-0.07301844
109	0xbea55d81	-0.322979
110	0xbeaf7dee	-0.34275764
111	0x3e2d2a24	0.16910607
112	0x3ed3888f	0.41315123
113	0xbcaca469	-0.02107449
114	0xbc7aaa92	-0.015299456
115	0xbd5fc673	-0.054632615
116	0xbedbc422	-0.42923075
117	0xbd2b8578	-0.041875333
118	0x3f1fec36	0.62469804
119	0x3f1417b8	0.5784869
120	0x3ed0b4ef	0.4076304
121	0xbe5c681b	-0.21524088
122	0x3cc740b8	0.024322852
123	0xbd8f9241	-0.070103176
124	0xbe65131b	-0.2237057
125	0xbc779290	-0.015110627
126	0xbe775450	-0.24153256
127	0xbfb7a7e5	-1.4348112
128	0xbecc2b71	-0.39876893
129	0x3cfe626b	0.031052789
130	0xbf43dd8b	-0.7650992
131	0xbe9ad835	-0.30243078
132	0x3f3f2042	0.74658597
133	0x3da6ea08	0.08150107
134	0xbe7332c7	-0.23749839
135	0xbf84b441	-1.0367509
136	0x3dd90976	0.10597508
137	0x3e91634a	0.28396064
138	0xbd8ba88a	-0.06819256
139	0xbe9de0be	-0.30835527
140	0x3f210b03	0.6290743
141	0xbf82874a	-1.0197537
142	0x3e32412f	0.17407678
143	0xbf2ea9db	-0.6822793
144	0x3ccb11f0	0.024788827
145	0x3f8eec5f	1.1165885
146	0xbea797bb	-0.3273295
147	0xbe89a42a	-0.2688306
148	0xbf30935c	-0.6897485
149	0xbfa419d4	-1.2820382
150	0xbd3aa658	-0.045568794
151	0xc00f6f8a	-2.2411828
152	0x3e400828	0.18753111
153	0xbfd08743	-1.6291279
154	0xbeaf294b	-0.34211192
155	0xbf14c8eb	-0.58119076
156	0xbf398e29	-0.72482544
157	0xbf0289bf	-0.50991434
158	0xbe1218f0	-0.14267325
159	0xbc980fa5	-0.018562147
160	0xbe0ff49b	-0.14058153
161	0xbdedf2d9	-0.11618585
162	0xbe127161	-0.14301063
163	0x3f05a647	0.52206844
164	0xbf0ac855	-0.5421193
165	0x3fc3dc8f	1.5301684
166	0xbec4d834	-0.384462
167	0x3eb5c227	0.3549969
168	0xbf447b24	-0.767504
169	0xc0038fa4	-2.0556421
170	0xbe80f96d	-0.25190297
171	0x3e86cbed	0.26327458
172	0x3f10c2fc	0.5654752
173	0x3f0a2b58	0.5397239
174	0x3e203830	0.15646434
175	0x3d2e0ba0	0.042491555
176	0xbee0d8dc	-0.4391545
177	0xbf475960	-0.7787075
178	0x3fafec8e	1.3744066
179	0x3f183787	0.5945973
180	0xbdd64a14	-0.10463348
181	0x3f47ab99	0.7799621
182	0x3ed81501	0.42203525
183	0xbf127a84	-0.57218194
184	0x3f10e9c5	0.56606704
185	0xbf42da3a	-0.7611424
186	0xbda057c1	-0.07829238
187	0xbf83924e	-1.0279024
188	0xbeede756	-0.46465558
189	0xbe5803ca	-0.21095195
190	0xbfc392fe	-1.5279233
191	0xbf2f7492	-0.6853725
192	0xbf804f32	-1.0024168
193	0xbdefd432	-0.11710395
194	0xbf0941f8	-0.53616285
195	0xbe434417	-0.19068943
196	0xbe34d355	-0.17658742
197	0x3f1ca317	0.61186355
198	0xbe04a608	-0.12953961
199	0xbed8d145	-0.4234716
200	0xbf011919	-0.5042892
201	0x3e0708bf	0.1318693
202	0x3f093139	0.5359073
203	0xbf21f9ba	-0.6327168
204	0x3f2c5bb5	0.67327434
205	0x3d21cca0	0.039501786
206	0xbdb2afdd	-0.087249495
207	0x3f7da2e7	0.99076694
208	0xbd93966f	-0.07206427
209	0x3f609161	0.8772183
210	0x3eb2921f	0.34877107
211	0xbf0ebe7b	-0.557594
212	0xbf1c957e	-0.61165607
213	0xbfbb8eb8	-1.4652929
214	0xbe65102d	-0.22369452
215	0xbf205b28	-0.62639093
216	0xbdd3b3a4	-0.10336998
217	0x3dfe482b	0.12416109
218	0x3eb21f48	0.3478949
219	0x3ea7e3db	0.32791027
220	0xbdf47f80	-0.11938381
221	0x3f091687	0.5355
222	0xbf10a915	-0.56508
223	0x3e03cb8e	0.12870619
224	0xbe19fbe2	-0.15037492
225	0xbef5ae88	-0.4798472
226	0x3f0a007c	0.5390699
227	0xbe052011	-0.13000514
228	0x3d8cbdaa	0.06872113
229	0x3eb89daa	0.36057788
230	0x3d5ce35d	0.053927768
231	0x3eb23942	0.3480931
232	0xbeb5cd8c	-0.35508382
233	0x3d38c27f	0.04510736
234	0xbe8a7841	-0.2704487
235	0x3e60d995	0.21958001
236	0xbf16fd55	-0.58980304
237	0xbf46a3e5	-0.77593833
238	0xbfa0a7d0	-1.2551212
239	0xbf1c7943	-0.6112253
240	0xbf4d6b4b	-0.8024184
241	0x3f94f55b	1.1637377
242	0xbe37caa5	-0.17948397
243	0xbfbfa193	-1.4971184
244	0x3f76b1c7	0.96365017
245	0x3e9c4d4d	0.30527726
246	0x3fa8ddd8	1.3192701
247	0xbf9dbd46	-1.2323387
248	0xbcabe3cd	-0.020982647
249	0x3f681b9b	0.9066712
250	0x3dd04e4b	0.10171183
251	0xbf1a389e	-0.6024264
252	0x3f3ec571	0.7452002
253	0x3e35fbf3	0.17771892
254	0x3f047777	0.5174479
255	0x3f49d1a6	0.78835523

value_layers.0.bias f4 [128]
0	0x3ea3e402	0.32009894
1	0x4010427b	2.2540576
2	0xbefdd1e8	-0.49574208
3	0x3f9da3e5	1.2315642
4	0x3b889670	0.004168324
5	0xbf7da365	-0.99077445
6	0x3f03ed7f	0.51534265
7	0x3f97cddc	1.1859698
8	0xbf91194c	-1.1335845
9	0xbf89f01c	-1.07764
10	0x3f1647f8	0.58703566
11	0xbe44c57e	-0.19215962
12	0x3ea9bd92	0.33152443
13	0xbf5147a4	-0.8174994
14	0xbed9b582	-0.42521292
15	0x3aa23d40	0.0012377873
16	0xbe4c818f	-0.19971298
17	0x3eebc559	0.46049002
18	0x3e688e82	0.22710612
19	0xbe4075f8	-0.18795002
20	0x3f0b2f1c	0.5436876
21	0xbf75b934	-0.9598572
22	0x3e8c92ca	0.2745574
23	0x402132cc	2.5187254
24	0xbecbd091	-0.3980756
25	0xbe7a4588	-0.24440587
26	0x3ef05bef	0.4694514
27	0xbc9d5ade	-0.019208368
28	0xbf5a3102	-0.8523103
29	0xbe73971c	-0.23788112
30	0xbf4d7161	-0.8025113
31	0xbe3fefb6	-0.18743786
32	0xbea6aaf8	-0.32552314
33	0x4003d070	2.059597
34	0xbecd9962	-0.40156084
35	0xbdfaddd9	-0.12249345
36	0x3f1dcff1	0.6164542
37	0xbf1d00f5	-0.61329585
38	0xbfb97531	-1.4488889
39	0xbf07cbd0	-0.5304537
40	0x3f899ee4	1.0751615
41	0xbf6b27ff	-0.91857904
42	0x3f8a662c	1.081243
43	0xbeaea2f4	-0.34108698
44	0x3fa8bee0	1.318325
45	0x3f8979d5	1.0740305
46	0x3f9200a2	1.1406443
47	0xbf1d6ee7	-0.6149735
48	0xbe0f4773	-0.139921
49	0x3f32553e	0.6966132
50	0xbebac63f	-0.36479375
51	0x3facbe46	1.3495567
52	0xbe9b5e5b	-0.30345425
53	0xbf74cbc7	-0.9562344
54	0x3fe58c7d	1.7933499
55	0xbf6b4f0d	-0.91917497
56	0x3eeba7ef	0.4602656
57	0xbf6972bf	-0.91190714
58	0x3fdfa4a1	1.7472116
59	0x3fae7ee0	1.3632469
60	0x3c9d2ece	0.019187357
61	0x3ff5edf3	1.9213241
62	0x3d06ea14	0.032938078
63	0x3fdf4f7f	1.7446135
64	0x3d017e00	0.031614304
65	0xbdb2b59b	-0.08726045
66	0xbdee2231	-0.11627615
67	0x4032ba84	2.792634
68	0xbcfef8e1	-0.031124534
69	0xbf9a2e50	-1.2045383
70	0xbe647e45	-0.22313793
71	0x3e4b7575	0.19869025
72	0x3f57adc0	0.84249496
73	0xbef49da4	-0.4777652
74	0x3f5edafe	0.87052906
75	0xbe773048	-0.24139512
76	0x3f1ef41b	0.62091225
77	0xbe4c8228	-0.19971526
78	0xbdff9555	-0.12479655
79	0x3d9b688c	0.075883
80	0xbdf61b61	-0.12016941
81	0x3e9cefd3	0.3065172
82	0x3e9cc078	0.30615592
83	0x3f3ce64d	0.7378891
84	0xbe9d8ebc	-0.3077296
85	0x3f814b8a	1.0101178
86	0x3ee6ea8f	0.4510083
87	0xbdd9152e	-0.10599743
88	0xbef07a9a	-0.46968538
89	0x3fdfb466	1.7476928
90	0xbf16b85e	-0.5887507
91	0x3f069e15	0.52584964
92	0xbe6c7ee1	-0.23095275
93	0xbfb3f888	-1.4060221
94	0x3f772568	0.9654145
95	0x3f45ba0f	0.7723703
96	0xbf069341	-0.5256844
97	0x3d6b47bf	0.05744147
98	0x3f28169d	0.65659505
99	0xbf1f1e99	-0.62156063
100	0x3f6bc9b4	0.9210465
101	0xbf064f64	-0.5246489
102	0xba581b60	-0.0008243825
103	0xbe131689	-0.14364065
104	0x3ced0dda	0.028937269
105	0xbf7c6c7e	-0.98603046
106	0x3c855d72	0.01627991
107	0xbf0e0946	-0.554829
108	0xbebf1e92	-0.3732801
109	0x3f2652d3	0.6497013
110	0x3f7221b1	0.9458266
111	0xbef10f25	-0.47081867
112	0x3f4ede03	0.80807513
113	0xbf42a9c5	-0.760403
114	0xbe306bde	-0.17228648
115	0xbe9227c6	-0.2854597
116	0xbeb8e47e	-0.36111826
117	0xbe2c50d0	-0.16827703
118	0xbd92c409	-0.07166297
119	0x3f383fd8	0.7197242
120	0x4025e154	2.591878
121	0x3f92799a	1.144336
122	0x3fc84263	1.564526
123	0xbdbca39c	-0.092108935
124	0x3eeb905b	0.46008572
125	0xbd5684b5	-0.052372653
126	0xbf300a54	-0.6876576
127	0xbf20bc7b	-0.627876

value_layers.2.weight f4 [1, 128]
0	0x3e9ee5a4	0.31034577
1	0x3e9b7682	0.30363852
2	0x3e742fb9	0.2384633
3	0x3f86b188	1.0522928
4	0x3f801c5d	1.0008656
5	0xbff85dd1	-1.940363
6	0xbf356da2	-0.7087041
7	0x3f8892de	1.066982
8	0xbf5713e5	-0.8401473
9	0xbea32192	-0.3186155
10	0xbf8797d7	-1.0593213
11	0xbfb141d0	-1.3848209
12	0x3f7ef2b2	0.99589074
13	0xbf7badfe	-0.98312366
14	0x3f8362d2	1.0264533
15	0xbfcb9729	-1.5905505
16	0xc004b0dd	-2.0732949
17	0xbeebdcc3	-0.46066865
18	0xbf832fdd	-1.0248982
19	0xbff36670	-1.9015636
20	0x3fb55717	1.4167203
21	0x3f047802	0.5174562
22	0x3f745807	0.9544682
23	0x3e3d9c1f	0.18516587
24	0xbfd24b65	-1.6429259
25	0x3f1e73cc	0.6189544
26	0x3f965675	1.1745135
27	0x3faff07f	1.3745269
28	0xbfde95bf	-1.7389449
29	0xbfe81f74	-1.8134599
30	0xbfab9ef0	-1.3407879
31	0x3fc11307	1.5083932
32	0xbfb755b1	-1.4323026
33	0xbf496a2b	-0.78677624
34	0xc005ca5d	-2.0904763
35	0xbf961620	-1.1725502
36	0xbfa7bc40	-1.3104324
37	0xbfd19d60	-1.6376152
38	0xc0095f9e	-2.146461
39	0xbf8a2acf	-1.0794314
40	0x3f128ca9	0.5724588
41	0xbeee4bd1	-0.46542218
42	0x40090564	2.140954
43	0x3f80abc7	1.0052422
44	0x3ebde11f	0.37085816
45	0x3f939d26	1.1532333
46	0x3ed87777	0.42278644
47	0xbea204ec	-0.3164438
48	0xbfb2ce99	-1.3969299
49	0x3f9a3e93	1.2050346
50	0xbf059d00	-0.5219269
51	0xbfbd2e6b	-1.4779791
52	0x3efc20a7	0.49243662
53	0xbf70b1ec	-0.9402149
54	0xbf02e7d3	-0.51134986
55	0xbf645943	-0.891987
56	0x3f9be850	1.2180271
57	0xbfb18c45	-1.3870932
58	0xbfbb00ed	-1.4609658
59	0xbf6e46b6	-0.93076646
60	0xbef8c271	-0.48585847
61	0x3eca9635	0.39567724
62	0xc01dfb44	-2.468461
63	0xbee7d5b8	-0.45280242
64	0xbf81574d	-1.0104767
65	0xbffcdca0	-1.975483
66	0xbfc90845	-1.5705649
67	0x3efbd086	0.49182528
68	0x3f46d961	0.77675444
69	0xbf240adb	-0.64079064
70	0xc001446f	-2.0198019
71	0x3f1bc740	0.60850906
72	0xbf8dac57	-1.1068219
73	0xbfbc1d0b	-1.4696363
74	0xbfc7eecf	-1.5619754
75	0x3f7e712c	0.99391437
76	0x3fde5674	1.7370133
77	0xbf907289	-1.1284953
78	0x3f15ef1e	0.5856799
79	0x3f5456e5	0.8294509
80	0xc01cc437	-2.449476
81	0xbfc5cf4a	-1.5453885
82	0xbffd259c	-1.9777102
83	0xbf8a4414	-1.0802026
84	0xbfbab66e	-1.4586923
85	0x3e97dd5c	0.2966107
86	0xbff42790	-1.9074574
87	0xbfb92bb4	-1.4466462
88	0xbf8a414c	-1.0801177
89	0xbf156b38	-0.5836673
90	0xbecc6bee	-0.39926094
91	0xc03a2b39	-2.908888
92	0xbf9ddc68	-1.2332888
93	0xbf9b1e80	-1.2118683
94	0x3f936ee1	1.1518213
95	0x3f3a106e	0.7268132
96	0x3f39ae94	0.7253201
97	0x3e8fa336	0.28054208
98	0x3f96aff2	1.1772444
99	0x3ee56417	0.44802925
100	0xbf256441	-0.646061
101	0x3f2c833b	0.6738774
102	0x3f45a918	0.7721114
103	0xbfc2a628	-1.5206957
104	0x3f93e8f4	1.1555467
105	0xbf55c8a9	-0.8350931
106	0x3fc49db5	1.5360628
107	0xbfe3b576	-1.7789752
108	0xbf4ec212	-0.8076488
109	0xbfba3e5e	-1.4550283
110	0x3fc93fe1	1.5722619
111	0xbebd0731	-0.3691955
112	0xbfad5a30	-1.3543148
113	0xbf78e619	-0.972261
114	0xc0183999	-2.3785155
115	0x3f26b9b4	0.6512711
116	0x3f91eb31	1.13999
117	0x3f466947	0.7750439
118	0xbf9bba1f	-1.2166175
119	0x3f32bfad	0.69823724
120	0x3ef8b330	0.4857421
121	0x3fc428d8	1.5324965
122	0x3e6f576b	0.23373191
123	0xbf76efab	-0.96459454
124	0x3f1a54d5	0.60285693
125	0x3ea6a7c2	0.32549864
126	0xbef5b403	-0.479889
127	0xbf2cc58b	-0.67488927
