Agent2_Congkak_PPO.pt (torch, 215323 bytes, 11 tensors)

shared_layers.0.weight f4 [128, 16]
000000 aa e4 48 be e6 f2 fc bc 92 a3 26 bb 74 29 3f 3e
       -0.19618478 -0.030877542 -0.0025427085 0.18668157
000010 2e c1 d6 be 18 dc 3e bf 6c e5 89 be 1a 24 bd bf
       -0.4194426 -0.74554586 -0.26932847 -1.4776642
000020 9a 1d bc bc fa 5f 04 bf bb c6 ed bd 4e 9e 9b be
       -0.022963334 -0.5170895 -0.116101705 -0.30394214
000030 a8 85 d8 bd 78 79 c8 3d 48 a8 97 be d7 06 9c be
       -0.10572368 0.09788793 -0.29620576 -0.30473968
000040 11 56 04 be 26 87 75 3e 76 f9 e5 bd 53 9e ad be
       -0.12923457 0.23977336 -0.112292215 -0.33909854
000050 98 db 09 be e7 89 5a be 7d f9 92 be 04 81 5b bf
       -0.13462675 -0.21341668 -0.2870597 -0.8574374
000060 55 9d da bd 68 8d 54 bf 87 2f 08 bf 66 9f f2 be
       -0.1067454 -0.8302827 -0.5319752 -0.47387236
000070 d1 b9 cc 3d 90 5a 25 3d e7 e0 6f bf 04 11 ec bd
       0.09996379 0.04036957 -0.9370255 -0.11526683
000080 69 10 6c be 7b ee 15 be d7 96 0e be 1b 58 09 be
       -0.23053135 -0.14641754 -0.13924728 -0.13412516
000090 f6 f1 47 3d 8e 7f 81 be 30 9d da bd 72 3b e7 bd
       0.048814736 -0.2529263 -0.106745124 -0.11290635
0000a0 6c 65 3e 3d ba a2 28 3d 99 c4 df bd f1 76 24 bd
       0.046483442 0.041170813 -0.1092617 -0.040152494
0000b0 22 df 96 bd d6 af 7c be ab 94 de bd b3 97 25 be
       -0.07366778 -0.24676451 -0.108682 -0.1617115
0000c0 90 7a 7c be 6b 39 bb be 35 00 cb be 08 ec eb be
       -0.24656129 -0.36567244 -0.39648595 -0.46078515
0000d0 b4 13 02 bf 91 d8 09 be c4 78 84 bd da 01 b1 bf
       -0.50811315 -0.1346152 -0.06468347 -1.382869
0000e0 f7 ac fa bc 73 e6 63 be d4 a6 f3 3c 79 43 28 bd
       -0.030600054 -0.22255878 0.029742636 -0.041079972
0000f0 b1 61 e9 be d0 8b 9d bd d8 44 8e 3e 31 76 e1 be
       -0.45582345 -0.07692683 0.277869 -0.44035485
000100 14 c4 91 be 5e 83 be be 4b 9f c4 be d5 b6 fa be
       -0.28469908 -0.372096 -0.3840278 -0.48967615
000110 4e f8 39 bf 20 0f 27 bf 64 4c 5e bf 6c f8 bb be
       -0.7264451 -0.65257454 -0.8683531 -0.36712968
000120 89 f4 99 3d 7c 20 3f be 4d 8b 39 bf e0 1b 9b be
       0.075173445 -0.18664736 -0.7247818 -0.30294704
000130 92 33 ed bd 5b 49 9a be 5e f9 80 be e9 68 0b 3c
       -0.11582102 -0.3013409 -0.25190252 0.008508899
000140 9a 84 5d be a3 32 61 bf c3 5a f0 be e9 83 56 be
       -0.21632615 -0.8796789 -0.46944246 -0.20948757
000150 81 04 e0 be d9 32 83 be 74 e1 8b bb 05 74 24 bf
       -0.43753436 -0.2562473 -0.0042688195 -0.6423953
000160 1a 7c 7f 3d 98 f4 d3 bd 1b 78 1f be 6f 15 e3 be
       0.06237421 -0.10349387 -0.1557316 -0.4435229
000170 f6 18 d8 be 36 6d 05 bd 68 78 92 3d 7f d4 c2 3d
       -0.42206544 -0.032574855 0.07151872 0.09513187
000180 3d 77 2e be f7 6e a1 bd 27 a9 ca bd 76 7e cb 3d
       -0.17037673 -0.07882493 -0.098955445 0.0993623
000190 9f c6 d2 3d 8c f1 27 be a5 b3 32 be ae b4 63 3d
       0.1029179 -0.16400737 -0.17451341 0.05559223
0001a0 51 76 83 be 40 80 bc bd 6c 51 23 be 41 d8 87 3d
       -0.25676206 -0.09204149 -0.15949029 0.06633044
0001b0 a5 07 b3 bc 36 b2 01 bd aa 26 03 be 78 d6 6a be
       -0.021854231 -0.031664096 -0.12807718 -0.22933376
0001c0 68 e0 01 be b0 4c 87 bc 45 dd c6 bd 4c 0f 0a bc
       -0.1268326 -0.01651606 -0.097101726 -0.008426499
0001d0 d8 1f 5d bd 1a d7 70 3c 32 17 99 bb 2d bc 9a 3d
       -0.053985447 0.014699722 -0.0046719545 0.07555423
0001e0 f2 f8 7f 3e a2 59 80 bd 64 eb 40 bd 5a 47 7b bd
       0.24997309 -0.06267096 -0.047099486 -0.061347343
0001f0 7d 9d 0f 3d 13 64 d0 bd c5 2b 0c bd fe b3 59 bd
       0.035062302 -0.10175338 -0.03422143 -0.05315017
000200 87 ca 19 be 61 41 be bd 56 90 04 be bf 91 ff bd
       -0.15018664 -0.09289814 -0.12945685 -0.12478971
000210 cb 45 2e be 1a 11 87 be f8 fa 9c 39 36 63 35 be
       -0.17018811 -0.26380235 0.00029941625 -0.17713627
000220 d0 8e cc bc 7f 19 20 be e9 76 09 3e 71 7f 87 3c
       -0.024970442 -0.15634726 0.13424267 0.016540261
000230 b3 d4 a2 bb 52 cb 36 3c d9 44 45 be eb 09 28 3e
       -0.0049692034 0.011156874 -0.19264545 0.16410033
000240 d4 3e cd bc 99 88 91 3c b7 6f 18 be 50 8b a3 3d
       -0.025054373 0.01776533 -0.14886366 0.07985556
000250 c6 78 e4 3c 1e 0e 82 bb 51 40 c1 bc 02 fa 04 bf
       0.02788962 -0.003968968 -0.023590239 -0.5194398
000260 30 a7 fa be a8 29 12 be 62 a4 9d be 40 fc 87 bd
       -0.4895568 -0.14273703 -0.30789477 -0.0663991
000270 00 25 8f be 9e 05 0e 3d 2b 21 67 3d 26 d2 bb be
       -0.27957916 0.034673326 0.056428116 -0.36683768
000280 da 5d 4d be 3a 29 5e be 1f e8 e0 bd 89 10 45 3e
       -0.20055333 -0.21695414 -0.109817736 0.19244589
000290 60 1f 32 be 17 b6 12 be 2c 4d 3c be 11 ac 20 be
       -0.17394781 -0.14327274 -0.18388814 -0.15690638
0002a0 c6 a1 79 be 1b ca b5 3d b8 53 88 bd ff 24 3f be
       -0.24378118 0.08876439 -0.06656593 -0.18666457
0002b0 d2 83 b8 3d 07 6b 0f be d7 53 95 be e4 81 10 3e
       0.09009518 -0.14005671 -0.29165527 0.1411205
0002c0 89 a2 af bc ba 7c 54 3d 0e 52 1b bd d7 88 0b bf
       -0.021439807 0.05187676 -0.03792005 -0.54505676
0002d0 de 57 29 be c6 02 34 3e d0 9a cd be ef 01 a3 3d
       -0.16537425 0.17579183 -0.40157175 0.07959353
0002e0 08 1a 80 be d5 86 5a be 09 c4 15 bd 4f d3 97 be
       -0.2501986 -0.21340497 -0.036563907 -0.29653403
0002f0 c0 7e 80 3d 1b 1b bd bd 08 1b fb bc 70 7f 63 be
       0.06274176 -0.092336856 -0.030652538 -0.22216582
000300 fb 6c cd bd 76 83 93 3e a3 7c b6 be 58 20 0d bf
       -0.10030552 0.28811234 -0.35641965 -0.5512748
000310 df d2 88 be 0a 94 5e bf 96 67 51 bf 5b ab 62 be
       -0.26723382 -0.8694464 -0.81798685 -0.2213568
000320 bd 21 ee bd 10 59 25 bf c7 db 79 bf 83 d7 e0 be
       -0.11627529 -0.64589024 -0.9760098 -0.43914422
000330 02 54 fa be 30 7c 24 be 49 9a 81 bd 87 57 00 be
       -0.48892218 -0.16062999 -0.06328256 -0.12533389
000340 6d 1c ed bd f2 4c 0f be 41 45 94 3d ae e4 ab be
       -0.115776874 -0.13994196 0.07239772 -0.33572906
000350 84 45 de 3d b2 25 ca be d2 69 d7 bd 1e 99 9c be
       0.10853103 -0.39481884 -0.105182305 -0.3058557
000360 a8 ca 2b be e1 15 c5 3d 1f 4e 23 be 80 c3 9d be
       -0.16776526 0.09623314 -0.1594777 -0.30813217
000370 3d fc 1a 3d 67 32 4b be 1d 2b f3 bd 7c c6 35 be
       0.03783821 -0.19843446 -0.118734576 -0.17751497
000380 27 9f 8e be bd 6d ef be 22 88 8e 3c 4c 64 42 be
       -0.278558 -0.4676341 0.017398898 -0.18983573
000390 92 7f a2 be bd 23 f3 3d 78 fd cc bc 13 64 d4 be
       -0.31737953 0.11872051 -0.025023207 -0.414826
0003a0 9f 10 56 bc 96 3c e8 be 0a eb d8 be 82 d0 0d be
       -0.013065486 -0.45358723 -0.4236682 -0.1384907
0003b0 66 70 4f 3e b6 7c 17 3e 81 d4 f9 bc 32 66 51 bf
       0.2025772 0.14793667 -0.030496838 -0.8179656
0003c0 92 dd a0 be 73 fd 89 bd d3 b8 57 be f8 e8 da be
       -0.31419045 -0.06737795 -0.21066599 -0.42755866
0003d0 94 04 85 3e 5f a2 44 bf 16 6e e5 3d bd 98 c4 bf
       0.25980055 -0.7681026 0.11202638 -1.5359112
0003e0 90 f5 97 bd 7a 76 d7 3d 2e e5 60 bf 6c 71 c0 be
       -0.07419884 0.105206445 -0.878497 -0.37586534
0003f0 0e a1 1c bf c5 94 d4 bd bd ec 12 be cb 71 de bd
       -0.6118325 -0.10379938 -0.14348121 -0.10861548

shared_layers.0.bias f4 [128]
000000 16 a1 22 bd fe ac 51 be d3 c5 d7 be f8 74 2c be
       -0.039704405 -0.20476148 -0.42143115 -0.16841495
000010 a2 1c f6 be 6d 07 85 be 56 de a3 3d 48 b2 96 bd
       -0.4806872 -0.25982228 0.080013916 -0.07358223
000020 c9 43 75 be d1 51 84 be 74 71 88 3d 67 6d 81 bd
       -0.23951639 -0.2584367 0.066622645 -0.06319695
000030 7e d4 d3 be 7b 92 f3 bd d7 5e 5e be 11 cb c6 3b
       -0.41373056 -0.11893173 -0.21715866 0.006066688
000040 a1 c8 a1 be d7 1a cf be 82 2d 74 be 42 35 65 3d
       -0.3159838 -0.40450165 -0.23845485 0.055958994
000050 5a f9 df 3d 24 de e1 bd ce 20 5e be 38 5a 60 be
       0.10936232 -0.11028698 -0.21692201 -0.21909416
000060 0b a3 11 be e3 38 c4 bd fe ab 47 3e 69 c0 df be
       -0.14222352 -0.09581163 0.19499204 -0.43701485
000070 7b 7d d8 be 5b 42 c5 be 9c 3c e6 be 32 bf 90 bd
       -0.42283234 -0.38527188 -0.44968116 -0.070677176
000080 8d 11 b1 be 3a 26 f1 bd ac d8 67 be 1f d9 cd be
       -0.34583703 -0.11774869 -0.22641248 -0.40204713
000090 08 ba b8 be 53 af ca bc b3 f5 a8 be 1e 7f f3 3c
       -0.3607943 -0.024741804 -0.32999954 0.0297237
0000a0 bf bc 1b be 66 1f 78 be 7a 2f 31 bd 8e eb ab bd
       -0.1520872 -0.24230728 -0.043258168 -0.08394538
0000b0 e6 d2 47 be 1c 86 35 be 56 ba a2 be 5f 3f 6f be
       -0.19514045 -0.1772694 -0.31782788 -0.23364018
0000c0 51 5d a3 be d4 33 1d 3d 03 12 28 be 0d b7 37 be
       -0.31907132 0.038379505 -0.16413121 -0.17940922
0000d0 8b 32 e5 be 13 ac 3e bf 4f 42 8a bd 1a 9c 1c be
       -0.44765124 -0.74481314 -0.067509286 -0.15293923
0000e0 96 6b 9b be 10 c6 24 bc 84 09 11 be b7 17 26 be
       -0.3035552 -0.010056987 -0.14163786 -0.16219984
0000f0 a5 5f 28 3e 95 a0 b0 be 70 4f ac 3c 30 fb fd be
       0.16442735 -0.34497514 0.021033973 -0.49605703
000100 3e bc e6 be 96 4a 8c be 71 45 9f 3d e3 1a b8 be
       -0.45065492 -0.27400655 0.07776917 -0.35958013
000110 c2 ac 1c be a5 11 0e be 6d c7 ca bd da 1a f3 bc
       -0.15300277 -0.13873918 -0.09901319 -0.02967589
000120 ca 91 dd bd de 40 5b be 88 3b 51 be c2 65 09 bd
       -0.10818823 -0.21411464 -0.20432866 -0.03354431
000130 c6 d2 60 3d 22 02 13 be a8 84 b1 bd 7c 0f 76 bd
       0.05488851 -0.14356282 -0.0866788 -0.06007336
000140 fa 4c cb be a8 cb d6 be 6a 58 10 bf 38 d5 0f bf
       -0.39707166 -0.41952252 -0.5638491 -0.5618472
000150 40 32 ce 3d f9 a2 9d be 3a f0 87 bd 14 63 8f be
       0.10068178 -0.307884 -0.066376165 -0.28005278
000160 2f 9b c7 be 4b ee 33 bf 67 85 f2 be 64 09 95 be
       -0.38985583 -0.7028548 -0.47367403 -0.29108727
000170 55 b9 b8 be a1 dd 77 be f4 b1 ed be 4a d4 d8 3d
       -0.36078897 -0.24205638 -0.4642483 0.10587366
000180 1d 25 9b be 61 ad c0 bd 6f 42 64 be c9 ce d6 be
       -0.30301753 -0.094080694 -0.22290967 -0.4195464
000190 44 d4 da 3d 2b 8e 3e be 04 ea 19 be 2e 74 9f be
       0.10685018 -0.1860892 -0.15030676 -0.31143326
0001a0 73 f4 70 be 30 22 bd bd e5 81 56 be 00 e6 82 3d
       -0.2353075 -0.092350364 -0.20947988 0.06391525
0001b0 96 25 3d be 55 28 95 be f2 94 90 be 67 a6 09 be
       -0.18471369 -0.29132333 -0.28238636 -0.13442384
0001c0 fa 71 c4 bd 9f 5b 02 be fc c9 4e be 20 fc 84 be
       -0.09592052 -0.12730263 -0.20194238 -0.25973606
0001d0 da 0a 85 3d 5d ce d9 bd 87 ce db be 40 3c af 39
       0.064962104 -0.10635064 -0.42931005 0.0003342349
0001e0 5e 66 95 3d 92 22 84 bf 7e 61 38 bf 63 72 96 be
       0.072949156 -1.032305 -0.7202376 -0.29384145
0001f0 e6 7b ec be 0b 94 2c be b1 5a e0 bc 44 ad ce be
       -0.46188277 -0.16853349 -0.027386995 -0.40366566

shared_layers.2.weight f4 [128, 128]
000000 11 76 8b 3d db 52 87 be 2e 9f b4 3d 95 0c 5e be
       0.06809629 -0.264304 0.088194236 -0.21684487
000010 3d 4f 2f bd 85 37 87 3b 00 cd b1 39 c1 bb 46 be
       -0.042800177 0.0041264915 0.00033912808 -0.1940756
000020 07 35 30 be 7a c5 04 be 32 7c 01 3d 69 a0 73 be
       -0.17207728 -0.12965956 0.031612583 -0.2379166
000030 32 9d 72 3c 2b ea 8e bc d5 69 a6 bd af 4f a0 3d
       0.014807986 -0.017445644 -0.081256546 0.078276984
000040 80 c1 13 be 76 bd 39 bf 08 eb 17 bf 49 a2 11 3e
       -0.14429283 -0.7255472 -0.59343004 0.14222063
000050 a0 2f ad bd c0 ec 36 be ac 38 32 3e 29 b1 16 3e
       -0.084563494 -0.1786375 0.17404431 0.14716019
000060 a0 73 9e bd 1a c5 c4 3c 84 3b 69 bd 77 b2 35 bf
       -0.077368975 0.024019767 -0.056941524 -0.7097544
000070 06 01 01 be 01 10 94 be 42 5d fe be e2 f0 da 3c
       -0.12598047 -0.2891846 -0.49680525 0.02672619
000080 3d 6d cd bd 43 fe fe bd 65 62 1c be a6 50 bb bd
       -0.10030601 -0.1245084 -0.1527191 -0.09146242
000090 2f 8d 37 be dc d5 3f be b0 5d d6 be 91 33 20 be
       -0.17924951 -0.18733925 -0.41868353 -0.15644671
0000a0 04 33 cb bd 9f c7 c6 3c 28 88 d7 3d 0e 54 4f bd
       -0.0992184 0.024265109 0.105240166 -0.05061727
0000b0 93 a0 f1 bc 73 da 24 3e 0c a3 d3 bd f8 53 14 3c
       -0.029495513 0.16098957 -0.10333833 0.009053223
0000c0 38 94 18 bd 66 64 cb bd 2b ee 4f bc 49 a1 40 bc
       -0.037250727 -0.09931259 -0.012691061 -0.011757203
0000d0 ae 2a d5 3d f1 28 01 3e f0 b1 65 3d 33 a2 3b 3c
       0.10408531 0.12613274 0.056077898 0.0114522455
0000e0 38 bb 8f be 85 de b3 3e fd d9 e7 3c 27 93 e2 3d
       -0.28072524 0.35130706 0.028302187 0.11063223
0000f0 f3 82 8f be 1d 34 11 3e f0 78 9e be 12 63 96 bd
       -0.28029594 0.14180036 -0.30951643 -0.07343115
000100 a6 7b 0c 3e de 5a b7 3c d2 10 a5 bc 62 bc 47 be
       0.13719043 0.022382196 -0.020149622 -0.19505456
000110 ea 2e 7f 3d cb 52 95 bd f2 27 85 3c 23 df 98 3d
       0.0623006 -0.07291182 0.016254399 0.07464435
000120 54 7d b2 bc cc 4c 9d 3d c0 5d 12 bf ea ec 88 3c
       -0.021788277 0.076806635 -0.571743 0.016714532
000130 d5 e2 8f 3d f0 8f e8 bc b3 b8 60 3b 53 64 00 3e
       0.07025687 -0.028388947 0.0034289777 0.1253827
000140 b0 40 13 be 09 d1 1e be 95 1e 13 3e fb f7 f9 be
       -0.14380145 -0.15509428 0.14367135 -0.48822007
000150 55 bd 5e bd a6 67 47 bd 9c b4 80 be 70 7c f7 bd
       -0.05437978 -0.04868283 -0.25137794 -0.120842814
000160 bd 1b 8b be 28 73 31 be 34 bf a3 bd 46 fe f4 be
       -0.271696 -0.17329085 -0.079954535 -0.47850245
000170 c0 ae 33 3e d9 63 98 be 41 e1 34 3e ae e8 50 3d
       0.1754713 -0.29763678 0.17664053 0.05100315
000180 bc 47 71 bd 79 ca 7d 3c 58 c5 48 3e 45 ee d1 bd
       -0.0589063 0.015490168 0.1960653 -0.102505244
000190 8a 3b 99 bd 02 89 96 3d a4 79 1e be 46 a2 b6 be
       -0.07482059 0.07350351 -0.1547609 -0.3567068
0001a0 f7 9e 84 bd 3d 4b ab bc 6c e8 22 bf 37 5a 57 bd
       -0.06475633 -0.0209099 -0.636359 -0.05257627
0001b0 9f fb a9 3e e6 52 3d 3e f1 cf 32 bd 88 d6 03 be
       0.33199784 0.18488654 -0.04365534 -0.12874806
0001c0 51 21 65 3d 52 29 68 be be 4f ea bc d3 18 59 3e
       0.055939976 -0.22672012 -0.028602477 0.21200876
0001d0 1f 68 34 3e a0 92 4c be 06 5f 1b 3e 6b 21 b6 3d
       0.17617844 -0.19977808 0.15172967 0.08893093
0001e0 28 01 87 be d5 a0 49 be 0e 07 f6 bd 69 e0 60 3d
       -0.2636807 -0.19690259 -0.12013064 0.054901514
0001f0 4b ad 50 be 8c b5 6a bd e3 5d 06 3d 84 89 46 3c
       -0.20378606 -0.057302043 0.03280438 0.012117747
000200 36 49 b7 bc b0 d6 e4 3a 15 67 10 bd 51 98 14 bd
       -0.022373777 0.0017459001 -0.035254557 -0.036278073
000210 80 c3 14 be 5b 84 6a be 09 14 b9 3d 48 41 37 3f
       -0.14527702 -0.22902052 0.090370245 0.71583986
000220 99 63 20 bd 47 a3 ae 3c d0 7d 8d bd c8 b7 08 3f
       -0.039157484 0.021318091 -0.069087625 0.5340543
000230 6a 32 f8 3b 1b 69 b9 bd 1c cf 85 3d f8 29 8b bc
       0.007574369 -0.090532504 0.065336436 -0.016987786
000240 e7 c2 f8 bd 99 ce 95 3b e1 ab c1 be dd 9b 24 bc
       -0.1214655 0.0045717475 -0.37826446 -0.010046926
000250 6f 2f a3 bd 7b fc 7a bd 95 76 84 3d 84 8c 20 3d
       -0.079680316 -0.06127594 0.0646793 0.039196506
000260 6a ae 96 3d 79 0e cb 3d 2b 4d c3 3d 9f 49 f4 3d
       0.073574856 0.0991487 0.09536203 0.119281046
000270 1a f6 85 bd f3 16 1a 3d e2 03 2c 3e c8 f6 82 3d
       -0.06541081 0.037619542 0.16798356 0.06394726
000280 3a 1c 8a 3d 9d a8 58 bd 10 d1 a9 3c 12 63 ec be
       0.06743665 -0.052895177 0.020729572 -0.46169335
000290 be d0 da 3b 9e 71 e9 3c ba a5 57 be ab 37 0a bd
       0.006677716 0.02849656 -0.21059313 -0.033744495
0002a0 d4 ce 83 be e3 fa 2a 3e 07 5c ff 3d 89 8d bd 3c
       -0.25743735 0.16697268 0.12468725 0.023138778
0002b0 71 7f dd bd b0 84 09 be 35 65 07 bd 6a 40 0d be
       -0.10815323 -0.13429523 -0.033055503 -0.13794103
0002c0 c4 38 40 3c a8 52 cf bd 70 a9 28 3d 38 5b 3b be
       0.011732284 -0.10123187 0.041177213 -0.18296516
0002d0 72 a4 7a be d1 90 0c be 88 12 c1 3b d4 7d b7 bd
       -0.24476793 -0.13727118 0.0058921017 -0.08959547
0002e0 ce 7c 0e bf 84 d2 86 be 9d 47 94 bc 50 63 2b be
       -0.55659187 -0.26332486 -0.018100554 -0.16737103
0002f0 2e 8d ae 3e 22 c8 64 be b4 27 07 3f aa c9 05 3e
       0.34092087 -0.2234197 0.5279496 0.1306521
000300 12 27 e3 bc 24 49 80 ba 49 69 78 bf 0a 9b 1f 3c
       -0.027728591 -0.0009787423 -0.9703565 0.009741554
000310 a6 5e db bd 1f c3 bc bd 7f f5 57 bb ba e3 e4 bd
       -0.10711412 -0.09216904 -0.0032952724 -0.11176248
000320 fe dc e0 bd b6 7b 89 3c d2 34 16 bf 64 ac 55 3c
       -0.10979651 0.016782623 -0.5867435 0.013041589
000330 c4 06 15 3c f2 32 41 3e 0b 1b 1d bd 36 2c 57 3d
       0.009095851 0.1886709 -0.03835587 0.052532397
000340 8d d0 0a be dc d3 41 3d 7c 47 0e bd 58 25 29 3e
       -0.13556118 0.047321185 -0.03473614 0.16518152
000350 74 68 b7 3d 1f ae 4d ba ad 18 89 3d fd 23 d8 3e
       0.0895547 -0.00078460755 0.0669416 0.42214957
000360 76 67 13 3d 63 d8 59 be ee 8c fa be cc dc 4f be
       0.03598734 -0.21273951 -0.48935646 -0.20299071
000370 32 06 9a 3d d8 42 24 bd 73 9e 8a be 8d 1a 10 3c
       0.07520713 -0.04010281 -0.27074012 0.008795393
000380 b2 04 1e 3d 68 43 90 bd 0f 5b 24 bd 18 23 0b bf
       0.038578697 -0.07044107 -0.040125903 -0.54350424
000390 8f 78 d7 bc a8 f1 1b 3d fd e7 82 bd 13 e5 ce bd
       -0.026302604 0.03807226 -0.063919045 -0.10102286
0003a0 94 88 5c bd 97 dc ab bd 99 82 a1 bd 40 dc ea 3e
       -0.05384119 -0.083916835 -0.07886238 0.45871162
0003b0 cb 13 9b bd ca c7 2b be c2 3b db bd 29 98 80 bd
       -0.075721346 -0.16775432 -0.10704757 -0.06279022
0003c0 4a 50 16 be 43 17 25 3e 9c ac b3 bd c2 0f b3 3e
       -0.14679065 0.16122155 -0.08773157 0.3497296
0003d0 1a 07 12 bf cc fb c6 3d fd fd 0b be 0f fe b7 bc
       -0.57042086 0.09715995 -0.13671108 -0.022460012
0003e0 fc 5b a5 3e 78 b8 71 bd 3a c0 f6 3d 23 20 79 bd
       0.3229674 -0.059013814 0.12048383 -0.060821664
0003f0 ad 39 71 3c e7 25 e1 3d 97 6c 76 bd e4 10 c9 bd
       0.014723224 0.109935574 -0.060162153 -0.09817675

shared_layers.2.bias f4 [128]
000000 cd 87 22 3f ff 7f 97 3f f4 ab 53 bf a6 5e 04 3f
       0.63488466 1.1835936 -0.82684255 0.5170692
000010 e9 76 77 3c f3 70 9e 3d b4 59 51 3b f4 63 5c 3d
       0.015104034 0.07736387 0.0031944336 0.05380626
000020 16 4d d4 bf 3f 69 d3 be 19 e2 13 3f c1 f2 c6 be
       -1.6586025 -0.41291234 0.5776687 -0.38857082
000030 93 a0 94 3e 77 b0 9b 3e 71 d9 84 bd 23 b4 b2 3e
       0.29028758 0.3040807 -0.06486786 0.34903058
000040 4e 34 59 be af a3 18 3f 52 d3 97 3f d1 1f f8 3f
       -0.21211359 0.5962476 1.1861365 1.938471
000050 49 90 77 3f d7 c5 cc be d4 d1 05 bd e1 93 16 3f
       0.96704537 -0.3999469 -0.03267081 0.58819395
000060 b8 5e 98 3f cd dc 23 3e f0 cf 6d be a3 94 74 3e
       1.1903906 0.16002198 -0.23223853 0.23884825
000070 95 aa d0 bd a2 ff ab 3f 8e de 57 3e e2 4f 9a bd
       -0.10188786 1.3437388 0.21080992 -0.07534768
000080 fe ee 83 3f 21 82 01 be 1e 3b ef 3e 1e a7 21 3f
       1.030731 -0.12647296 0.4672479 0.63145626
000090 a0 32 73 3f 62 dd db be 40 2d 9d 3f 1c 29 c6 3e
       0.9499912 -0.4294234 1.2279434 0.3870324
0000a0 2f 69 ee be 0b d5 4f 3f 8e a0 34 3e 75 de 86 3f
       -0.46564624 0.8118445 0.17639372 1.0536638
0000b0 ee 95 90 bf 22 28 de 3f f6 19 38 bf 40 07 95 3c
       -1.1295755 1.7355998 -0.71914613 0.018191934
0000c0 83 3a d4 be c3 4b 29 3e f7 1b 39 40 ac fc 1f c0
       -0.4145089 0.16532807 2.8923318 -2.4997969
0000d0 bd 69 ac 3e f5 42 8c 3f d6 ca 33 bf d3 14 90 bd
       0.33674422 1.0957934 -0.7023138 -0.07035222
0000e0 0e ad 05 be 57 ba 84 3f 24 f7 db bd 7d b7 a4 3e
       -0.13054296 1.0369366 -0.10740498 0.3217124
0000f0 de ea 39 3f ef 13 15 3f 10 4c 6d 3d 56 af 3b bf
       0.72624004 0.5823354 0.057933867 -0.73314416
000100 82 f4 ac 3b 88 66 9a bf 70 45 c5 be 1e a4 4c 3f
       0.005278171 -1.206254 -0.3852954 0.7993792
000110 cc 13 44 3e 76 06 ba 3e 93 a2 e4 3e e9 04 e7 3e
       0.19148177 0.36333054 0.44655284 0.45120934
000120 8d 1c 2c bf 0b 1d 03 3f fd ba f3 3d 75 e5 03 bf
       -0.67231065 0.5121619 0.119008996 -0.51522
000130 2f e6 26 be 7d 83 b7 be 13 8e 0c 3e 34 5b 78 3d
       -0.16298746 -0.35842505 0.13726072 0.060633853
000140 32 d3 9c 3f e2 f4 4d 3f 7a a5 b4 3f 5f 2f 55 bf
       1.2251952 0.80451787 1.4113 -0.8327541
000150 39 9b a6 3e 56 bb 31 3e ec a9 84 3f 6a 9b 7d 3f
       0.325403 0.17356619 1.0364356 0.9906527
000160 79 79 ec 3e d4 6f 30 3e 72 f6 30 bf 36 cb e0 3d
       0.46186426 0.17230159 -0.69126046 0.109762594
000170 cc 7a 7c 3f 37 7d 18 3e 6e 31 04 c0 e7 fa c2 3e
       0.98624873 0.14891516 -2.065517 0.38082048
000180 fe 76 27 3f b0 bc 6e 3d 7d be e5 3e c6 9d d9 3f
       0.6541594 0.058285415 0.44871894 1.7001274
000190 a1 14 57 3f e0 e3 83 3e 46 c5 c2 3e 03 78 a1 3d
       0.8401585 0.25759792 0.38041133 0.078842185
0001a0 01 8d 63 3c c2 24 cd be cc 33 84 3e 42 6b cb 3e
       0.013888598 -0.40067106 0.25820768 0.3973027
0001b0 5c d3 64 bf 38 35 b0 3f 59 14 12 3f 60 84 15 be
       -0.8938501 1.3766241 0.570623 -0.14601278
0001c0 54 0c d5 3e 5e 62 b2 bf e9 9f 25 3e 8d 15 08 3f
       0.41610968 -1.3936269 0.16174282 0.53157884
0001d0 49 18 93 3e 2b 31 e0 3f dd 7f b8 3f 54 83 77 3f
       0.28729466 1.7515005 1.4414021 0.96684766
0001e0 90 2f 74 3f d7 6a 29 3f a1 b7 8b 3f af 92 16 bf
       0.95385075 0.6617865 1.0915414 -0.5881757
0001f0 24 47 11 be 67 1e 57 be 69 e9 e5 be 7c 38 9b bd
       -0.14187294 -0.21007691 -0.4490464 -0.07579133

policy_layers.0.weight f4 [128, 128]
000000 65 16 67 3e ee 16 29 3d 6c 52 e3 bc 95 a8 28 bd
       0.22567137 0.041281633 -0.027749263 -0.041176397
000010 71 46 e4 3d ea aa e3 bc fb 33 f3 3d f3 cc 75 3e
       0.11146248 -0.02779146 0.11875149 0.24003963
000020 30 9d 94 3d f5 38 8c bd 76 16 ca 3d 2f c5 9d 3e
       0.07256544 -0.06846801 0.09867565 0.30814502
000030 ad 44 40 3c 41 94 aa be dd cc 75 3e 61 02 2c 3e
       0.011735124 -0.33316234 0.2400393 0.16797782
000040 82 17 91 3e 98 7f 36 bd 78 9b 2b be fd 3b b0 3b
       0.28338248 -0.044555277 -0.16758525 0.005378245
000050 f9 28 ba 3d 3f 43 a0 3d bb 79 9b 3c 97 bb 83 bd
       0.09089846 0.07825326 0.018978944 -0.06432264
000060 30 dd 96 3d 9e 17 38 3d 07 b8 bc bd 78 2a 04 3e
       0.07366407 0.044944398 -0.09214788 0.12906826
000070 d3 84 e0 be 12 f3 07 be c2 3a 80 bc ca 7f 8f 3e
       -0.43851337 -0.13276318 -0.015653018 0.28027183
000080 ef bb db bd 86 27 c4 bc 9a 20 1d 3e c4 8d 3d 3e
       -0.10729205 -0.023944627 0.15344468 0.1851111
000090 29 b0 28 be 60 a2 6f bd f5 ac c6 be 87 ec f6 3e
       -0.1647345 -0.058504462 -0.3880383 0.4822733
0000a0 76 e5 70 3d bb 83 86 be 55 74 08 3e c2 83 4a bd
       0.05881258 -0.26272377 0.13325627 -0.04944206
0000b0 99 08 80 3e 26 d2 09 bf 21 a2 91 be 78 7f 51 be
       0.2500656 -0.53836286 -0.28444007 -0.20458782
0000c0 48 3b 1b 3e 1e 56 20 be f8 31 4d 3e ac 7f 59 be
       0.15159333 -0.15657851 0.20038593 -0.21240109
0000d0 c7 af a4 3e b1 a1 df 3e 22 89 80 3e 85 90 56 be
       0.32165357 0.43678048 0.25104624 -0.20953567
0000e0 fc e0 99 be e0 e6 a6 bc a1 56 e2 bc ac 64 02 3e
       -0.30054462 -0.020373762 -0.027629199 0.12733716
0000f0 9e e8 fe 3d 6e 95 0b be 08 5f b0 3e 39 a2 9b bd
       0.12446712 -0.13631222 0.34447503 -0.07599301
000100 82 09 5f be 75 97 4e be 2a 76 93 bd f7 2c 84 be
       -0.2178097 -0.20174964 -0.072002724 -0.25815555
000110 3a 58 75 3d 0c 7e 7a 3e d6 7d d2 be f6 af 8f bd
       0.059898593 0.24462146 -0.4111163 -0.07015984
000120 11 1d 69 3d 36 63 d7 be 7f c6 86 3e 03 5c fc bd
       0.056912486 -0.4206788 0.26323316 -0.12322237
000130 cc 69 c5 3d a3 6f 96 3d d7 29 cb 3d 48 36 d2 be
       0.0963932 0.07345512 0.0992009 -0.41057038
000140 f6 4a 68 be aa 15 47 3e 12 fd c0 be 59 50 72 3d
       -0.22684845 0.19441858 -0.37693077 0.059158657
000150 99 9e 0c 3c c5 cd 55 3d 69 65 8a be eb 3f 7b be
       0.0085827345 0.05219819 -0.27030495 -0.24536102
000160 4f 83 8d 3d f3 c9 0d be 7a 38 1f be 9e ed c4 3d
       0.06909811 -0.13846569 -0.15548888 0.096156344
000170 87 45 9a 3d 1d 11 48 3e 27 e5 4f 3e a9 b5 80 3e
       0.075327925 0.19537778 0.20302258 0.25138596
000180 fe 93 99 be 31 10 3e 3b d7 e1 c9 3e 05 32 ee be
       -0.29995722 0.002900135 0.39430115 -0.46522537
000190 8e c5 9a 3d 3e 92 4d be b7 b6 9c be a7 90 8c 3e
       0.07557212 -0.20075318 -0.3060815 0.2745411
0001a0 d7 1a f8 3d 22 9d 7b 3e 53 8d 47 3d cb fe 6e bd
       0.12114494 0.2457166 0.04871876 -0.05834846
0001b0 1c 28 9a 3e 5f c5 8b bb 2c 81 16 3c ae 54 0c be
       0.30108726 -0.004265472 0.00918607 -0.13704178
0001c0 21 26 05 3e ae 07 a0 3e 86 7e 34 3e 6f f1 c8 3c
       0.13002826 0.3125586 0.1762639 0.024529187
0001d0 1f 00 07 bf f7 5e ae bd 00 5b c2 be d4 74 a1 3e
       -0.5273456 -0.08514207 -0.37960052 0.31534445
0001e0 eb f5 8d 3e 04 ba 2f 3d f4 ed 6a bd 44 24 4c 3d
       0.27726683 0.042902008 -0.057355836 0.049839273
0001f0 b1 6f e0 be 49 41 26 3e a4 4d c4 bd b2 71 33 bc
       -0.43835214 0.16235842 -0.09585121 -0.0109524
000200 d9 a5 34 bd 66 db 74 be 7d 08 00 3e 12 5f 6c be
       -0.044103477 -0.23911819 0.12503238 -0.23083141
000210 72 c2 ca 3d 20 e6 11 be c7 5e 45 bd 25 45 0d bd
       0.09900369 -0.14247942 -0.04818609 -0.03448977
000220 52 da 89 3e 08 c9 4a be e6 3b 2b 3c 78 db b3 3d
       0.26924378 -0.1980325 0.010451293 0.08782095
000230 a3 d6 3b 3c 0b a9 9b be ba 5f b1 3e c5 df 82 be
       0.011464748 -0.30402407 0.34643346 -0.25561348
000240 5b 14 ba bc b1 59 36 3d 3c 43 d6 be 2c d5 05 be
       -0.022714784 0.04451913 -0.4184817 -0.130696
000250 86 27 51 be 0d bc 0d 3f a9 ad 44 be e6 21 9b bd
       -0.20425233 0.5536507 -0.19206871 -0.07574825
000260 c2 56 a5 be 0c e5 9c bd 29 6d a3 bd 33 f6 9d bc
       -0.32292753 -0.07660875 -0.07979805 -0.019282436
000270 16 be fe bd b2 eb 7c be f2 7a 85 bd 7e 4b 2f 3e
       -0.124386 -0.24699286 -0.065175906 0.17118642
000280 78 18 63 be e3 2d 38 3e 29 05 1d 3d 96 4d 5f be
       -0.22177303 0.17986254 0.038335 -0.2180694
000290 47 60 6f be 9f f0 55 be 6a 42 8b 3d 7c 98 cc 3d
       -0.2337657 -0.20892571 0.06799777 0.099900216
0002a0 dc e0 3e 3d 0e 36 01 be 49 ac 97 be c2 44 12 be
       0.04660116 -0.12618276 -0.2962363 -0.14284042
0002b0 61 5b ef 3e 1a 45 83 be c5 04 a9 3e 78 f0 6b ba
       0.46749404 -0.25638658 0.3301145 -0.0009000371
0002c0 19 fd 02 3e ba 59 52 bd 15 7f 89 3e 5b c1 f0 bc
       0.12791862 -0.0513551 0.26854768 -0.029389074
0002d0 8d cb 0e 3e 83 60 8f 3d c5 e3 3a 3d 71 fa 17 be
       0.13944836 0.0700083 0.045627374 -0.1484163
0002e0 25 2b 95 be f8 e5 68 be 3b c1 ce bc c6 c1 60 3d
       -0.2913448 -0.22743976 -0.025238624 0.054872297
0002f0 73 dd 95 be 9e 9b 88 3d 11 48 39 be 95 f5 50 3e
       -0.29270515 0.066703066 -0.18093897 0.20406182
000300 5b 64 e1 be 3d ce 9c 3e f0 28 fd bd d2 f9 f2 bd
       -0.44021878 0.30626097 -0.12361324 -0.11864056
000310 94 3d 5c bc 59 a0 3e 3e 2d c9 1a be 0b 9d 2c 3e
       -0.013442416 0.18615855 -0.15115805 0.16856782
000320 73 cf 44 3e 07 e7 c4 3c 64 9a 66 3e a7 41 f5 bc
       0.1921976 0.024035944 0.22519833 -0.029938532
000330 e7 16 79 be fe 22 04 bd 4d 7c 17 3e 2c b5 6c be
       -0.24325143 -0.032259934 0.1479351 -0.23115987
000340 f0 17 15 3e 04 fe a1 bc 30 29 57 3e 70 0d 73 be
       0.14559913 -0.019774444 0.21011806 -0.23735595
000350 2b 22 60 3e 15 be a8 bd 37 18 75 be d3 ef 80 bc
       0.21888034 -0.0823938 -0.23935018 -0.015739357
000360 b2 c5 1b 3e 10 56 21 be 5b 7c 7d bc e7 f4 09 3e
       0.15212134 -0.15755486 -0.015471543 0.13472329
000370 a9 ae 5b 3e ac 0a e7 3d a0 db a7 3e 2e 86 23 3d
       0.21453346 0.112813324 0.32784748 0.039922886
000380 b4 f5 19 3e d2 b5 15 3c e4 9f 5d 3e 97 46 d7 be
       0.15035135 0.009137588 0.21643025 -0.42046043
000390 56 e6 04 3e 58 67 2c be 11 0c 11 be 5a 4f 2b be
       0.12978491 -0.16836298 -0.14164759 -0.16729489
0003a0 cc df 3e 3e 9f 71 fa 3e a4 6b 63 3e 21 d5 f2 3d
       0.18640059 0.4891481 0.2220903 0.11857057
0003b0 f6 60 bb bd aa ce f7 bd a0 b7 bd 3e 93 d2 05 bd
       -0.09149353 -0.12099965 0.37054157 -0.032671522
0003c0 21 80 20 3e 21 21 99 3e cb b4 d3 3d 41 58 d4 bb
       0.15673877 0.29908088 0.10337218 -0.0064802472
0003d0 e1 1d 05 bf 9f 6f 50 be d8 19 b6 bd f9 70 0f bc
       -0.51998717 -0.2035508 -0.08891648 -0.008754962
0003e0 0d 1b 7b 3e 68 b5 91 bd 85 6a ba be c9 78 40 be
       0.24522038 -0.071146786 -0.36409393 -0.18796076
0003f0 f7 42 c4 bd e9 e2 37 3e 38 07 51 bd c7 ed 18 bd
       -0.09583085 0.17957653 -0.051032275 -0.037336137

policy_layers.0.bias f4 [128]
000000 ed a7 ce 3e 8c 62 42 3f 5b 25 00 3f d6 e4 63 3e
       0.40362492 0.7593162 0.50057 0.22255263
000010 b4 6f 2b 3f 43 8d 41 3e 52 02 03 3f 74 7b 84 be
       0.6696732 0.18901543 0.51175416 -0.25875437
000020 3b 89 0e 3f f7 8e 99 be 3a eb 1b 3f d9 f4 ee 3c
       0.5567815 -0.29991886 0.609058 0.029169487
000030 54 5c 65 bd 56 1f d9 3e ff e7 53 3e e4 d2 5a 3f
       -0.055996254 0.4240672 0.20693968 0.85478044
000040 09 4c 9b 3d 60 d4 23 bd 71 35 75 3f 3c 9e 25 be
       0.07582862 -0.03999746 0.9578467 -0.16173643
000050 e9 02 a5 3e 64 ef 00 3f 4e fd e3 3e 93 43 13 3f
       0.32228783 0.5036528 0.44529194 0.57524985
000060 d9 d8 4e 3f 52 d5 2f 3f 68 1b 7e 3f a4 75 2f 3f
       0.80799633 0.68684876 0.9926057 0.6853888
000070 fc d8 04 3f c0 d2 1c 3e 39 e3 cb 3e 0d bb 5b be
       0.5189359 0.1531477 0.39821795 -0.21458073
000080 cd 34 06 3f b0 5b f5 3e b6 02 31 3f ec bb 6f 3e
       0.5242432 0.47921515 0.6914476 0.2341153
000090 0d ae f2 3d ad fd 18 3f 2c b1 be be a3 a3 0f 3e
       0.11849604 0.5976208 -0.37244546 0.14027266
0000a0 7b 7e d7 3e 79 3b e4 3e 10 84 81 3e 82 5f 4e 3e
       0.42088684 0.44576624 0.25296068 0.20153621
0000b0 d9 82 17 3f ee bb 24 3f 09 ee cd bd 32 ee 3b 3f
       0.5918403 0.6434926 -0.10055167 0.7341033
0000c0 78 85 38 3f ff 66 7d bd d6 28 0b 3e df 8f d4 bd
       0.7207866 -0.061865803 0.13589796 -0.10379004
0000d0 14 93 01 3f bc 14 1c 3f aa 8f f8 3e 36 ef 06 3f
       0.5061505 0.6096914 0.48547107 0.52708757
0000e0 19 be f3 3e ac 95 e2 3e 62 1e fe be b8 09 3e 3e
       0.4760597 0.44254816 -0.49632555 0.18558395
0000f0 0f b2 e3 3d 3e e8 39 3f 96 c0 30 3f 2b 9a c2 3e
       0.11117946 0.7262 0.6904386 0.38008246
000100 3c a8 54 3e 3a dc be 3e e5 17 30 3f 30 cf 3e 3f
       0.20767301 0.37277395 0.6878646 0.74534893
000110 14 d6 40 3f d9 9b b9 3e a3 b9 97 be 3a fc 7d be
       0.7532666 0.36251715 -0.29633817 -0.24803248
000120 74 b1 9d 3f 58 ec 4d 3f aa 52 2a be 6a 8c b3 3e
       1.2319779 0.80438757 -0.16633096 0.35068065
000130 db 90 6c 3d 4e 17 8c 3e 05 81 1d 3f 99 91 7a 3e
       0.057755332 0.2736153 0.61524993 0.24469604
000140 66 6d 36 3e 79 75 c2 3e 18 4e 39 3e 6e 1c c0 3e
       0.1781517 0.3798025 0.18096197 0.3752169
000150 03 28 17 be 9d 7c 4e 3f 56 50 05 bd 12 42 23 3d
       -0.14761357 0.80658895 -0.032547317 0.03985793
000160 e1 e9 12 3f aa 36 5a 3f 73 d1 d7 3e 71 01 e9 3e
       0.5738812 0.8523966 0.42151985 0.45508912
000170 58 74 b4 3d bf e4 8e 3e 57 39 08 3f 24 c7 23 3f
       0.08811253 0.27908894 0.53212494 0.6397574
000180 5a 21 85 3f a9 92 1f 3f 18 f6 ee 3e 93 58 fe 3d
       1.0400803 0.6233316 0.4667213 0.12419238
000190 bc 7c 9b 3e 0e b2 20 bc 6c 88 69 3d 02 a3 03 3f
       0.30368602 -0.009808077 0.057014868 0.51420605
0001a0 f6 29 38 3f d6 55 3b 3f bb 2c 12 3f 9b a6 0e 3f
       0.7193903 0.7317785 0.57099503 0.5572297
0001b0 fa 7d c6 3d 67 c7 42 be d6 09 0b 3f cd 66 83 3f
       0.09691997 -0.19021378 0.54311883 1.0265747
0001c0 40 73 87 3f 3b 62 82 be 6e c9 5f 3e c0 39 a8 bd
       1.0582047 -0.2546557 0.21854183 -0.0821414
0001d0 fb 11 26 3f e9 6a 89 3f 67 eb 25 3f db e2 5e 3d
       0.64871186 1.0735751 0.6481232 0.054415565
0001e0 41 09 36 3f de 28 3c 3e a9 9a 7a 3f 77 92 b6 3e
       0.7110787 0.18374965 0.9789224 0.3565862
0001f0 36 3f 86 3e 11 87 8a 3e 6a 8c 17 3f a8 06 ef 3d
       0.262201 0.27056172 0.5919863 0.116711915

policy_layers.2.weight f4 [7, 128]
000000 32 62 03 40 74 a0 85 3f 66 db 5e 3f f5 28 a4 3f
       2.0528684 1.0439591 0.87053525 1.2824999
000010 87 17 63 3f eb 15 59 3f ed 6e 6f 3f d9 d6 9d 3f
       0.88707775 0.8479907 0.93528634 1.2331191
000020 f2 59 c6 3f 47 d0 03 40 53 f7 96 3f 66 99 ca 3f
       1.5496199 2.0595872 1.1794227 1.5828063
000030 70 94 bd 3f 63 35 fc 3f a3 57 5f 3f ae 8d 56 3f
       1.4810925 1.9703792 0.872431 0.83809936
000040 5f d0 80 3f 76 31 c1 3e 4f d7 3a 3f fd ee ff 3e
       1.006359 0.37733048 0.72984785 0.4998702
000050 be 47 17 3f 1a e3 f7 3f 9f fd 8e 3f 22 84 2c 3f
       0.59093845 1.9366181 1.1171149 0.6738912
000060 ac c0 53 3f 11 2d af 3f 9b a0 03 3f 69 4a e8 3f
       0.8271587 1.3685628 0.5141694 1.8147708
000070 b7 13 e3 3f d5 7c b8 3f a0 c2 94 3f 21 37 f9 3f
       1.7740391 1.4413096 1.1621895 1.9469949
000080 6b 56 c4 3f 4d 0e 05 40 63 ee b9 3f d1 4f 8b 3f
       1.5338873 2.0789979 1.4525875 1.0883733
000090 0b 6d ab 3e b1 5e 6f 3f eb 68 89 3f f2 0e bb 3f
       0.3348163 0.9350386 1.0735143 1.4613936
0000a0 9b c6 ce 3f bc 30 a4 3f fb 3e b3 3f b8 d4 c1 3f
       1.615436 1.2827373 1.4003595 1.5143042
0000b0 4c b4 86 3f 69 4f cf 3f 43 3e 89 3f bd e2 96 3f
       1.0523772 1.6196109 1.0722126 1.1787945
0000c0 14 91 b5 3f 2b 78 c1 3f 0a d3 b1 3f 80 87 d9 3f
       1.4184899 1.5114797 1.3892529 1.6994476
0000d0 f7 69 9a 3f cc ad 88 3f f9 bb c1 3f 1f b4 a7 3f
       1.2063588 1.0678039 1.513549 1.3101844
0000e0 94 8b 6b 3f cd c0 91 3f d4 48 d8 3f 04 37 d9 3f
       0.92009854 1.1386963 1.6897225 1.6969914
0000f0 09 fb a9 3f 10 45 b2 3f b8 8b 27 3f 79 fa ed 3f
       1.3279735 1.3927326 0.6544757 1.8592063
000100 31 f6 8e 3f a0 23 d3 3f 6b e5 5e 3f 90 34 b6 3f
       1.1168882 1.6495247 0.87068814 1.4234791
000110 da c3 d2 3f 38 4b c6 3f d7 6e b9 3f ce 45 da 3f
       1.6466019 1.5491705 1.4486951 1.7052553
000120 3c 86 ba 3f 13 3f 9e 3f 83 2e 04 40 79 a3 d8 3f
       1.4572215 1.2362999 2.0653389 1.6924888
000130 e5 13 84 3f 1c 2a 82 3f ca 23 99 3f 6b 51 c3 3f
       1.0318571 1.0169101 1.1964047 1.5259222
000140 6a 40 c4 3f b9 ab 84 3f bf 9b 03 40 cd f8 b1 3f
       1.5332158 1.0364906 2.056381 1.3904053
000150 5a b6 54 3f 5f c7 a5 3f ad 06 65 3f 27 86 d0 3f
       0.83090746 1.2951468 0.8946331 1.629094
000160 c8 ef 56 3f 88 11 90 3f bb 25 4d 3f a8 86 a8 3f
       0.8395963 1.125535 0.801357 1.3166094
000170 90 2a 0c 3f f9 85 a5 3f 70 ba d8 3f ea d9 a7 3f
       0.54752445 1.293151 1.6931896 1.3113377
000180 c2 e6 aa 3e c2 20 bb 3f 86 8d b5 3f 3d bf ee 3f
       0.3337918 1.4619372 1.4183815 1.8652111
000190 68 00 e5 3f f7 fa 00 40 66 d0 35 3f 5a c2 39 3f
       1.7890749 2.0153177 0.71021116 0.7256218
0001a0 34 dc 0c 3f cd 12 c6 3f ba 98 7c 3f 71 ed e9 3f
       0.55023503 1.5474488 0.9867054 1.8275586
0001b0 65 e8 f7 3f 7d 47 04 40 ec fa 7a 3f e4 b3 b6 3f
       1.9367796 2.0668633 0.98039126 1.4273648
0001c0 7a 80 84 3f ca 06 de 3e e0 d3 22 40 cc b1 e3 3f
       1.0351708 0.43364555 2.5441818 1.7788634
0001d0 8a 9c b3 3f e4 f2 5f 3f cb ed 6b 3f 44 b7 96 3f
       1.4032147 0.87479997 0.9215972 1.1774678
0001e0 0d c4 81 3f 07 30 d3 3f c3 3f 70 3f 96 be 43 3f
       1.0137955 1.6499032 0.9384729 0.76462686
0001f0 02 9f 94 3e 69 a3 90 3f 1a 01 d0 3f 48 a8 b5 3f
       0.29027563 1.1299869 1.6250336 1.419198
000200 e7 86 03 40 1c fd a8 3f 85 53 93 3f 17 47 c5 3f
       2.0551088 1.3202243 1.1509863 1.541232
000210 d8 a9 82 3f 32 41 0f 40 f7 18 94 3f e3 49 0a 40
       1.0208082 2.2383542 1.1570119 2.1607597
000220 57 bf ce 3f 7d e8 ee 3f d4 5b ab 3f a8 dc 08 40
       1.6152142 1.86647 1.3387399 2.1384678
000230 11 56 e6 3f b7 0d dd 3f af 23 12 40 32 83 4c 3f
       1.7995015 1.726981 2.283428 0.7988769
000240 2a 27 39 40 fe b6 af 3f 47 68 dc 3f 1e 61 f7 3f
       2.8930154 1.372772 1.7219323 1.9326513
000250 13 66 23 40 b5 29 00 40 a9 ee a8 3f aa 9c 38 3f
       2.553105 2.0025456 1.3197833 0.7211405
000260 40 a5 7d 3f a5 96 dc 3f ec de 19 3f 87 72 c9 3f
       0.99080276 1.7233473 0.60105777 1.5738076
000270 92 06 bc 3f 6d f2 26 3f a9 42 c7 3f fa b8 a2 3f
       1.4689505 0.6521366 1.5567218 1.27127
000280 40 6f 9f 3f 51 76 39 3f 70 54 9f 3f 84 eb 92 3f
       1.2455826 0.7244616 1.2447643 1.1478124
000290 33 e3 db 3f 5f a8 b8 3f ea 4b fc 3f c8 30 21 3f
       1.7178711 1.4426383 1.9710667 0.6296506
0002a0 be 84 50 3f 30 34 8f 3f 2a ad d9 3f 1f cf 03 40
       0.8145255 1.1187801 1.700597 2.0595167
0002b0 fe fb 66 3f d0 c3 83 3f 7b e6 36 40 e1 39 8f 3f
       0.9022826 1.0294132 2.8578174 1.1189538
0002c0 65 88 7c 3e 9b c5 0b 40 9f b9 f9 3f c9 d0 23 40
       0.24661405 2.1839359 1.9509772 2.5596182
0002d0 8d 76 dc 3f 8d b6 fa 3f cd 27 2a 40 99 93 1f 40
       1.7223679 1.958696 2.6586792 2.4933836
0002e0 29 62 a7 3f 28 af eb 3f 50 33 8e 3f ce 0e c2 3f
       1.3076831 1.8412828 1.1109409 1.5160768
0002f0 0c 97 8e 3f a8 17 bd 3f c2 03 69 3f 37 c0 96 3f
       1.1139846 1.4772844 0.9102136 1.1777409
000300 64 c9 00 40 6d f8 21 40 b2 9f b4 3f 82 1e 96 3f
       2.012292 2.5307877 1.4111235 1.172806
000310 e4 fa cb 3f b0 86 d8 3f 73 e7 b0 3f 18 10 f8 3e
       1.5935941 1.6916103 1.3820633 0.4844978
000320 e1 e5 91 3f 9c 71 ba 3f cc 45 41 40 6b 3d c5 3f
       1.1398278 1.4565921 3.019885 1.5409368
000330 41 65 66 3f 71 11 d2 3f 5a 28 83 3f b0 56 02 40
       0.8999825 1.6411573 1.0246689 2.036541
000340 48 8c a1 3f 29 29 b9 3f 03 f1 d4 3f 74 e3 c4 3f
       1.2620935 1.4465686 1.6636051 1.5381913
000350 67 48 04 40 64 9b 9e 3f 6e 05 02 40 3b 6d 04 40
       2.066919 1.2391171 2.0315814 2.069167
000360 87 2d 92 3f 72 29 ca 3f ae f7 bf 3f 5a ea a3 3f
       1.1420144 1.5793898 1.4997461 1.2805893
000370 cc fb 18 40 55 1e d4 3f c9 fe 2f 40 4f a9 05 3f
       2.3903685 1.6571757 2.7499259 0.5221147
000380 09 13 7e 3f fd 9f 03 40 5b 64 ce 3f 44 e0 ad 3f
       0.99247795 2.05664 1.6124376 1.3584065
000390 23 c5 d1 3f b1 c9 f4 3f 2e 83 a4 3f 5f 53 77 3f
       1.6388286 1.9124051 1.2852533 0.9661159
0003a0 c4 d9 58 3f 62 7d ec 3f dc 0e 99 3f 74 02 af 3f
       0.84707284 1.8475764 1.195766 1.3672624
0003b0 f5 07 89 3f 13 56 d1 3f 4c c4 c5 3f 2f c3 14 3f
       1.0705553 1.6354393 1.545053 0.58110327
0003c0 52 89 b7 3f c6 4c b7 3f 49 e3 ea 3f 8a b6 18 40
       1.4338782 1.4320304 1.8350612 2.3861413
0003d0 2e b7 85 3f 27 67 55 3f ca 43 ac 3f b3 d4 4c 3f
       1.0446527 0.83360523 1.3458188 0.80012053
0003e0 7c 02 ad 3f 80 29 04 40 14 6c 18 3f 7d b6 f9 3f
       1.3516383 2.065033 0.59539914 1.9508816
0003f0 eb ad c9 3f 68 7b 1f 40 c8 86 88 3f 39 26 9e 3f
       1.57562 2.4919071 1.0666132 1.2355415

policy_layers.2.bias f4 [7]
000000 49 05 4f 3f 27 4b 12 3f ee 8d 0f 3f 58 7a f5 3e
       0.8086744 0.57145923 0.5607594 0.47944903
000010 8b 48 87 3f f3 4f 42 3f 1f 1f dc 3f
       1.0569013 0.7590324 1.7196997

value_layers.0.weight f4 [128, 128]
000000 50 b4 a5 bd 17 68 c9 be 9a ac 0f be b7 b5 85 bd
       -0.080910325 -0.39337227 -0.14030686 -0.065288
000010 3c d2 56 be f9 3f b3 3c 7b 08 83 bd 8c 77 45 bb
       -0.20978636 0.02188109 -0.06398102 -0.003013107
000020 86 11 02 bd e9 ed 73 3e 84 a0 b0 be f8 14 a0 bd
       -0.031754993 0.23821224 -0.34497464 -0.078164995
000030 82 ae 86 be e4 69 b3 be be 5f 1e 3e f2 6e 94 3c
       -0.26305014 -0.35041726 0.1546621 0.01811931
000040 78 81 20 bd 4d 3c e0 3d 60 fd 53 bf 25 8d 41 be
       -0.03918597 0.109490015 -0.82808495 -0.18901499
000050 ba 75 b3 be ab 4b b0 3e 7d 1b a3 bd 2e f1 bc bc
       -0.35050756 0.3443273 -0.07964227 -0.023064222
000060 c6 48 c4 bb 0c f3 0c bf f1 af 93 3d b8 93 59 bd
       -0.0059901206 -0.5505836 0.072112925 -0.05311939
000070 e8 cb 67 3d 38 fe b8 3d 3c 91 02 3d b2 2c 48 bf
       0.056590945 0.090328634 0.031876788 -0.781932
000080 cd 08 5d 3e 45 c1 f5 bd 53 64 14 bf b2 7a 14 3e
       0.21585388 -0.11999754 -0.5796558 0.1449993
000090 fe 9d 02 bf 4a 4d 06 3d 1a 4a 6a 3e ff 71 7e 3e
       -0.51022327 0.032788552 0.2287983 0.24848174
0000a0 95 bf 89 bd a2 78 80 be c4 87 f2 bd 63 04 18 bf
       -0.067259945 -0.25092036 -0.118423015 -0.59381694
0000b0 f6 f7 f5 be e3 d8 9e bd 48 68 fe be 6f bb d0 be
       -0.48040742 -0.077562116 -0.49688935 -0.40768
0000c0 2a d2 ac bb 4d c0 ff 3c 48 60 2e be 86 12 51 be
       -0.005274077 0.031219626 -0.17028916 -0.20417222
0000d0 c0 8d da be 87 41 94 3d cc e8 65 bc f2 11 b6 be
       -0.42686272 0.07239061 -0.014032554 -0.35560566
0000e0 45 fd 89 3d c8 3f ff 3c 78 d0 a2 3c f2 0c 18 c0
       0.067377605 0.031158343 0.019874796 -2.37579
0000f0 cf 72 e0 bd a2 8d c5 bb ed 96 06 bf 62 8b 84 be
       -0.10959398 -0.006028847 -0.52574044 -0.2588759
000100 d3 b8 22 3e d9 59 87 be 72 c4 f2 bb 64 93 0e 3e
       0.15890817 -0.26435736 -0.007408672 0.13923413
000110 f9 d3 23 be 82 fd ab 3e 22 97 43 be 34 c3 86 bf
       -0.1599883 0.3359185 -0.19100621 -1.0528321
000120 0b 9c d0 be 88 08 88 3d a2 4c c3 3d eb 80 c7 bd
       -0.4074405 0.06642252 0.09536101 -0.09741386
000130 44 32 de bd 4b 25 35 3d b2 56 b4 bd df 35 64 bd
       -0.10849431 0.04422502 -0.08805598 -0.055715438
000140 fe 74 3c be 4c 5f 20 bf b6 63 88 be 10 61 8d 3e
       -0.18404004 -0.6264541 -0.26638573 0.27613115
000150 eb e8 fa bd 96 dc b0 3e da c1 16 be 7c 3a 1a 3d
       -0.12251457 0.34543294 -0.14722386 0.03765343
000160 89 c9 0f bd 6a ec bd 3d 64 9e 81 3d 71 fb 21 be
       -0.03510431 0.09273608 0.06329039 -0.15818574
000170 b9 8b c1 3e 9a eb 28 bd d2 93 96 3e c9 4d 0a 3d
       0.37801912 -0.041240312 0.29409653 0.033765588
000180 ef e4 08 be ab be c7 bd 24 f7 1e be 63 12 47 be
       -0.13368581 -0.09753164 -0.15523964 -0.19440608
000190 cc 32 ff 3e be 40 83 be 1c eb 32 be 5e 0b 95 3c
       0.49843442 -0.25635332 -0.174725 0.018193897
0001a0 ea a8 0b 3d d5 05 4f be 4e 3b 3a bf 05 ff d8 3d
       0.034096636 -0.20217068 -0.7274674 0.10595516
0001b0 65 3d 0d 3e 8d e7 99 be 9f 63 29 be 43 64 a4 3d
       0.13792951 -0.30059472 -0.16541909 0.08026936
0001c0 a5 4c f3 3c 9c 39 18 be 64 b2 2e be 95 0a cc 3e
       0.029699633 -0.14865726 -0.17060238 0.39851823
0001d0 37 f1 09 3e 50 8d 1b 3f fb 29 e4 3d 0f 0a 7c be
       0.13470922 0.607625 0.1114082 -0.24613212
0001e0 34 75 f4 be 5f 11 0b be 83 fd 8e 3e 54 cf a5 3d
       -0.4774567 -0.13580845 0.2792779 0.08096185
0001f0 4a 40 9e bd a9 e2 eb bd 7a 93 ae 3d 22 b8 43 be
       -0.07727106 -0.11517841 0.08524223 -0.1911321
000200 bc 26 df bc f6 c7 cd 3d 4a 7d c5 bf d8 76 50 3c
       -0.02724015 0.10047905 -1.542886 0.012723647
000210 0c 24 35 bc 05 33 6a bd b6 a8 16 bf 02 5a 83 bd
       -0.0110559575 -0.057177562 -0.5885118 -0.06413652
000220 b3 fd 60 be 97 59 84 be d9 eb 5e be 6a 89 5e 3c
       -0.21971779 -0.25849602 -0.21769656 0.013582567
000230 cc d8 c0 bd 5f 94 8f bd 14 ee 59 bf 78 de e5 be
       -0.09416351 -0.070107214 -0.85128903 -0.44896293
000240 38 35 88 bc 0a 06 04 3e 28 3d 9f 3e 03 79 a5 bd
       -0.01662694 0.12892929 0.31101346 -0.08079722
000250 f3 5a 44 bf 9c 4d d2 be cb bd 9f 3c a2 3c 21 be
       -0.7670128 -0.41074836 0.01949968 -0.15745786
000260 66 f9 25 3d 9a 9c 16 3e 9f 22 6d 3d 3a 90 59 bd
       0.040521048 0.14708176 0.057894345 -0.05311606
000270 8e 91 21 bf e8 c0 ae 3e 15 22 17 3c 01 df d9 3d
       -0.63112724 0.3413155 0.009224434 0.10638238
000280 d6 4e 39 bb 6d 50 c1 bd 0e 11 40 bd ff 10 3f 3e
       -0.002827575 -0.09439168 -0.046891265 0.18658827
000290 65 79 8f be e8 40 14 bd 2e ef 32 be 0e 02 9b be
       -0.28022304 -0.036194712 -0.17474052 -0.30275005
0002a0 01 da d6 be 99 e7 20 bf 86 6b a0 bc c7 57 de be
       -0.419632 -0.6285339 -0.019582521 -0.43426344
0002b0 78 9a fb be 6e 48 c6 3e 71 f6 d3 be 6a 25 8b be
       -0.49141288 0.38727134 -0.41398957 -0.27176982
0002c0 d2 19 35 3d b0 00 77 3d 15 c3 f9 bd b8 6f 32 be
       0.044214077 0.06030339 -0.12195412 -0.1742543
0002d0 88 52 88 3c 16 a2 8e bd fa e5 53 3e 12 6c fd 3d
       0.016640916 -0.06964509 0.20693198 0.123741284
0002e0 ea b8 29 be b2 cd f0 3e ee 1d 68 be 21 0c 96 be
       -0.16574445 0.47031933 -0.22667667 -0.2930613
0002f0 9a f2 be be c1 69 0a be 57 24 c3 bc aa 89 80 bd
       -0.37294465 -0.13516904 -0.02382104 -0.06276257
000300 5d 06 a3 be dd b7 12 be be d6 96 bd 8c d7 ba bc
       -0.31840792 -0.14327951 -0.073651776 -0.022807859
000310 7e 20 9a be 29 45 50 3c d7 1d bb bf b4 17 80 be
       -0.30102915 0.012711802 -1.4618481 -0.25018084
000320 42 03 32 bd b8 a2 b5 3d b7 79 88 3e a0 07 c1 3d
       -0.04346014 0.08868927 0.2665536 0.094252825
000330 30 c4 f4 bd 6f 77 e9 3d 42 c0 9c bd 56 5a b5 3d
       -0.11951482 0.11399733 -0.07653858 0.08855121
000340 60 3c 0c bf 7c 0d d2 3c 9a f3 e2 be 23 30 30 be
       -0.54779625 0.025641195 -0.44326478 -0.17205863
000350 ee 06 bb 3c e8 73 9c be d4 7b 6e 3a 45 90 f9 be
       0.022830453 -0.3055718 0.00090974313 -0.4874288
000360 c0 33 ce be f2 a6 28 3b 5c b1 9e be 75 ed f5 bd
       -0.40273857 0.0025734273 -0.3099469 -0.12008182
000370 0b 6b b8 3e e9 74 60 bd e4 f4 91 be 67 55 8d bd
       0.36019167 -0.054798994 -0.2850715 -0.06901055
000380 0c 9f 58 be a5 c2 26 bd 96 d1 a9 bd 6c fd d4 bd
       -0.21154422 -0.04071297 -0.082919285 -0.10399899
000390 c5 eb fa 3d 2e 39 6e be cc 68 17 3e f2 24 19 bd
       0.12252001 -0.23264 0.1478607 -0.03738875
0003a0 bf 7a 12 be c2 59 0f 3e 18 24 cb bd b2 97 cf 3e
       -0.14304636 0.13999084 -0.09918994 0.40545422
0003b0 f7 a2 cf be 42 a1 04 3e d1 70 d5 bd 0a 14 2d 3d
       -0.4055402 0.1295214 -0.10421909 0.04225544
0003c0 f8 ea 41 3d 18 67 9f 3c 02 ac cb be 7e 59 ac be
       0.047343224 0.019458339 -0.3977967 -0.33662027
0003d0 dd e3 90 3d 21 6c 07 bf 19 2c 41 3e 9f 93 89 3e
       0.070747115 -0.52899367 0.18864478 0.26870438
0003e0 88 1f af 3c 38 d7 a1 3e 2b ce ff be 40 9a a0 3c
       0.02137734 0.3160951 -0.4996198 0.019604802
0003f0 97 74 9b 3d d2 ee 2f bd fa 9d ba 3d 9a 20 6d be
       0.07590597 -0.042952366 0.09112163 -0.23156968

value_layers.0.bias f4 [128]
000000 69 c5 8c bf 2d 35 95 3e 72 32 00 3e ca e0 b7 3d
       -1.0997745 0.29142132 0.12519243 0.08978422
000010 1e e5 90 3f ed 48 f5 be d2 c8 9e 3e 36 39 44 be
       1.1319921 -0.479072 0.3101259 -0.19162449
000020 33 90 91 be 36 f8 8d be 09 8b 1a be 09 2a de 3e
       -0.28430328 -0.27728432 -0.150921 0.43391445
000030 85 43 53 bf 45 6d 91 bf 40 52 ee 3e 0d a6 57 be
       -0.825249 -1.1361471 0.46547127 -0.21059437
000040 d0 6d 54 3e 01 59 ea be 9a f3 52 3f 64 04 71 bd
       0.20745015 -0.4577103 0.82402956 -0.058842078
000050 e4 5b 1b 3f 22 01 22 be 4d 96 81 3e 4c 74 02 bf
       0.6068709 -0.15820745 0.25309983 -0.50958705
000060 4e f8 ed bd 07 d7 aa 3e d6 a8 38 be b7 4a e2 bd
       -0.11619626 0.33367178 -0.18033156 -0.11049407
000070 a0 41 8d 3e c3 ce b7 3f 3a 8d d8 bc 72 a6 9b 3f
       0.2758913 1.4359974 -0.02643453 1.216017
000080 3f 6f 8d be bc 05 28 40 4e a2 7e 3d 9d 33 65 bd
       -0.27623937 2.62535 0.062166505 -0.055957425
000090 31 d2 93 3f e9 99 ec bd d2 39 b3 bd 0e 0b 57 40
       1.154852 -0.115527935 -0.08751263 3.3600497
0000a0 eb 21 59 bf 4c fa 99 be 66 11 8a bf 16 e0 73 3e
       -0.8481738 -0.30073774 -1.078656 0.23815951
0000b0 71 52 04 40 92 d8 a1 3f af 6d 6b 40 7d 21 bc be
       2.0675318 1.2644217 3.6785696 -0.367443
0000c0 57 3a 42 be b6 e8 83 3e 26 8e 81 3d 39 1e 11 be
       -0.18967567 0.25763482 0.06325941 -0.14171685
0000d0 2a 6f 34 bf 6d b2 26 be 1e d6 bb bd ec 28 7e 3e
       -0.7048212 -0.16279002 -0.09171699 0.24820298
0000e0 f5 9b 1f bf 1f aa 68 be 4f d3 e1 bd 11 3a a8 be
       -0.62347347 -0.22721146 -0.11026632 -0.328568
0000f0 f3 87 b4 be ca b7 9a bd ad 39 cf be 16 64 a2 bf
       -0.3525997 -0.07554586 -0.4047369 -1.2686794
000100 67 79 0f be 84 29 6e be c4 5b 87 3f f8 2f 1c bf
       -0.14011155 -0.23258024 1.057488 -0.61010695
000110 44 67 02 bf f9 4c 20 bf c9 5a e1 be 1d ec 41 40
       -0.5093882 -0.6261745 -0.44014576 3.0300362
000120 34 4e e7 be 02 74 3f 40 6b 23 1c bf e9 ad 46 3d
       -0.45176852 2.9914556 -0.60991544 0.048505697
000130 b5 69 52 bf 3e 20 96 3e 31 27 96 be f6 bd 39 be
       -0.82192546 0.29321474 -0.29326776 -0.1813887
000140 2d 90 98 3d c2 86 07 3f 01 09 5d 3d 43 40 3b be
       0.07449374 0.5294 0.053963665 -0.18286233
000150 af 70 c5 be e3 2a db 3f a2 8c 08 3f 3b bf 42 be
       -0.38562533 1.7122463 0.5333959 -0.19018261
000160 24 b6 9e bd b3 b8 cf bf d0 f2 36 bf 8e 0e 32 bf
       -0.07749584 -1.6228241 -0.7146425 -0.6955346
000170 79 df d1 be 86 8c 48 3f b9 94 5a be 80 fc 63 3f
       -0.4099081 0.7833942 -0.21345796 0.8905716
000180 e5 cb 95 3f d7 be 86 be 18 82 f0 3e 6c f3 cf be
       1.1702849 -0.26317474 0.46974254 -0.40615404
000190 f0 6a b6 be e2 36 14 3f c3 1a 8e 3f 26 99 a5 be
       -0.35628462 0.57896245 1.1101917 -0.32343405
0001a0 55 0e fc be f3 64 9f 3f 58 43 64 bf 0d 94 bd 3f
       -0.49229684 1.2452682 -0.8916526 1.4810807
0001b0 5a 4b c4 3f c5 f0 21 bc b5 b6 ac 3f d0 de 2b 3f
       1.5335495 -0.009884064 1.3493258 0.6713686
0001c0 42 e6 5e bf 3a 64 17 3f d5 d9 48 bf b0 cd 02 40
       -0.87070096 0.5913731 -0.78457385 2.0438042
0001d0 2a b2 35 bf a0 d8 71 3b 31 f4 c4 3d c3 91 83 bf
       -0.7097498 0.00369028 0.09616888 -1.0278858
0001e0 be e7 9c be 1e 0e 07 bf 86 32 a6 be b0 d6 c5 bf
       -0.30645555 -0.52755916 -0.3246042 -1.5456142
0001f0 00 25 93 be 45 2c 5a bf e8 60 ab 3f 85 4a 62 3f
       -0.28739166 -0.852238 1.3388948 0.8839496
