Agent2_Congkak_PolicyGradient.pt (torch, 80903 bytes, 6 tensors)

layers.0.weight f4 [128, 16]
000000 97 6f 44 be 64 04 2a 3e 74 e3 48 be 0d 55 3b be
       -0.19183193 0.16603237 -0.19618016 -0.18294163
000010 4c 75 7d 3e 8d d8 a4 bc e4 f1 53 3e 70 f0 15 be
       0.24751776 -0.02012279 0.20697743 -0.14642501
000020 94 32 ca bc ec 54 a4 bd 65 51 51 be 0d af fb 3d
       -0.02468232 -0.0802401 -0.20441206 0.12289248
000030 53 de 51 3e d5 5a 27 be 76 41 17 be ee 65 d3 3d
       0.20494966 -0.16343243 -0.14771065 0.10322176
000040 46 88 cf 3d 61 a5 0d be 0c c7 8d 3d d7 23 92 bd
       0.10133414 -0.13832618 0.06922731 -0.07135742
000050 94 18 cf bd 53 0e 80 3e 7d cc 55 3e 3e 32 ad bd
       -0.1011211 0.2501093 0.20878787 -0.084568486
000060 76 e9 77 be 9d f5 de bd c0 0b 2a 3e 22 b6 98 3d
       -0.24210152 -0.10886691 0.16606045 0.07456614
000070 12 28 01 3e 63 be 7b be 3f 70 51 3e 21 a2 43 bd
       0.12612942 -0.24584346 0.20452975 -0.04776204
000080 00 c0 e4 bc 3f 1b bb bd 7f d1 bf 3d 4e 85 21 3e
       -0.027923584 -0.09136056 0.0936613 0.15773508
000090 d8 80 cd 3c 58 40 25 3d f2 9f c0 3d 93 f4 02 3e
       0.025085852 0.040344566 0.09405507 0.1278861
0000a0 42 91 9f be 97 39 ac 3d 71 22 33 be 1e cd e2 3b
       -0.3116551 0.08409422 -0.17493607 0.0069214245
0000b0 d0 38 e3 bd 36 e9 12 bc 7a 12 87 3d 02 6a 04 be
       -0.110948205 -0.008966735 0.06595321 -0.12931064
0000c0 fe fa 65 3d a1 ae 5f 3c 88 77 ef 3c 3e c9 13 be
       0.056147568 0.013652475 0.029231802 -0.14432237
0000d0 49 37 ba 3e 9e bb 5f 3c 68 05 f3 bd 33 d0 7b bd
       0.36370304 0.013655571 -0.118662655 -0.06147785
0000e0 ca e4 70 3d 95 f5 dc 3d a4 1e 7a 3e 87 58 aa 3c
       0.05881194 0.107890286 0.24425751 0.020794166
0000f0 03 04 cd 3d c5 bc 26 be 50 7f 39 3e dc 1c 5d bd
       0.10010531 -0.16282947 0.18114972 -0.0539826
000100 b7 26 b4 be 5b 87 07 3e ca 58 3e 3e 32 70 ae 3d
       -0.35185787 0.13235228 0.18588558 0.08517493
000110 c9 21 06 be 8b e8 b3 3c c7 27 00 3e 62 07 82 bc
       -0.13098826 0.021961471 0.12515174 -0.015872661
000120 ed 41 fd bc 92 55 16 be 13 ac 1d be 2f 36 67 3d
       -0.030915225 -0.1468108 -0.15397672 0.056448158
000130 ba 93 50 bd b3 37 6d be 69 6f 3f be 78 9d 00 3e
       -0.050922133 -0.23165779 -0.18694843 0.1256007
000140 a9 74 0e bc 9c 8f 6f 3e 25 da da 3d 2c b6 ac bd
       -0.008694806 0.23394626 0.10686139 -0.08433184
000150 8c 17 77 bd 14 c2 2c be fd 4a e6 3b ba 99 73 be
       -0.06032519 -0.1687091 0.0070279823 -0.23789111
000160 25 fe 58 be 32 4a b5 bd 7b e7 69 3e 12 f3 2e bd
       -0.21190698 -0.08852042 0.22842209 -0.04271228
000170 b1 d5 92 bd d0 0a 8a 3b f9 c4 f3 3d 67 cb b1 3d
       -0.07169665 0.0042127147 0.11902804 0.08681374
000180 33 1d 81 3d 7c 2a 08 be 95 43 6a 3e f0 af 8e 3d
       0.063043974 -0.13297457 0.22877343 0.06967151
000190 d0 cc bb 3d df 3e 65 3e 18 19 bc bd 90 b4 09 3e
       0.09169924 0.22387265 -0.09184474 0.13447785
0001a0 ea 18 a6 3d 85 98 8c 3c 92 c3 9a 3e 48 19 57 3e
       0.08110221 0.01716257 0.30227333 0.21005738
0001b0 41 85 c4 bd 69 40 49 3d 77 6f 3d be 48 4e cd bc
       -0.09595729 0.049133692 -0.18499552 -0.025061741
0001c0 4a 6f b7 3d 79 bd 2d be a5 fd f0 be 5b 19 58 be
       0.089567736 -0.1696681 -0.47068515 -0.21103422
0001d0 b7 aa ea bd 43 47 b0 3d 3e 5a 96 3e 6c 24 79 bd
       -0.114583425 0.08607342 0.29365724 -0.06082575
0001e0 69 97 c6 bd 39 05 32 3e d5 98 bd bc 10 a9 0b 3e
       -0.09696848 0.17384805 -0.023144165 0.13638711
0001f0 d0 c3 2a 3e 4b b9 87 bd 80 fd 44 be 3d 82 95 3d
       0.16676259 -0.06627139 -0.19237328 0.073002316
000200 bb 21 39 be cb 82 31 3c 8e 18 af 3d e3 9d 23 3e
       -0.18079273 0.010834406 0.08549605 0.15978198
000210 80 6f 53 3d 1d 57 0f be 44 2d 57 3d 7c 5a 82 3e
       0.051620007 -0.13998075 0.052533403 0.2545966
000220 fc f6 99 3d d6 90 d4 bd 3e 40 d2 bd 8f c2 54 3d
       0.07517812 -0.10379188 -0.102661595 0.051943358
000230 c6 e2 34 3e 36 28 13 be 6e 7e e5 bd 4b 28 3b be
       0.17664632 -0.14370808 -0.11205755 -0.1827709
000240 d3 93 09 3d fc 13 97 3c ea 34 9f 3e 07 80 36 bc
       0.03358824 0.018442146 0.31095058 -0.011138923
000250 11 9d 00 be fc f8 27 be 4e fc 4b be 1e a2 8e be
       -0.12559916 -0.16403574 -0.19920465 -0.2785806
000260 fb 81 a6 bd 99 49 25 3e 65 fd de 3d 36 4f ac 3d
       -0.081302606 0.16141357 0.10888175 0.08413546
000270 0f 09 95 3d 53 ee cd bd b6 72 19 be 6b 7f ac bc
       0.072771184 -0.10055222 -0.14985165 -0.021056851
000280 b7 e8 10 be 3c 18 24 3d f8 7b 37 be d3 7a 6a be
       -0.14151274 0.040062174 -0.17918384 -0.22898416
000290 07 6f 7f 3e 73 91 33 be a3 ee 01 3e 0a 68 32 3d
       0.24944697 -0.17535953 0.12688689 0.04355625
0002a0 42 bd cc bd dc 83 12 3e 4c 82 93 3e cc bf 81 3d
       -0.099970356 0.14308113 0.28810346 0.063354105
0002b0 e1 45 32 be 48 56 09 be ba 79 e7 bd 91 2d fd 3c
       -0.17409469 -0.1341182 -0.113025144 0.030905517
0002c0 fb 22 72 3d 82 45 22 bf d3 64 6b be e2 5b 20 bd
       0.05911539 -0.6338731 -0.2298768 -0.039150126
0002d0 ed fd 82 bb 28 30 1b bf fa 43 00 be 15 21 1e 3e
       -0.0039975555 -0.60620356 -0.12525931 0.15442307
0002e0 42 9c 8f bc 22 b7 4a 3c f4 45 ab bc 62 a3 c8 bd
       -0.017530564 0.012372764 -0.02090738 -0.09796788
0002f0 41 35 87 3d 9b 36 1a bd c6 c9 1e bd 56 e3 9d bd
       0.06601954 -0.037649732 -0.038766645 -0.077093765
000300 7d e9 a3 bc 66 80 fd bd f6 bc 54 bc ab 90 8d 3e
       -0.020008797 -0.12378006 -0.012984505 0.27649435
000310 80 67 f0 3d 37 6c 9b 3c 7b 94 9b 3d f6 17 5c 3d
       0.11738491 0.0189725 0.0759668 0.05373379
000320 15 d1 a1 bd b9 5d e5 bd a5 cf 6a be e8 5d 2b be
       -0.07901207 -0.11199517 -0.22930773 -0.16735041
000330 fb aa 60 3e 51 d0 85 be c3 69 7b bc 6e 8d 46 be
       0.21940224 -0.26135495 -0.01534504 -0.19389889
000340 d0 db fd 3d b1 43 30 be c1 c3 09 3e 0c 4b 56 bd
       0.123954415 -0.17213322 0.1345358 -0.052317664
000350 ba c8 34 3e 45 02 bd 3d 1e 55 a3 be a6 94 21 3e
       0.17654696 0.092289485 -0.31900877 0.15779361
000360 2b 62 c1 3d bf 29 eb bd b0 a5 85 bd 85 59 a8 3d
       0.09442552 -0.11482572 -0.06525743 0.082201995
000370 ba ae 13 3e e5 7f 50 3d 12 7f 91 3e a0 a1 d4 3d
       0.14422122 0.05090322 0.2841726 0.1038239
000380 b0 2d a3 bc ac 07 d0 bc 08 1d 60 3e 45 12 4b 3e
       -0.019919246 -0.025394283 0.21886075 0.19831188
000390 62 00 b2 be ce f7 ae 3b a1 5c 93 3e e6 5d 32 bd
       -0.34765917 0.005339599 0.28781608 -0.04354658
0003a0 ac 0a 96 be 60 69 93 be 1b 3a cf 3d dc 2b 23 be
       -0.29305017 -0.28791332 0.101185046 -0.159347
0003b0 0e d5 df 3c bb b9 60 3e 96 20 29 be 75 2a 38 bd
       0.027323272 0.2194585 -0.16516337 -0.044962365
0003c0 e6 08 22 be e2 b9 0c be 13 3e d6 bc 3a 0b 5d 3d
       -0.15823707 -0.13742784 -0.026152646 0.053965785
0003d0 20 f4 88 3d c1 cd 7a 3e f4 91 a4 3e 97 2f 9b 3d
       0.06687188 0.24492551 0.32142603 0.075774364
0003e0 0e 4c 66 be f1 9b 0b 3e f8 02 16 3d 5e e9 fc 3d
       -0.2248995 0.13633706 0.036623925 0.12349199
0003f0 bf 12 85 bd 83 8e ad bd c2 ed 92 be 41 c9 12 be
       -0.06497716 -0.084744476 -0.2869702 -0.14334585

layers.0.bias f4 [128]
000000 54 6f 6d 3e 59 63 23 3e 43 67 72 3e 41 51 74 be
       0.23187 0.15955867 0.23672204 -0.23859121
000010 2a 93 73 3e 6d 68 56 be 2e f1 de 3d 05 5c 19 be
       0.23786607 -0.20938273 0.10885845 -0.14976509
000020 00 cc ea bd b1 9a 67 3e cd 1a 5f 3e 76 db 3c be
       -0.11464691 0.22617604 0.21787567 -0.18443093
000030 3a aa d2 bd 1e 3e ed bd fb 75 09 bd f2 08 7a 3e
       -0.102863744 -0.115841135 -0.03355978 0.24417475
000040 3c 15 34 3d da cc 32 be a2 59 a0 bb ba f1 6f 3e
       0.043965563 -0.17460957 -0.0048934976 0.23432055
000050 b6 65 62 be a1 db f6 3d 11 e3 87 3d c6 67 12 be
       -0.22109112 0.1205361 0.06635106 -0.14297399
000060 06 4a 6f be 4d b9 0b 3e 78 99 81 3e 78 f1 32 3e
       -0.23368081 0.13644905 0.253124 0.17474926
000070 90 4f ef 3d 75 d5 8e 3d 8b d5 3c 3e c2 09 88 bc
       0.11685097 0.069743074 0.18440835 -0.016606215
000080 c4 37 f0 3d 73 a9 8f 3d 3d 7a ec 3d de ba 42 3d
       0.117293864 0.07014742 0.115467526 0.04754149
000090 48 c1 60 bc 2b 46 36 bd 97 26 35 3e 72 74 df 3d
       -0.013717957 -0.04450051 0.17690502 0.10910882
0000a0 7a 0c ad bd fa 51 29 bc a1 f1 75 be 15 b6 91 be
       -0.08449645 -0.010334486 -0.24017955 -0.2845923
0000b0 28 d1 e5 3d 51 ac c1 3c f5 31 3d 3d 5a 15 64 3e
       0.11221534 0.023641737 0.04619022 0.2227377
0000c0 42 5b 84 3d 55 31 02 3e df dc a9 bd 25 10 06 3e
       0.064627185 0.12714131 -0.08294081 0.13092096
0000d0 31 31 65 be fe 82 45 3e f5 d1 3b 3e dc 71 4c bb
       -0.22382046 0.19288251 0.18341811 -0.0031195795
0000e0 35 c8 2c 3e 99 9e 38 bd e6 88 27 bd 84 14 95 3d
       0.16873248 -0.045073126 -0.04090204 0.07279304
0000f0 c9 5b 46 be ea 3c 3b be ef 8b dc bd a7 f5 83 3d
       -0.19370951 -0.18284956 -0.10768878 0.06443339
000100 dc d6 0c be ec 0f 33 be 8b 93 2a bc f8 07 03 3e
       -0.13753837 -0.17486542 -0.010411154 0.12796009
000110 27 a2 43 be 05 fd 56 3e a7 f3 b8 bb 69 0f 32 bd
       -0.19104825 0.20994957 -0.00564428 -0.043471728
000120 6d f9 21 be d4 a1 92 3d 7a 9d 2d be 37 41 7c 3e
       -0.15817805 0.071597725 -0.16954604 0.24634252
000130 54 b0 a0 bd 14 61 af bc 91 1f 25 bc 1c 4c 75 3e
       -0.07846132 -0.021408595 -0.010078327 0.23954815
000140 6f 20 78 3e 6c c6 28 be 9e 8f 33 3e cd cc 5d be
       0.24231122 -0.16481942 0.17535254 -0.21660157
000150 ae fe f9 bb d8 6f 65 3e 9d 7e 81 be f9 37 0a 3e
       -0.007629237 0.22405946 -0.2529191 0.13497914
000160 cb 2e 0a 3d de 08 e3 3d d4 f9 8e be 31 52 18 3d
       0.03373603 0.11085676 -0.2792498 0.03718776
000170 f9 26 4e be 57 24 37 be f6 53 4d be ce b1 ec 3b
       -0.20132054 -0.17884956 -0.2005156 0.0072233444
000180 14 27 06 be 3e 0b 66 3e b6 97 be 3c aa a7 24 3b
       -0.13100845 0.22465226 0.0232657 0.002512435
000190 fc 40 e2 3b 28 fc fc 3d 6e 26 62 be ac d1 5f be
       0.0069047194 0.123527825 -0.22084972 -0.21857327
0001a0 c0 fb e9 bd 66 f6 15 be 4d d4 90 bd 62 c7 8d bd
       -0.114249706 -0.14644775 -0.07071743 -0.06922795
0001b0 1f 83 04 be c5 4e 52 bd 27 0b 6f be 35 44 4a bd
       -0.12940644 -0.05134465 -0.23344098 -0.049381454
0001c0 ae e1 62 3e a0 cd 15 be 4a 0c b7 3d ed 49 10 be
       0.22156402 -0.14629221 0.08937891 -0.140907
0001d0 48 1e 0e 3d 43 2d 03 3e 1e 0c 4e 3e 8b e9 25 3e
       0.034696847 0.12810235 0.2012181 0.16202371
0001e0 4d 50 2a bd 0c b1 d7 bc 08 2f 52 be e9 02 16 be
       -0.041580487 -0.02632954 -0.20525753 -0.14649548
0001f0 59 60 62 3e 94 ca c8 3c 39 bd 89 bc fa bd 31 3e
       0.22107066 0.02451066 -0.016813861 0.17357627

layers.2.weight f4 [128, 128]
000000 af 50 af bd 5e 74 0f bd 0f 06 6d 3d c0 fb ce bc
       -0.08560311 -0.035023086 0.057867106 -0.025266528
000010 83 b7 0c 3d 51 ca 83 3d bc 0b 4e bd 74 61 90 bd
       0.034354698 0.06435073 -0.05030416 -0.07049838
000020 74 ac 83 bd d8 18 73 3d a4 05 49 3b 85 18 88 3c
       -0.06429377 0.059349865 0.0030673528 0.016613254
000030 73 89 12 3d 76 b9 53 bc 99 ee 71 3d 1b 29 1f bd
       0.035775613 -0.012922635 0.059065435 -0.03885756
000040 77 6f 55 3c e0 b4 a6 bd 6a df 6d 3d 59 2c fe 3c
       0.013027064 -0.08139968 0.058074392 0.031027006
000050 ce 32 bd bc d9 ff 37 3d cd 59 6c bd 62 27 92 bc
       -0.023095515 0.04492173 -0.05770283 -0.017841045
000060 af 1b a0 3d 8a 75 73 3d 68 32 a7 3d 0d 2a a9 bd
       0.0781778 0.059438266 0.08163911 -0.08259974
000070 6a 2a 0b bd be 8f 9a bd ce f0 5d bd b2 9c 8b bc
       -0.033975996 -0.07546948 -0.054184727 -0.017042492
000080 e4 12 8d bd c9 1d 2d 3d 92 c7 15 bd b5 72 f3 3c
       -0.06888369 0.042264733 -0.03656728 0.029717783
000090 c9 9d a2 3c 74 7e 1b 3d 81 d4 1a 3d a3 90 52 bd
       0.019850628 0.037962392 0.037800316 -0.051407468
0000a0 c9 d6 83 bd 51 02 12 3d 0e 1e 1f 3d 99 3e 0e 3d
       -0.064374514 0.03564674 0.03884702 0.034727667
0000b0 a9 7e 22 bd 06 94 dc bc 4f 9d 87 3d 2e 77 9a 3c
       -0.039671574 -0.026926052 0.06621801 0.018855657
0000c0 de 15 1c 3b 0f e1 97 bd fe c5 6f 3b 44 e3 8f bd
       0.0023816745 -0.074159734 0.0036586518 -0.07025769
0000d0 e8 81 0d bc 7c 1a 99 bc da e8 36 3d e7 d4 8e bd
       -0.008636929 -0.018689387 0.04465566 -0.06974202
0000e0 be 77 75 bd 6d 6b 8c 3d 8b 95 76 3a 6d 9b 51 3d
       -0.05992865 0.06856427 0.0009406439 0.051173616
0000f0 cf d8 fb bc 7d 30 61 3d 0b 44 89 bd 24 90 ca 3c
       -0.03074303 0.054977883 -0.06702431 0.024726935
000100 ba 65 7e 3d 19 26 97 bc d6 ed da bc dd ed b0 bd
       0.062108733 -0.018450784 -0.026724737 -0.08639119
000110 f7 3a 4f 3d e7 8a a0 3d 95 04 93 bc 87 59 23 bd
       0.050593343 0.078389935 -0.01794652 -0.0398803
000120 d8 f5 75 3d 3f 5f 2d bd 69 4c 0d bd 71 c7 bf 3a
       0.060048908 -0.042327162 -0.0344967 0.0014631582
000130 3c 3d 53 3d fd 3d 6f bd d8 64 32 3b 9e 4f 99 bd
       0.05157207 -0.058408726 0.0027220752 -0.07485889
000140 0e 06 5f bd f8 8a 95 3c 7d 0a 93 3d d9 8e 5c bd
       -0.054449134 0.018254742 0.07179735 -0.053847168
000150 1f 84 c6 bc 70 73 a8 bb 5b 62 6b bc c2 e1 74 3d
       -0.024232922 -0.0051407143 -0.0143667115 0.059785612
000160 24 4a 93 bd 1e 58 35 bd 05 b1 ed bc 37 06 7b 3b
       -0.071918756 -0.04427349 -0.029015074 0.0038303265
000170 fd 69 83 bc 18 3a ce bc ea 82 b0 3d a9 83 1b bd
       -0.01604175 -0.025174186 0.0861872 -0.037967358
000180 4c 27 7b bd 6e bb b1 bd c6 aa da bb c9 11 38 bd
       -0.061316773 -0.086783275 -0.00667319 -0.044938836
000190 48 cd 8c 3d a5 cc 88 bd e5 9c 90 3d 0e e4 68 bd
       0.06875092 -0.06679658 0.07061175 -0.056858115
0001a0 9c c4 50 3d 01 16 f1 bc 03 b2 97 3d 76 f2 76 bc
       0.05096875 -0.029429438 0.07407 -0.015072456
0001b0 03 59 06 bd 1a 53 71 bd dd 69 48 3d 3b 4c 21 bd
       -0.032799732 -0.058917142 0.048929084 -0.03937934
0001c0 74 d8 41 bd 5d 9c 38 bc ac 0a 9f bd 44 28 8b bd
       -0.047325566 -0.011267749 -0.077657074 -0.067947894
0001d0 1a cd a9 3c 01 c5 18 bd cb 6c 92 bd 79 ce 40 bd
       0.020727683 -0.037297253 -0.07149657 -0.047071908
0001e0 f4 af 8d 3c 52 54 83 bd 32 8d 6a 3c f4 64 14 3d
       0.017295815 -0.06412567 0.01431589 0.03622909
0001f0 0b 16 67 3d 10 5d a2 3b 8f 46 64 bc 29 f1 59 bd
       0.056417506 0.0049549416 -0.013932838 -0.053208504
000200 c7 55 45 bd a3 1c fb bc 68 11 9d 3d 4a 8c a5 3d
       -0.048177507 -0.030653303 0.076693356 0.08083399
000210 fd 26 f5 bc b3 39 36 3d 3e 38 f1 bc 09 b2 df 3c
       -0.029925818 0.04448862 -0.029445764 0.027306573
000220 99 d7 bf 3c e9 87 aa bd 71 da 5d 3d 09 f4 83 3c
       0.023418235 -0.08326704 0.0541634 0.016107576
000230 d1 c4 98 bd 21 0a 98 bd b1 65 6b 3d 09 c6 5b bb
       -0.07459415 -0.07423807 0.057470027 -0.0033534786
000240 df 35 b4 bd ca a5 c8 bc a1 82 cc 3c 03 7b 6a 3d
       -0.087993376 -0.024493117 0.024964632 0.05724622
000250 2d 12 9a bd cc b6 80 3d 29 07 24 bd 7d d8 2f 3d
       -0.07522998 0.06284866 -0.04004589 0.04293107
000260 88 b7 6f 3a 81 84 ff bb 5c a9 4f bd a3 49 d7 3c
       0.0009144475 -0.007797778 -0.050698623 0.02628023
000270 70 e3 8a 3d b4 14 3e bd e9 86 b5 bd 14 6a 0b 3c
       0.067816615 -0.046406463 -0.08863623 0.008509178
000280 bc 63 ac bd 7f cb f1 bc 1f 82 12 bd ec f0 d4 3c
       -0.0841746 -0.02951598 -0.035768624 0.025993787
000290 fd 5d b0 bd 4c 7b 29 bd 68 a5 f5 3c a0 09 08 bd
       -0.08611677 -0.04137735 0.029986098 -0.033212304
0002a0 cd 56 ac bd f7 57 75 3d e5 40 6f 3c f7 8b 2c bd
       -0.084149934 0.059898343 0.014602874 -0.04212567
0002b0 58 fb 74 3d cb 0f a7 bd 61 74 89 3d dd cc a7 3d
       0.059810013 -0.08157309 0.06711651 0.081933714
0002c0 25 1a 9e bd ef f6 2b bd 4a f5 94 bd 98 2e 90 bd
       -0.077198304 -0.04198354 -0.07273348 -0.07040137
0002d0 e9 6d 05 3c 9f 4e 6c 3d 33 b7 ad bc 06 7b 85 bc
       0.00814388 0.057692166 -0.02120552 -0.016294014
0002e0 30 24 4e bd 74 a9 9a 3d 57 08 d1 3c 14 a2 79 bd
       -0.05032748 0.07551852 0.025516672 -0.060945585
0002f0 7f c2 80 3d a5 56 9c bd 6e 68 70 3d fe 76 ff bc
       0.06287097 -0.07633714 0.058693342 -0.03118467
000300 74 d1 23 3d 6d 66 9b 3b df e1 60 3d 5a d1 98 3c
       0.039994672 0.0047424347 0.054902907 0.018654514
000310 1f 80 91 3b b4 78 96 bc 11 b6 e8 bb a5 84 7e bd
       0.004440322 -0.018368103 -0.007101782 -0.06213822
000320 04 bb fa bc b6 8f b2 bc a1 58 80 bd af 29 8b 3c
       -0.030606754 -0.021797042 -0.062669046 0.01698765
000330 ff 59 9a 3b d2 bb 83 bd 26 5a a2 bc f3 71 92 bb
       0.0047104354 -0.06432308 -0.019818377 -0.00446915
000340 99 00 34 3d 20 c7 5d bd 20 4b 1f 3d 6e fb 9c 3d
       0.043945882 -0.05414498 0.038890004 0.07665144
000350 77 29 b7 bd d4 8f d8 bc 6a 79 cf 3c 6e 14 88 3d
       -0.08943456 -0.02643577 0.02532645 0.06644522
000360 ed 96 a7 bd 81 3a 28 bc d9 9a 0a 3d 17 ed 02 3d
       -0.08183084 -0.010267855 0.03383908 0.031964388
000370 e5 9b 97 bd c1 d1 fd bc 50 0e 0a bd 4e 08 ba bc
       -0.074027814 -0.030983808 -0.033705056 -0.022709038
000380 b5 31 94 3d 13 a7 7b bd a4 f4 3c 3d 9c ec a5 bd
       0.07236043 -0.06143863 0.046131745 -0.0810177
000390 03 8b d4 bc c9 7e 1d bc a9 be 51 bd 24 63 df bc
       -0.025945192 -0.0096127475 -0.05120722 -0.027268954
0003a0 08 75 5c 3d c6 db 5c bd 49 be ac 3d 66 69 7a bd
       0.053822547 -0.05392053 0.084347315 -0.061135672
0003b0 62 e9 6f 3c 34 23 08 bd 82 95 5a 3d 4d 8b 15 3d
       0.014643045 -0.033236697 0.053365238 0.0365098
0003c0 31 35 6b bd 42 07 2d 3d c0 74 5b bd b8 fb 5c 3d
       -0.057423774 0.04224325 -0.05357814 0.053950995
0003d0 28 10 73 3d d2 e0 17 3d c3 e1 1b bd 51 a8 aa 3d
       0.05934158 0.03707964 -0.0380571 0.08332885
0003e0 a7 4f 5a 3c 8c 94 17 3d 39 36 67 3d b2 bc 86 bc
       0.013324655 0.0370069 0.056448195 -0.016447399
0003f0 be 96 af bd 75 7c 0b bd 18 43 ff bb ef 48 99 3d
       -0.08573674 -0.03405424 -0.0077899806 0.07484614

layers.2.bias f4 [128]
000000 73 4b 29 3d 9e 19 b8 bc d0 61 9b bc 12 f6 04 3d
       0.04133172 -0.022473153 -0.01896754 0.032461233
000010 98 05 61 bc 32 13 f9 bc 1c 56 d6 bc 7b c0 a0 bd
       -0.013734244 -0.03040466 -0.026164107 -0.07849213
000020 0a 45 a1 b7 ed 05 b4 bd 5f 28 87 3d 17 f4 95 3c
       -1.9224844e-05 -0.08790193 0.06599497 0.018304868
000030 13 04 c2 bd 7e 5e a5 3b a9 ff 27 bd 75 69 e8 3c
       -0.09473433 0.0050466647 -0.0410153 0.028370598
000040 5b 65 42 3d 95 30 ae bc 39 86 88 bc 9e 31 51 3d
       0.04745994 -0.0212634 -0.016665565 0.05107271
000050 a3 6a 17 3d fc 0d 89 bd 85 db a3 3d 81 2e 37 bd
       0.03696693 -0.066921204 0.080008544 -0.044722084
000060 08 1f c6 bc 29 4d 01 3d c1 fe d0 bd 48 09 85 3c
       -0.024184719 0.031567726 -0.102048405 0.016239777
000070 78 f1 91 bc f9 1e 06 bd 6f 8c af 3c 84 aa 89 bc
       -0.017815337 -0.03274438 0.021429269 -0.016804941
000080 a6 7e 72 3d f8 d0 b4 bd 06 d1 2b bd 3e c9 fd 3b
       0.059202813 -0.0882892 -0.041947387 0.007744937
000090 d3 5f 54 bd b0 80 a7 bd 1b 23 71 3c f0 27 2f 3c
       -0.051849198 -0.08178842 0.014717842 0.010690674
0000a0 d5 37 1c 3d 24 db 29 bd bf ce 81 bd 0f 1a bc 3d
       0.038139183 -0.041468754 -0.06338262 0.09184658
0000b0 ba 75 8a 3c b0 55 9a 3d 47 db 95 3c 66 67 81 3d
       0.01690184 0.07535875 0.018293036 0.0631855
0000c0 56 da 2c bd 31 55 af bd 89 50 1b bb 05 f3 ca 3d
       -0.04220041 -0.08561171 -0.0023699126 0.099096335
0000d0 01 97 e0 bc 70 e1 bb bd 5b f8 d9 bb 56 fd bf bd
       -0.027415754 -0.09173858 -0.0066519207 -0.09374492
0000e0 cf bd 37 bd 97 c7 47 3d b7 cd a8 bd 38 70 b9 bc
       -0.04485875 0.048774328 -0.08242362 -0.022636518
0000f0 99 c8 82 bd 21 56 13 bd 72 50 73 3d 7c 7f 89 bd
       -0.06385917 -0.03597081 0.05940289 -0.06713769
000100 0d e4 5f bd e3 46 21 3d e8 32 d3 bc 63 dc 7d 3d
       -0.054660846 0.039374243 -0.02578111 0.061977755
000110 cc 9e ab bd b4 8c dd 3c 1d 6c ee 3b ee e2 1c 3d
       -0.083798975 0.027044632 0.0072760717 0.038302355
000120 7b d2 57 3d 47 06 10 bd 58 d8 39 3c 8d 4d a3 bc
       0.052690964 -0.035162237 0.011343084 -0.01993444
000130 94 b4 86 bc 87 3c 4f bd 1f 38 88 3d 17 3e be 3d
       -0.016443528 -0.050594833 0.06651329 0.092891864
000140 52 43 86 bd 93 d7 ab 3b de 2b 7c 3d 89 17 3a bd
       -0.06555809 0.0052442043 0.061565273 -0.0454326
000150 f3 fa 9d 3d 0e e5 01 3d 84 e9 53 3d 34 b7 56 3d
       0.077138804 0.031712584 0.05173637 0.05242081
000160 6f 72 cf bd 95 e8 60 3c b4 98 19 bc 69 ab 00 bd
       -0.10129248 0.013727327 -0.009374786 -0.03141347
000170 2a ed 78 bc bd 73 f0 bc c8 ea 8f 3d 9c 55 98 bc
       -0.015193263 -0.029352063 0.07027203 -0.01859551
000180 ab 31 1c 3d 8a 5e 90 3c 45 fd 77 bd f5 c8 1d 3d
       0.038133305 0.017623205 -0.06054427 0.038521726
000190 d6 0c 4d 3a 30 c1 92 bd b2 46 f4 3c cd 32 45 bd
       0.0007822042 -0.07165754 0.029818866 -0.04814415
0001a0 e6 3b a5 bd 3b b6 6e 3d 4a fa 28 3c 8d c2 a5 bd
       -0.08068065 0.058279257 0.01031358 -0.08093748
0001b0 c5 ed 1e 3d bb a4 b1 bd e8 21 28 3d 2f df 6f 3c
       0.038800973 -0.08673998 0.04104796 0.014640613
0001c0 b4 e4 4e bd 92 9c 52 3c 5b f3 3c 3c 0b f9 44 3c
       -0.050511077 0.012854712 0.01153263 0.012022267
0001d0 40 3b ef bc 84 27 bb bd 17 e2 b4 bc ed 92 71 bd
       -0.029203057 -0.091383964 -0.022080464 -0.05897801
0001e0 fb 20 a5 3d 37 bc 1a 3d e4 48 11 bd a5 0c a6 bd
       0.08062931 0.037777152 -0.035469905 -0.081078805
0001f0 79 c2 c7 3d 9f bd 72 bc 99 6b 3b bd a8 b2 48 bd
       0.097538896 -0.014815717 -0.04575691 -0.048998505

layers.4.weight f4 [7, 128]
000000 ce 94 1d bd 12 00 a3 bd 2c 72 92 3d 13 0d 84 3c
       -0.03847199 -0.07958998 0.07150683 0.016119516
000010 1d 03 9d 3d 82 a4 6e 3d 25 1a 3b bc 2c 29 b8 3d
       0.076666094 0.058262356 -0.011419808 0.08992228
000020 48 bd f9 bd 93 86 01 bd 70 10 36 3e 18 35 8e bd
       -0.12194306 -0.03162248 0.17779708 -0.069437206
000030 77 fb 81 3d 63 e6 90 3a 4f 69 eb 3c d3 8d 34 bc
       0.06346791 0.0011054989 0.028736738 -0.011020142
000040 67 e2 7e bd de 92 39 3d bf a3 df bd 3b c4 b0 3d
       -0.062227633 0.04530608 -0.10919904 0.08631178
000050 95 e3 07 3e c1 e9 d2 3d 15 47 c7 bd be ac 43 bd
       0.1327041 0.10298491 -0.09730355 -0.04777216
000060 7a 62 85 bb 72 fb 31 3d b1 55 8f 3d c0 7e 7e bc
       -0.004070577 0.043452688 0.06998766 -0.015533149
000070 b3 15 40 3b 43 10 51 bd 70 ce 8a 3b 4a 77 5f bd
       0.0029309809 -0.0510409 0.004236035 -0.054557122
000080 38 93 9e 3c 1d a3 75 3c 32 56 8c 3d 8f ea c9 3e
       0.019357309 0.0149925025 0.06852378 0.39436767
000090 0a 7e 8e 3e 57 d3 61 bd 41 be 7d 3d e8 05 a8 3d
       0.27830535 -0.05513319 0.06194902 0.082042515
0000a0 e8 ef 95 3e 3a c9 2d 3e 3a 29 30 3e c3 32 4e 3e
       0.29284596 0.16971293 0.17203227 0.20136552
0000b0 f2 92 90 3d 45 b1 66 bd 3a 14 eb 3d ca 62 92 3d
       0.070592776 -0.0563214 0.11478467 0.07147749
0000c0 00 32 ba 3d 4c 0d 15 3e 23 e4 c9 bd 1e f6 1b bd
       0.09091568 0.14555854 -0.09857967 -0.038076513
0000d0 8f c2 4d bd 73 2e 45 bd 02 79 39 bd 40 7d 26 bc
       -0.050234374 -0.04814 -0.045281418 -0.010161698
0000e0 f8 1f bb bc e6 12 2a 3c e5 ce d5 bc ef b5 f7 3d
       -0.022842392 0.010380482 -0.026099632 0.12095248
0000f0 16 59 cb bd 3d c2 d6 3d 1f 15 19 3e 1a e2 6b bd
       -0.09929101 0.10486267 0.14949463 -0.057588674
000100 60 ae bf 3d be 70 8e 3c 62 8c 90 3d 2e 03 f7 3d
       0.09359431 0.017387744 0.07058026 0.12061153
000110 ef d1 c9 3d d6 04 ae bd 59 e1 3b bd a5 42 cb 3c
       0.09854495 -0.08497016 -0.045869205 0.024812052
000120 ac 42 40 3f 03 59 ee 3c c1 42 75 3c 4f 66 50 3b
       0.75101733 0.029095178 0.014969529 0.0031799262
000130 c4 95 ca 3c 64 b0 c7 bc 3e 27 b4 3d 2a 7b 7b 3e
       0.024729617 -0.024376102 0.08796547 0.24558702
000140 88 c6 0e 3d fd 50 8f bd bb 6c 97 3c 92 8f 9b 3d
       0.034857303 -0.06997869 0.018484464 0.07595743
000150 73 52 bd 39 3a fb ab bd 2e 86 ee 3e 02 8a 8b bc
       0.0003611032 -0.08397527 0.46586746 -0.01703358
000160 9a bb 27 bc b3 f1 f3 3d ef b0 cb 3c 6e a0 bc 3d
       -0.010237599 0.11911335 0.024864642 0.09210287
000170 52 5c b5 bd 84 bc fa 3e 7a 69 96 ba f4 b1 d8 bd
       -0.08855499 0.4897195 -0.0011475526 -0.10580817
000180 0d 10 8e bc 42 17 c8 bd 98 16 8a 3e 7f c4 1c 3e
       -0.017341638 -0.09770061 0.26970363 0.15309332
000190 8c d7 2a 3e 37 ba 0d 3e 90 4b 11 be 5f da 8d bd
       0.16683787 0.13840567 -0.14188981 -0.069264166
0001a0 57 ef dd bc 1c 64 b4 bd 46 de 72 3d 6d 96 32 3e
       -0.027091665 -0.08808157 0.059294008 0.17440195
0001b0 4e 8b 39 bc 52 0d c6 3d eb 1e 0d 3e d3 59 a8 3d
       -0.011324717 0.096705094 0.13781326 0.082202576
0001c0 1a 3f 7b 3e 5f 84 94 bc 4e ce 08 3d 59 19 82 3d
       0.2453579 -0.018129526 0.033399872 0.06352491
0001d0 83 a6 96 3e 1b 52 e2 3d 9a f2 a7 3e 99 29 30 3e
       0.29423913 0.110508166 0.32802278 0.17203368
0001e0 fe 9d 6c 3d 02 fc 26 3d 9a ad 03 bd a5 28 f3 bb
       0.05776786 0.040767677 -0.03214798 -0.0074206167
0001f0 75 5e a6 3d 96 17 d6 bd b0 85 e4 3d d7 4a e1 3d
       0.08123485 -0.104537174 0.11158311 0.11000603
000200 b3 6c 9d 3d 3d 8b c0 3c f4 d0 0b be 1f b8 28 3e
       0.07686748 0.023503894 -0.13653928 0.16476487
000210 e7 88 4f 3d 16 34 d5 bc ff 20 ba 3c 52 6b ac 3d
       0.05066767 -0.026025813 0.022720812 0.08418907
000220 32 c7 e6 3c 5b ee ff 3c 4a 1b 43 3c 32 eb 4c 3c
       0.028171156 0.031241586 0.011908362 0.012507247
000230 ad 79 11 bd c9 aa 10 bd 23 56 55 3c ba a0 1c 3d
       -0.03551643 -0.035319123 0.013021025 0.03823922
000240 58 92 9f bc ed 93 8d 3b 18 80 62 3c 99 fd 98 3d
       -0.019478962 0.0043206126 0.013824485 0.07470245
000250 ad 02 06 3e 5b 33 cb bc 0c d0 d4 3c 13 c2 a0 bd
       0.13086958 -0.024804762 0.02597811 -0.07849517
000260 67 3d 0c bd b4 b6 6d 3d 22 9c 85 bd d8 4c a2 3d
       -0.034238245 0.058035567 -0.065239206 0.07924813
000270 09 78 94 bd f3 14 08 3d 82 6f bd bb cb 4d 6f 3b
       -0.072494574 0.033223104 -0.005781115 0.0036514874
000280 70 10 7f bd 68 4a be bc 07 94 84 3c f9 62 cc 3e
       -0.062271535 -0.023228839 0.016183866 0.3991926
000290 79 af a0 3e 23 77 6c 3d b6 26 f1 3d fc 7b 0b 3d
       0.31383875 0.057730805 0.11774962 0.034053788
0002a0 c2 f7 88 3e 84 33 ac ba 63 af 2b 3e 25 90 f5 bd
       0.26751524 -0.0013137911 0.16766123 -0.11990384
0002b0 a5 5e a0 3c c1 38 a3 bd 93 49 8b 3c f5 7e 83 3d
       0.01957638 -0.07969809 0.017002856 0.064206995
0002c0 22 6e 3f 3c ba f6 05 bd f7 84 e0 3c 46 a2 04 be
       0.011683973 -0.032706 0.027407153 -0.12952527
0002d0 67 e5 f9 3c e0 62 03 bd d6 b2 b2 bd 7a ac 81 3d
       0.030504895 -0.032076716 -0.087255165 0.063317254
0002e0 06 63 ff 3c 1b c0 1d 3d 74 d2 98 3d ea db 81 3d
       0.031175148 0.038513284 0.07462016 0.063407734
0002f0 a9 2a 81 3d 56 77 1b 3e 35 1c 93 3d b8 b3 1d 3c
       0.06306965 0.15182242 0.071831144 0.009625368
000300 85 bf b1 3d b2 ef 40 3e 0a 9b 62 3d a6 5d cc b9
       0.086791076 0.18841437 0.055323638 -0.00038979686
000310 f8 d6 68 3c 5c ac 89 3d e8 c9 a3 3c c4 e5 8b 3d
       0.014211409 0.06722328 0.019993737 0.06830934
000320 18 b2 48 3f 84 6c 00 3e 35 e7 24 3d ef 9d 98 bd
       0.7839675 0.12541395 0.04025956 -0.074519984
000330 22 ac 21 bd c2 c5 fe 3c d5 08 ab 3d e7 24 6f 3d
       -0.0394708 0.031100158 0.08351294 0.058384802
000340 26 14 6c 3e e6 e0 ed bc 18 d1 bb 3d 32 46 94 3d
       0.23054561 -0.029037904 0.09170741 0.07239951
000350 a8 58 2b bd 28 f7 ca bb a7 32 c3 3e 91 7a 50 bd
       -0.041832596 -0.006194014 0.38124582 -0.05089814
000360 3d 09 52 bb ab aa 2c 3d 44 04 b1 3c ad cc 6a bc
       -0.0032048963 0.04215495 0.02160848 -0.014331025
000370 0c 58 e3 bd 48 a2 ed 3e 4b ba 6d bd 9f 3e 91 bc
       -0.11100778 0.46412873 -0.05803899 -0.017730055
000380 98 eb be 3d 25 68 b5 3d a2 95 82 3e 12 fc d5 3d
       0.0932228 0.088577546 0.25504786 0.10448469
000390 7b 80 ec 3d ee 65 3b bc 24 6e 43 3e c4 da 4e 3e
       0.11547943 -0.011437876 0.19084984 0.2020064
0003a0 99 a1 e7 3c c1 ad b2 3d db 61 5e bd 22 71 2e 3d
       0.028275298 0.08724547 -0.05429254 0.04258836
0003b0 89 19 35 3d b5 33 42 3d cc ae 4a 3d cb da 83 bd
       0.044213805 0.047412593 0.049483106 -0.06438216
0003c0 fb 03 90 3e 79 fa 63 3b aa 10 ae bc 04 11 9f bd
       0.28128037 0.0034786745 -0.02124818 -0.07766917
0003d0 37 dc 27 3e 12 06 03 3d 5d 02 c4 3e bb 07 81 3d
       0.16392599 0.03198821 0.38283053 0.063003026
0003e0 bb 61 57 bd 89 0a ac bc 09 85 8d 3d 55 57 96 3c
       -0.052583437 -0.021001117 0.0691014 0.01835219
0003f0 8c d9 0b 3d d9 2b 3d bc 58 20 74 3d 32 b0 3b 3e
       0.034143016 -0.011546099 0.059601158 0.18328932

layers.4.bias f4 [7]
000000 e5 b4 f8 bc 82 f3 8b 3c e6 76 1a 3c c1 5e 31 bd
       -0.030359695 0.017083887 0.009427762 -0.043303255
000010 f6 2c 93 3d 62 bb 92 bd e7 56 6e bd
       0.0718631 -0.07164647 -0.058188345
