Agent1_Congkak_PPO.pt (torch, 215323 bytes, 11 tensors)

shared_layers.0.weight f4 [128, 16]
-0.2686944 0.019739069 -0.31925908 -0.31846434 0.19210297 0.020310353 0.13942198 -0.12716943
-0.29906073 0.14928123 -0.26581818 -0.30828375 -0.40632614 -0.3982449 -0.023226297 -0.11641288
-0.2015552 0.009131979 -0.20063731 -0.12986659 0.049796868 0.0377704 -0.47142264 0.08422574
-0.27345657 -0.050816953 0.07511279 -0.07227678 0.042532038 0.039157562 0.04370071 -0.22855246
-0.016792824 -0.4399289 -0.29552585 -0.22554944 -0.07905051 -0.1427892 -0.21681109 -0.41946417
-0.22981426 0.14146966 0.16105294 -0.32891735 -0.013570508 0.038823266 -0.40762705 -0.61698866
-0.037714858 -0.6616914 -0.16139314 -0.054927085 -0.08733675 -0.3792787 -0.043043 -0.7549402
-0.50324047 -0.30416963 -0.23266916 -0.53963155 -0.72527033 -0.31985778 0.1461181 0.3937245
-0.06548568 0.17344534 -0.15279944 -0.62296337 -0.2153008 -0.4550214 -0.7967065 0.043084297
-0.14447401 -0.051246878 -0.1877646 -0.06313658 -0.94827634 0.12691094 -0.052783407 -0.31959677
-0.44453537 -0.050346944 -0.14342085 0.11379581 -0.091221 -0.024063703 0.07243324 -0.17469968
0.09830494 -0.07058838 -0.21316163 0.21330625 -0.42871994 -0.40931994 -0.40916908 -0.28789884
0.00792369 -0.32811853 -0.06166379 -0.013821432 -0.023424357 -0.19872727 0.06477197 -0.0898801
-0.15271938 0.011699997 -0.089172326 -0.07011296 -0.02539232 0.06902164 -0.03893259 -0.40707275
-0.21986818 -0.2606438 -0.18439825 -0.57338053 -0.01591378 -0.09051627 -0.62658083 0.08784752
-0.20007408 0.19629475 -0.4364776 0.07997037 -0.41289586 -0.5217412 0.33444685 -1.313325
0.025100868 -0.47160995 -0.37071705 0.07224785 -0.17884974 -0.7488592 -0.16594626 -0.36090863
-0.300752 -0.529543 -0.7590546 -0.33316827 0.2029394 -0.25331363 0.20170428 -0.04097134
-0.0035150906 0.0037566966 -0.0069916844 -0.1547335 -0.0077953013 -0.25406814 -0.0048805485 -0.23965023
-0.1873706 0.07026229 -0.21638796 0.059417464 0.0930247 -0.20809512 -0.124221124 -0.31809312
-0.039864846 -0.29714596 0.13250068 -0.30171236 -0.17202437 0.0126861045 0.17238298 0.3929923
-0.5264536 -0.84656477 -0.14685507 -0.22650093 -0.27246422 -0.83828163 -0.025831016 -0.20353104
-0.36593556 -0.28410825 -0.03608363 0.28879747 -0.17214502 -0.52049893 -0.63669443 -0.022843407
-0.11881579 -0.1344393 -0.5612557 -0.35708556 -0.14103217 -0.7317611 0.09641583 0.043622255
-0.08149579 0.084262416 0.12709896 -0.2669433 -0.28503427 -0.31422797 -0.31357872 0.0736504
-0.1698653 -0.23936003 -0.21053985 -0.055647306 0.06959712 -0.16656673 0.08512003 -0.33145705
-0.016444305 0.026551168 -0.40087965 -0.08569189 0.118252866 -0.1833918 -0.19556855 -0.45055306
-0.43043563 0.20026833 -0.5823718 0.082366884 0.20498183 -0.5806897 -0.41897386 -0.41577935
-0.06059919 -0.20034057 -0.019268427 -0.1693486 -0.072598755 0.068823524 -0.23290977 0.062075213
-0.25953826 -0.31545216 -0.19108316 -0.07930169 -0.2332798 0.033772215 0.11927396 -0.6514025
0.029031293 -0.44639978 -0.47793835 -0.24482483 -0.31595007 -0.30907792 -0.17016923 -0.4485219
-0.05423072 -0.49389425 -0.5106465 -0.5660846 -0.6632806 -0.53176314 -0.8207782 -0.61015546
00000000: 5092 89be d4b3 a13c ed75 a3be c20d a3be
00000010: a4b6 443e e661 a63c a3c4 0e3e b438 02be
00000020: 7d1e 99be 2edd 183e 5219 88be 5ed7 9dbe
00000030: fb09 d0be c1e6 cbbe 1345 bebc e069 eebd
00000040: 7d64 4ebe 4c9e 153c de73 4dbe bffb 04be
00000050: cdf7 4b3d 23b5 1a3d 4f5e f1be 8b7e ac3d
00000060: 8002 8cbe 7025 50bd bcd4 993d d905 94bd
00000070: 1336 2e3d ae63 203d 84ff 323d a809 6abe
00000080: 1b91 89bc 5c3e e1be 2a4f 97be 6ff6 66be
00000090: 3ce5 a1bd 5537 12be ba03 5ebe 02c4 d6be
000000a0: 6e54 6bbe 6cdd 103e 10eb 243e db67 a8be
000000b0: d656 5ebc 2505 1f3d 7eb4 d0be f8f2 1dbf
000000c0: e57a 1abd 9c64 29bf 3e44 25be 39fb 60bd
000000d0: 9cdd b2bd d130 c2be db4d 30bd c343 41bf
000000e0: 5ed4 00bf 1fbc 9bbe d340 6ebe 4b25 0abf
000000f0: 51ab 39bf 66c4 a3be fc9f 153e 4296 c93e
00000100: 5b1d 86bd a89b 313e 7577 1cbe 877a 1fbf
00000110: d077 5cbe 91f8 e8be f5f4 4bbf 2979 303d
00000120: fff0 13be 3fe8 51bd 5d45 40be c04d 81bd
00000130: 3dc2 72bf f1f4 013e 6a33 58bd 30a2 a3be
00000140: 249a e3be 9938 4ebd eadc 12be c70d e93d
00000150: 13d2 babd 3e21 c5bc e157 943d 79e4 32be
00000160: 1a54 c93d a490 90bd 0b47 5abe f46c 5a3e
00000170: 2e81 dbbe 6292 d1be 9c7e d1be 7a67 93be
00000180: 5dd2 013c 27ff a7be 2c93 7cbd 4a73 62bc
00000190: 70e4 bfbc 297f 4bbe 2ba7 843d 0f13 b8bd
000001a0: 7862 1cbe 58b1 3f3c fb9f b6bd 6297 8fbd
000001b0: 8e03 d0bc 385b 8d3d c877 1fbd d76b d0be
000001c0: 2025 61be 1b73 85be e5d2 3cbe 11c9 12bf
000001d0: 9e5d 82bc 9860 b9bd 9a67 20bf 67e9 b33d
000001e0: 38e0 4cbe 7e01 493e fe79 dfbe 81c7 a33d
000001f0: 1667 d3be d590 05bf 9e3c ab3e 091b a8bf
00000200: 56a0 cd3c dc76 f1be a0ce bdbe aef6 933d
00000210: 6324 37be 3db5 3fbf d1ed 29be 04c9 b8be
00000220: 2bfc 99be 2190 07bf 6751 42bf 0895 aabe
00000230: 59cf 4f3e 53b2 81be 918b 4e3e 90d1 27bd
00000240: 6f5d 66bb e932 763b 801a e5bb 7572 1ebe
00000250: ba6f ffbb 3815 82be 02ed 9fbb df66 75be
00000260: 14de 3fbe ade5 8f3d ce94 5dbe ba5f 733d
00000270: bc83 be3d e316 55be a567 febd 1add a2be
00000280: 5249 23bd 8423 98be 42ae 073e 0b7a 9abe
00000290: 2827 30be 61d9 4f3c 2a85 303e 4936 c93e
000002a0: aac5 06bf 78b8 58bf 2d61 16be dcef 67be
000002b0: 6e80 8bbe a099 56bf 919b d3bc 716a 50be
000002c0: e85b bbbe a376 91be 6ecc 13bd 43dd 933e
000002d0: c946 30be 6b3f 05bf 68fe 22bf 1922 bbbc
000002e0: b155 f3bd 75aa 09be 74ae 0fbf ebd3 b6be
000002f0: bd6a 10be b254 3bbf aa75 c53d 40ad 323d
00000300: 44e7 a6bd c691 ac3d 3b26 023e cbac 88be
00000310: 03f0 91be 7de2 a0be 648d a0be 05d6 963d
00000320: 2bf1 2dbe cc1a 75be c297 57be 6eee 63bd
00000330: ef88 8e3d 7890 2abe 6953 ae3d bdb4 a9be
00000340: 35b6 86bc d681 d93c 1940 cdbe 3b7f afbd
00000350: 8f2e f23d 0fcb 3bbe 1f43 48be e4ae e6be
00000360: 0f62 dcbe 2413 4d3e 5116 15bf f8af a83d
00000370: c2e6 513e 15a8 14bf be83 d6be 08e1 d4be
00000380: db36 78bd 1426 4dbe d2d8 9dbc b869 2dbe
00000390: a8ae 94bd 59f3 8c3d e67f 6ebe 9442 7e3d
000003a0: 33e2 84be f282 a1be 4eab 43be ed68 a2bd
000003b0: e6e0 6ebe bc54 0a3d e845 f43d 50c2 26bf
000003c0: 09d3 ed3c 838e e4be 56b4 f4be 5cb3 7abe
000003d0: 35c4 a1be 763f 9ebe d840 2ebe aaa4 e5be
000003e0: 0821 5ebd b5df fcbe bbb9 02bf ecea 10bf
000003f0: c2cc 29bf a121 08bf 851e 52bf 2633 1cbf

shared_layers.0.bias f4 [128]
-0.18072449 -0.017425735 0.030894924 -0.63983244 -0.018052433 -0.5415107 -0.3092033 -0.21304932
-0.34929225 -0.18934482 -0.006074194 -0.21763703 0.0009764144 -0.11698775 -0.29312682 -0.016021503
-0.1308999 -0.29042417 -0.29175496 0.06801266 0.09823871 0.039129652 -0.3079542 -0.47093353
-0.57102895 -0.21203397 -0.5327932 0.05199328 -0.1265745 -0.2964118 -0.6438845 -0.18944946
-0.107453294 -0.087556876 -0.095529266 0.10344392 -0.1524432 -0.119317345 -0.48733732 -0.6174678
-0.08266533 -0.57336086 -0.30808634 -0.33811477 0.22661157 -0.22236614 -0.01631256 -0.09985728
0.08820851 -0.54166126 -0.21728612 0.13765271 -0.29426068 -0.48994 -0.9229423 -0.65212536
-0.036560014 -0.62046486 -0.12504514 -0.18024892 0.05572763 -0.11471404 -0.096625745 -0.52884376
0.037813384 -0.7088238 -0.17121208 -0.37340677 -0.53573364 -0.19132408 -0.18499234 -0.37594372
-0.30744165 -0.2948477 -0.27491146 -0.31962162 0.16194342 -0.17528084 -0.17926598 -0.46802783
-0.17922269 -0.049417228 0.12802668 -0.36991483 -0.28156686 -0.20479545 0.052347824 0.067315534
0.15280978 0.14378023 -0.31959492 -0.061314497 -0.4083651 -0.38665992 -0.659624 -0.3974784
0.009106268 -0.64802724 -0.078515 -0.35719454 -0.43011254 -0.03466099 -0.33716214 -0.21916144
-0.36071128 -0.05748402 0.07565694 -0.13125521 0.030138 -0.03565478 -0.08801831 -0.14274932
-0.34318992 -0.5272517 -0.00087812543 -0.32601652 -0.31222323 0.5133736 0.52951896 -0.47049573
-0.2746687 0.085049585 -0.53330964 -0.14824001 -0.527039 0.24919133 -0.3016898 -0.31850743
00000000: d70f 39be 6ac0 8ebc 5a17 fd3c 0fcc 23bf
00000010: b2e2 93bc 72a0 0abf e54f 9ebe 9a29 5abe
00000020: 6fd6 b2be 9ce3 41be 080a c7bb 3edc 5ebe
00000030: 10f6 7f3a 4697 efbd b814 96be 873f 83bc
00000040: a00a 06be 7ab2 94be e860 95be 394a 8b3d
00000050: 6031 c93d 6a46 203d 2cac 9dbe 331e f1be
00000060: f42e 12bf 6f1f 59be 2365 08bf e8f6 543d
00000070: bf9c 01be 4ac3 97be 9dd5 24bf 0aff 41be
00000080: 7910 dcbd 0551 b3bd d9a4 c3bd 68da d33d
00000090: 121a 1cbe a75c f4bd 4784 f9be 5f12 1ebf
000000a0: 714c a9bd c7c7 12bf 7ebd 9dbe 611d adbe
000000b0: dd0c 683e f3b3 63be eba1 85bc f981 ccbd
000000c0: aaa6 b43d 50aa 0abf 4180 5ebe d5f4 0c3e
000000d0: 56a9 96be 6ad9 fabe f245 6cbf b0f1 26bf
000000e0: f4bf 15bd c9d6 1ebf d50b 00be 2c93 38be
000000f0: a842 643d 32ef eabd b8e3 c5bd 4e62 07bf
00000100: 35e2 1a3d 7a75 35bf 3852 2fbe 2c2f bfbe
00000110: d725 09bf 76ea 43be a26e 3dbe b27b c0be
00000120: fe68 9dbe 47f6 96be 32c1 8cbe 72a5 a3be
00000130: 7fd4 253e d27c 33be 8091 37be 58a1 efbe
00000140: 2786 37be b869 4abd 6d19 033e 7a65 bdbe
00000150: 8829 90be e6b5 51be ac6a 563d badc 893d
00000160: 2b7a 1c3e 203b 133e f2a1 a3be e924 7bbd
00000170: 3b15 d1be 4af8 c5be 1edd 28bf 4a82 cbbe
00000180: 7532 153c 1de5 25bf 79cc a0bd 34e2 b6be
00000190: b637 dcbe aff8 0dbd 84a0 acbe db6b 60be
000001a0: 26af b8be 5d74 6bbd 07f2 9a3d c467 06be
000001b0: f8e3 f63c bf0a 12bd f242 b4bd e12c 12be
000001c0: 97b6 afbe f8f9 06bf 0032 66ba a3eb a6be
000001d0: b9db 9fbe 746c 033f 8e8e 073f d1e4 f0be
000001e0: 60a1 8cbe 7a2e ae3d fb86 08bf 3bcc 17be
000001f0: 07ec 06bf 032c 7f3e 1677 9abe 6813 a3be

shared_layers.2.weight f4 [128, 128]
0.021915782 -0.102580756 -0.51944506 -0.2435084 0.0014620841 -0.20092686 -0.64622706 -0.19749366
-0.073609255 -0.03180896 -0.4477938 -0.10104925 0.12417383 -0.09852679 -0.018485956 0.04316794
0.024941761 -0.028825995 -0.17721426 -0.021090928 0.15337013 -0.06012617 -0.21357676 -0.8831668
0.08935617 0.06148885 -0.031163432 -0.06384354 -0.03905189 0.038991645 0.22758499 0.07629599
0.024102679 -0.08667276 -0.065237105 -0.15189627 -0.32641342 0.5183874 -0.03893239 -0.7865899
0.03476374 -0.10409296 -0.05531972 -0.13010132 -2.3003576 -0.045914188 -0.20573846 -0.078877375
-0.3057728 -0.10176543 -0.68387514 -0.16603142 -0.126437 -0.42195916 0.0059531033 -0.11665637
-0.17662683 -0.2957726 -0.1127149 -0.041049816 -0.20998046 0.012071345 -0.3350514 -0.092097044
0.011852764 -0.140303 0.040082373 -0.35034007 -0.026631963 0.19683501 -0.13274425 -0.036682777
-0.2525637 -0.058048815 -0.04372213 -0.07514116 0.02235324 0.3129416 -0.17018786 -0.18267809
-1.1213874 -0.02223513 -0.6861571 0.15097384 -0.080368176 -0.9825562 -0.10504608 -0.031096807
-0.035081625 -0.59271276 0.09747927 -0.09197632 0.028344477 -0.22006594 0.009995548 -0.03603981
-0.17599016 -0.1394982 -0.0016338965 -0.58680475 0.09992165 0.045288455 -0.10783297 -0.08379641
0.08415382 -0.07513326 0.03864803 -0.040034413 0.1635708 -0.21594106 0.28230757 0.00956657
-0.15791199 0.060645178 0.06454772 -0.189779 -0.103689656 -0.2381042 0.024567725 0.0056170053
-0.13466549 0.01622211 -0.31064877 0.053582273 -0.089500576 -0.32602102 -0.24436226 -0.11755953
-0.083484866 -0.06189876 -0.20954975 -0.07337673 -0.02786921 -0.047996517 -0.12351802 0.08220652
-0.07464368 -0.06155526 -0.016227249 0.02090279 -0.07970801 -0.052418157 -0.0052538393 0.028633386
-0.04814741 -0.0404165 -0.18827869 -0.08723998 0.008746366 0.02347089 -0.06467101 -0.45223647
-0.038581543 -0.02677232 -1.5841321 -0.06162224 -0.0139495 0.019849159 -0.09068258 -0.08641269
0.0022394499 -0.08024717 -0.062584825 -0.3995613 -0.052797638 0.040228136 0.03803832 -0.08372909
-0.0056625134 -0.015823439 -0.70590454 0.010656751 0.47867006 0.07360773 -0.0067109736 0.05480624
-0.2783972 -0.05400068 0.02759765 0.010853074 -0.2795564 0.07053344 0.17307176 0.06122529
-0.189854 -0.019585064 0.28270146 0.112311 -0.15583707 0.057669137 0.19810931 -0.025451208
-0.056461867 -0.21981743 0.27091613 0.26622552 -0.033241138 -0.0011316547 -0.10631674 0.29232353
-0.041273646 -0.25719208 0.029222995 -0.34853563 -0.045653198 0.32462248 -0.20968983 0.2335367
-0.073881686 -0.016405996 -0.47683027 0.06762707 -0.024435721 0.34532797 -0.14888215 -0.15190995
-0.050855555 -0.10729432 -0.043030754 -0.012000868 -0.028741505 -0.058986615 -0.93007255 -0.014785321
-1.515335 -0.008996738 -0.15646063 -0.11575305 -0.09634259 -0.056054093 0.14796065 -0.06674398
-0.02739331 -0.0429305 0.028266978 -0.053932276 0.14446615 0.08395248 -0.14718437 0.21394452
-0.059222836 -0.0072783804 0.35687518 0.07631014 -0.02865933 -0.012296624 -0.042908598 -0.049937088
-0.067209825 -0.22421885 -0.01349069 -0.06786909 2.4347042e-05 0.12803273 0.052231234 -0.019100668
00000000: ba88 b33c dc15 d2bd 5afa 04bf 445a 79be
00000010: 67a3 bf3a c5bf 4dbe 236f 25bf c73b 4abe
00000020: 73c0 96bd 1d4a 02bd 3b45 e5be e9f2 cebd
00000030: d94e fe3d 6ac8 c9bd dc6f 97bc ded0 303d
00000040: aa52 cc3c 7e24 ecbc a877 35be e2c6 acbc
00000050: 0f0d 1d3e dc46 76bd deb3 5abe 3817 62bf
00000060: 5e00 b73d bbdb 7b3d 744a ffbc 67c0 82bd
00000070: e0f4 1fbd b4b5 1f3d 0a0c 693e 1241 9c3d
00000080: fb72 c53c 7d81 b1bd 089b 85bd b28a 1bbe
00000090: a91f a7be 09b5 043f 9277 1fbd f55d 49bf
000000a0: 6c64 0e3d b12e d5bd ee96 62bd 4839 05be
000000b0: 0f39 13c0 8410 3cbd 1aad 52be 768a a1bd
000000c0: 418e 9cbe 656a d0bd 7112 2fbf 2404 2abe
000000d0: b378 01be 080b d8be 4012 c33b 89e9 eebd
000000e0: aadd 34be 826f 97be 12d7 e6bd da23 28bd
000000f0: 1e05 57be e4c6 453c db8b abbe 609d bcbd
00000100: 1832 423c 97ab 0fbe 6a2d 243d c65f b3be
00000110: 462b dabc 1e8f 493e 1cee 07be ae40 16bd
00000120: 0750 81be 98c4 6dbd fa15 33bd 9ce3 99bd
00000130: 241e b73c e239 a03e ba45 2ebe f70f 3bbe
00000140: 9f89 8fbf 7326 b6bc fea7 2fbf e398 1a3e
00000150: 1298 a4bd ce88 7bbf 6622 d7bd bbbe febc
00000160: c0b1 0fbd 06bc 17bf 36a3 c73d 155e bcbd
00000170: ad32 e83c f758 61be 5ec4 233c 7b9e 13bd
00000180: c436 34be 9ed8 0ebe 7828 d6ba d638 16bf
00000190: b9a3 cc3d 6380 393d 88d7 dcbd 749d abbd
000001a0: d758 ac3d 77df 99bd 664d 1e3d 20fb 23bd
000001b0: 1b7f 273e a71f 5dbe 9e8a 903e 1abd 1c3c
000001c0: aeb3 21be 1467 783d 9831 843d 6d55 42be
000001d0: 3e5b d4bd 96d1 73be 4142 c93c db0e b83b
000001e0: c0e5 09be 3be4 843c 5b0d 9fbe 1679 5b3d
000001f0: 144c b7bd 3aec a6be 1a3a 7abe 0dc3 f0bd
00000200: 1dfa aabd 8e89 7dbd 3694 56be 8a46 96bd
00000210: f84d e4bc ff97 44bd 04f7 fcbd e45b a83d
00000220: c9de 98bd 5e21 7cbd 02ef 84bc 543c ab3c
00000230: f43d a3bd 6cb4 56bd 6628 acbb 9090 ea3c
00000240: 3836 45bd c68b 25bd 21cc 40be e0aa b2bd
00000250: eb4c 0f3c 0646 c03c 3c72 84bd 8a8b e7be
00000260: ae07 1ebd a051 dbbc d7c4 cabf 9a67 7cbd
00000270: 728c 64bc b49a a23c cab7 b9bd 23f9 b0bd
00000280: bcc3 123b a158 a4bd 792c 80bd 4c93 ccbe
00000290: 5642 58bd 42c6 243d 12ce 1b3d 287a abbd
000002a0: 9b8c b9bb 28a0 81bc 29b6 34bf a799 2e3c
000002b0: 3e14 f53e a6bf 963d bae7 dbbb 827c 603d
000002c0: 148a 8ebe d12f 5dbd 7814 e23c 17d1 313c
000002d0: 0422 8fbe d673 903d b939 313e 5fc7 7a3d
000002e0: 1669 42be db70 a0bc 3fbe 903e 4f03 e63d
000002f0: c193 1fbe 7936 6c3d 2bdd 4a3e 0d7f d0bc
00000300: 8f44 67bd d217 61be 85b5 8a3e b64e 883e
00000310: dc27 08bd 0854 94ba 97bc d9bd 6eab 953e
00000320: 8e0e 29bd aeae 83be 1065 ef3c 4373 b2be
00000330: d9fe 3abd eb34 a63e eeb8 56be 3f24 6f3e
00000340: 484f 97bd de65 86bc 1923 f4be 1080 8a3d
00000350: 6c2d c8bc d4ce b03e 9074 18be 488e 1bbe
00000360: ea4d 50bd 20bd dbbd 0441 30bd 4a9f 44bc
00000370: 4e73 ebbc f39b 71bd 3c19 6ebf 223e 72bc
00000380: 7ff6 c1bf 0e67 13bc 3737 20be ef0f edbd
00000390: 444f c5bd fa98 65bd ff82 173e 11b1 88bd
000003a0: ef67 e0bc e4d7 2fbd 2690 e73c 17e8 5cbd
000003b0: efee 133e 47ef ab3d 80b7 16be 4614 5b3e
000003c0: a593 72bd 7b7f eebb 58b8 b63e 7e48 9c3d
000003d0: f9c6 eabc c777 49bc edc0 2fbd d58a 4cbd
000003e0: 4ea5 89bd a099 65be 0e08 5dbc f3fe 8abd
000003f0: e03c cc37 031b 033e 6bf0 553d 0179 9cbc

shared_layers.2.bias f4 [128]
-0.01008942 -0.9708857 0.901917 0.25746873 0.32006904 0.58975476 0.20604426 0.13105248
0.10422774 0.5903158 -0.15597494 -0.26811817 1.8890713 -0.043808334 2.5076349 -0.6747472
-0.0057301614 -6.6229026e-05 0.6310374 -0.61273414 0.22583473 -0.59476644 -0.078163706 -1.3694601
-0.388135 -0.28059223 1.235763 -0.05690887 -0.04470087 0.047831897 0.21045303 -0.14456016
-1.5074426 0.8139955 -1.2324057 -0.11424354 1.6080414 -0.04562861 -0.33401877 1.4512362
1.4752748 0.624706 -0.0044452865 -0.056996174 -0.79416895 -1.1852533 0.5184007 -0.030240083
0.39455944 -0.04223761 -0.12290498 0.121429764 2.0813632 0.24966216 -0.17733826 -0.26933762
-0.003860997 -0.638095 -0.0001441593 0.45703712 -0.3742403 0.6440891 -2.154489 -0.07467582
0.4471893 -0.89558184 0.8021559 -0.29859808 -0.5857051 -0.117289975 1.5174484 1.9010059
-0.25520217 0.07583784 1.2509202 1.2358557 1.946831 0.7305942 -0.21282692 -0.07538581
2.2615547 0.15019445 0.083728336 -0.943962 -2.6402748 1.9698548 1.0963254 -0.45239913
-1.0932335 0.541168 -0.009197425 2.406475 0.93318 0.4283786 -0.10099344 0.09546219
-0.055276077 2.497531 0.17140572 1.5438043 -0.02031852 1.5815146 -0.59450966 0.4238931
0.115499415 1.3378136 0.17154479 -0.51473033 -0.7325107 -0.08707161 -0.08459125 0.7571233
0.16882843 0.6134171 -0.30722886 -0.12533295 -0.045073852 0.09446205 -0.010567697 0.56604373
1.1811099 1.9125288 -0.7295738 -0.5419248 -0.15122925 0.74469197 0.08892507 -0.023708833
00000000: 184e 25bc f78b 78bf 08e4 663f f1d2 833e
00000010: 17e0 a33e 2bfa 163f 44fd 523e 9f32 063e
00000020: 5a75 d53d f01e 173f e5b7 1fbe c946 89be
00000030: 17cd f13f 5e70 33bd 177d 2040 3cbc 2cbf
00000040: 14c4 bbbb 70e4 8ab8 ab8b 213f 25dc 1cbf
00000050: 3841 673e 9d42 18bf 4b14 a0bd 784a afbf
00000060: a1b9 c6be c9a9 8fbe 7b2d 9e3f 4619 69bd
00000070: 4218 37bd 61eb 433d 0081 573e 9407 14be
00000080: e1f3 c0bf 0262 503f 78bf 9dbf 84f8 e9bd
00000090: 4dd4 cd3f 11e5 3abd 8204 abbe 1cc2 b93f
000000a0: ced5 bc3f bbec 1f3f c4a9 91bb d274 69bd
000000b0: a84e 4bbf 61b6 97bf e9b5 043f 0dba f7bc
000000c0: b203 ca3e 5801 2dbd 9bb5 fbbd 2bb0 f83d
000000d0: 0e35 0540 70a7 7f3e 2998 35be 9fe6 89be
000000e0: c808 7dbb 325a 23bf 7829 17b9 c500 ea3e
000000f0: 6d9c bfbe 06e3 243f 26e3 09c0 a3ef 98bd
00000100: fff5 e43e da44 65bf 175a 4d3f d9e1 98be
00000110: c5f0 15bf ba35 f0bd c03b c23f 2954 f33f
00000120: dca9 82be df50 9b3d 271e a03f 8530 9e3f
00000130: c231 f93f 3908 3b3f 4def 59be e063 9abd
00000140: 50bd 1040 93cc 193e c379 ab3d 7ea7 71bf
00000150: 43fa 28c0 3424 fc3f 6454 8c3f dca0 e7be
00000160: 13ef 8bbf fc89 0a3f ccb0 16bc b003 1a40
00000170: e2e4 6e3f 7154 db3e a6d5 cebd ae81 c33d
00000180: 2b69 62bd 8cd7 1f40 fb84 2f3e 619b c53f
00000190: 0673 a6bc 126f ca3f c931 18bf 8408 d93e
000001a0: f58a ec3d 7a3d ab3f 70a9 2f3e 5ec5 03bf
000001b0: d285 3bbf 9a52 b2bd 2d3e adbd d5d2 413f
000001c0: 5ce1 2c3e e708 1d3f 1a4d 9dbe 4857 00be
000001d0: 5c9f 38bd 5275 c13d 2224 2dbc 3ee8 103f
000001e0: 9c2e 973f becd f43f 59c5 3abf 95bb 0abf
000001f0: d7db 1abe 22a4 3e3f 591e b63d 0739 c2bc

policy_layers.0.weight f4 [128, 128]
-0.19241093 0.16068397 0.39888546 -0.048968744 0.011814928 -0.9981219 -0.11055823 -0.16022058
0.43775156 -0.0064448947 0.24373923 0.15339604 0.2570963 -0.54430676 -1.7324592 -0.15251589
0.029514968 -0.2838067 0.3711481 0.58959013 0.110803 0.26493606 -0.8847761 0.6013242
0.16248506 0.15259686 -0.21804747 0.44188088 -0.10639639 -0.63258654 0.25401443 -0.27765238
-0.071497425 -0.1124264 0.5626981 0.013610877 0.1891567 -0.25611982 -0.06715115 0.34761485
-0.6471998 0.1850042 0.041775927 0.7949434 0.41391617 0.56643575 0.3072244 0.8316442
0.16131258 -0.9608878 -0.25076485 0.078892834 -0.586544 0.38117185 0.5791967 -0.13725214
0.38697913 0.20326932 0.16530529 -0.02086311 0.16644728 0.093362674 -0.20114768 -0.3734958
0.23935065 0.0052871057 0.13272974 -0.0937134 -0.61442393 -0.244175 0.03161266 -1.18898
-0.974735 -0.068383776 0.6075667 -0.2549249 0.05803062 -0.28259978 0.444676 -1.0089866
0.6822941 -0.14648758 0.111149706 0.09564326 0.6205113 0.0976616 0.29967192 0.23753177
-0.020622851 0.6875629 -0.3419331 -0.32398725 -0.27699485 0.100865185 -0.0026357828 -0.12022074
-0.46634984 0.51832974 -0.1195008 -0.13854715 -0.4900226 -0.032762922 0.36398518 -0.04445156
0.43547538 0.7108764 -0.1951236 -0.41213435 0.41462478 0.3858011 0.04400557 0.9961447
0.6969442 0.04150352 -0.12890625 -0.45656642 0.11178128 -0.80563295 -0.19314855 -0.97161555
0.28599653 -0.7275514 0.3379048 -0.30493018 -0.08310857 0.13114707 -0.023523353 0.7590899
-0.6581556 -0.59866166 0.07809737 0.30089998 -0.14490235 -0.132844 0.1083301 -0.5965171
-0.27431774 -0.23493741 -0.078959875 -0.3528958 -0.2150839 -0.13377148 -0.54190886 -0.17019579
-0.42583558 -0.40193042 0.95043784 0.15583695 -0.7183241 -0.46753338 0.041622926 -0.05505184
-0.005192739 -0.028208585 0.21727435 -0.09485859 -0.012515801 -0.14606453 0.4203317 0.32539952
-0.024867006 -0.6899711 0.4426864 -0.022606349 -0.05682141 0.48215508 -0.04884246 -0.27891377
0.38890505 0.1318901 0.108358376 0.34325817 -0.30060628 -0.0053723236 -0.27417108 0.14872429
-0.15547618 0.017050834 0.43092814 -0.18047196 0.6345609 0.048774183 0.2873318 -0.8968745
0.24476644 0.08594502 -0.034392256 -0.10102259 0.13705598 -0.4539497 -0.64071405 -0.19360228
0.24018916 -0.09501185 0.17582579 -0.34928712 -0.117107384 -0.5394921 0.63099134 0.16603553
-0.05334516 0.40028527 0.18579619 -0.25309494 0.07736689 0.6865212 0.22208792 -0.88464135
0.9248773 0.5948236 0.067353636 -0.11397923 -1.0069335 -0.38341874 -0.21326059 -0.31711704
0.086704485 0.71527946 -0.11008686 0.21028149 -0.17604989 0.06822732 -0.18815735 -0.13951153
0.18299504 0.05914804 -0.12615336 0.34803927 -0.5040032 0.7285179 0.26875418 0.43278232
0.3274052 0.05443216 0.18937182 -0.07113103 0.006984918 -0.38838553 -0.53312105 0.45475534
0.14242913 0.011365642 0.34337363 -0.023751875 0.0727945 0.16144268 0.14705032 0.76323134
0.14052008 -0.48513016 -0.40409213 0.56397986 -0.035099022 0.22806281 1.1579676 -0.20230256
00000000: 5f07 45be 578a 243e b73a cc3e 7393 48bd
00000010: 6693 413c eb84 7fbf 5a6c e2bd dd10 24be
00000020: f920 e03e b22f d3bb c796 793e da13 1d3e
00000030: 20a2 833e b057 0bbf 39c1 ddbf 202d 1cbe
00000040: 60c9 f13c 1d4f 91be 2007 be3e 61ef 163f
00000050: afec e23d b3a5 873e b080 62bf 62f0 193f
00000060: 7c62 263e 5a42 1c3e d647 5fbe 363e e23e
00000070: 5ae6 d9bd 31f1 21bf 2e0e 823e 7428 8ebe
00000080: 3e6d 92bd d03f e6bd fc0c 103f 2800 5f3c
00000090: 4bb2 413e 2322 83be 8b86 89bd 93fa b13e
000000a0: e3ae 25bf be71 3d3e 3c1d 2b3d 6981 4b3f
000000b0: d2ec d33e ef01 113f 844c 9d3e a2e6 543f
000000c0: 202f 253e befc 75bf 4064 80be 9192 a13d
000000d0: bf27 16bf f528 c33e 3c46 143f d38b 0cbe
000000e0: 2122 c63e d525 503e ca45 293e 1de9 aabc
000000f0: 2871 2a3e ee34 bf3d a8f9 4dbe d73a bfbe
00000100: 5618 753e 753f ad3b 4eea 073e d0ec bfbd
00000110: e34a 1dbf 0309 7abe 477c 013d 7f30 98bf
00000120: 3c88 79bf cb0c 8cbd 7e89 1b3f 8485 82be
00000130: 84b1 6d3d ebb0 90be 93ac e33e 7926 81bf
00000140: d3aa 2e3f d700 16be 75a2 e33d 9de0 c33d
00000150: d4d9 1e3f ce02 c83d 996e 993e 873b 733e
00000160: 41f1 a8bc 1f04 303f db11 afbe a8e1 a5be
00000170: 45d2 8dbe 6892 ce3d 19bd 2cbb 4b36 f6bd
00000180: 68c5 eebe 42b1 043f d6bc f4bd 4edf 0dbe
00000190: 3ee4 fabe 6a32 06bd 445c ba3e d712 36bd
000001a0: a1f6 de3e fffb 353f 7bce 47be 4603 d3be
000001b0: b349 d43e b987 c53e 2f3f 343d 5703 7f3f
000001c0: ef6a 323f 98ff 293d 0000 04be 13c3 e9be
000001d0: 95ed e43d f63d 4ebf bcc8 45be ccbb 78bf
000001e0: 236e 923e cf40 3abf dc01 ad3e cf1f 9cbe
000001f0: d334 aabd 6b4b 063e 0cb4 c0bc b753 423f
00000200: e37c 28bf e441 19bf 84f1 9f3d 900f 9a3e
00000210: 4861 14be 4208 08be 2cdc dd3d 58b5 18bf
00000220: 6073 8cbe 6f93 70be b7b5 a1bd c2ae b4be
00000230: f43e 5cbe 64fb 08be 8aba 0abf ce47 2ebe
00000240: 1f07 dabe d3c9 cdbe e54f 733f b993 1f3e
00000250: 17e4 37bf 8960 efbe cd7c 2a3d 0a7e 61bd
00000260: da27 aabb b115 e7bc 2b7d 5e3e 3845 c2bd
00000270: 130f 4dbc f191 15be b735 d73e c49a a63e
00000280: e4b5 cbbc f2a1 30bf cba7 e23e f330 b9bc
00000290: 91bd 68bd 08dd f63e 080f 48bd c9cd 8ebe
000002a0: 901e c73e 330e 073e ffea dd3d 89bf af3e
000002b0: 11e9 99be 510a b0bb 2760 8cbe 2e4b 183e
000002c0: 2635 1fbe 31ae 8b3c 9da2 dc3e a4cd 38be
000002d0: 9572 223f 70c7 473d 271d 933e 9199 65bf
000002e0: 0ea4 7a3e f103 b03d e5de 0cbd efe4 cebd
000002f0: 6758 0c3e 186c e8be d605 24bf ad3f 46be
00000300: 26f4 753e 9395 c2bd ad0b 343e c3d5 b2be
00000310: ffd5 efbd 271c 0abf a688 213f 3805 2a3e
00000320: 7480 5abd 31f2 cc3e 5b41 3e3e a995 81be
00000330: 8872 9e3d dabf 2f3f 046b 633e db77 62bf
00000340: c2c4 6c3f 5c46 183f b4f0 893d f16d e9bd
00000350: 32e3 80bf 764f c4be fc60 5abe 2a5d a2be
00000360: 1f92 b13d 8e1c 373f 3875 e1bd 0854 573e
00000370: 6c46 34be c4ba 8b3d 52ac 40be 1cdc 0ebe
00000380: 0d63 3b3e 3745 723d 592e 01be 3432 b23e
00000390: 5b06 01bf 2680 3a3f 269a 893e a595 dd3e
000003a0: a8a1 a73e 42f4 5e3d b0ea 413e 25ad 91bd
000003b0: bde1 e43b 78da c6be 9f7a 08bf b1d5 e83e
000003c0: f1d8 113e f536 3a3c abce af3e 4b93 c2bc
000003d0: 4815 953d 3b51 253e 5c94 163e 2163 433f
000003e0: 7fe4 0f3e fb62 f8be 2ae5 cebe fc60 103f
000003f0: fec3 0fbd 4c89 693e 4838 943f 6728 4fbe

policy_layers.0.bias f4 [128]
0.09338077 -0.797338 1.0767628 -0.08615002 -0.7892087 -0.86297196 -0.6496091 0.3573278
-0.00873471 -1.2473804 1.1571276 -0.7023712 0.6096656 -0.06777209 0.1672164 0.55799073
1.524356 -0.29224846 1.4915303 0.20435409 0.85102075 1.6627979 -0.6375276 -1.4614345
-0.9938664 0.37968177 -0.73578274 0.41847163 -0.8143979 1.0301341 -0.7531534 0.39879665
-0.02541906 -0.6036809 -0.7983024 -0.63923115 -1.0364491 -0.86958796 -0.8451446 0.2478587
1.6090783 -0.5971403 -0.8584448 0.61053056 0.0151014365 1.0195413 0.5084058 -0.80838114
-0.5183749 -0.15329748 -0.74657834 -0.3827951 0.45976484 -1.1685538 0.10810146 -0.16870053
0.32325745 -0.61645234 -0.12763783 1.9355627 -1.0073837 0.09112427 0.6630601 -0.60188603
0.17272592 0.31488913 1.3823106 -0.6516287 -0.29248086 -0.12073479 0.05100305 -0.84362584
-0.83662146 -0.6848665 -0.17913777 1.5754772 0.81853753 -0.162228 0.45030463 0.25703472
0.27556974 1.8592484 0.2588161 -1.1308908 0.9970212 1.8295037 0.8824978 0.07785465
-0.98775584 -0.46207884 0.21329577 -0.609943 1.4018272 1.791325 -0.79703856 1.3811793
-0.00462081 0.8620725 0.36748925 -0.17117256 1.4905908 -0.033272203 -0.5202641 -0.29279855
0.4837139 1.0584915 1.7088969 -0.5950973 1.3456317 0.3038493 0.3172509 0.5687687
0.31854427 -1.0458153 0.2295373 1.9029148 -1.056785 -0.66075575 1.0255651 -0.8736971
1.5677514 -0.28604236 0.115471505 -0.25240013 -0.68464005 0.1286068 0.37236413 -0.44464803
00000000: 6b3e bf3d 581e 4cbf 5dd3 893f 6c6f b0bd
00000010: 9509 4abf bbeb 5cbf c84c 26bf abf3 b63e
00000020: 071c 0fbc 29aa 9fbf c21c 943f 99ce 33bf
00000030: 0b13 1c3f 18cc 8abd c73a 2b3e 7bd8 0e3f
00000040: 191e c33f 97a1 95be 77ea be3f 3342 513e
00000050: 7fdc 593f 90d6 d43f 0235 23bf 4910 bbbf
00000060: 076e 7ebf a665 c23e 425c 3cbf ea41 d63e
00000070: 617c 50bf 6fdb 833f a9ce 40bf 132f cc3e
00000080: a23b d0bc d58a 1abf 8c5d 4cbf a7a4 23bf
00000090: 5daa 84bf 519d 5ebf 665b 58bf acce 7d3e
000000a0: 47f6 cd3f 30de 18bf 0ac3 5bbf bb4b 1c3f
000000b0: 046c 773c 5480 823f e226 023f 11f2 4ebf
000000c0: 38b4 04bf 04fa 1cbe c21f 3fbf b8fd c3be
000000d0: 4c66 eb3e 2c93 95bf 4c64 dd3d d5bf 2cbe
000000e0: 0082 a53e d2cf 1dbf 7eb3 02be 85c0 f73f
000000f0: f3f1 80bf 5c9f ba3d 4fbe 293f 3415 1abf
00000100: 10df 303e 2639 a13e 8eef b03f 23d1 26bf
00000110: 0dc0 95be cd43 f7bd 93e8 503d ddf7 57bf
00000120: d32c 56bf 6953 2fbf e46f 37be 3da9 c93f
00000130: ad8b 513f 191f 26be 548e e63e 0e9a 833e
00000140: 7a17 8d3e dafb ed3f 8b83 843e 08c1 90bf
00000150: c83c 7f3f 2d2d ea3f 60eb 613f 4272 9f3d
00000160: 91dd 7cbf 9995 ecbe 356a 5a3e 3925 1cbf
00000170: 136f b33f 234a e53f b80a 4cbf 7cca b03f
00000180: 2a6a 97bb c9b0 5c3f 8d27 bc3e dc47 2fbe
00000190: aecb be3f 6f48 08bd 0730 05bf b1e9 95be
000001a0: 59a9 f73e a67c 873f 22bd da3f 4c58 18bf
000001b0: a93d ac3f 2392 9b3e b66e a23e d39a 113f
000001c0: 3c18 a33e 47dd 85bf d30b 6b3e b692 f33f
000001d0: bb44 87bf 4a27 29bf b845 833f 9daa 5fbf
000001e0: 14ac c83f 2574 92be 537c ec3d 973a 81be
000001f0: 9244 2fbf 80b1 033e 83a6 be3e e8a8 e3be

policy_layers.2.weight f4 [7, 128]
1.7216522 -1.2781641 1.288634 2.98085 -1.2089794 3.9443383 2.8280182 2.3056047
0.43143907 -2.9838276 2.4588227 2.0114207 1.2771337 2.1873095 1.2773787 1.4373758
1.4295917 2.5919573 1.1786921 2.5661273 2.3610265 1.2735673 2.4444673 3.5686738
2.8424935 1.6957189 2.300331 1.8439462 3.320514 1.299047 3.9818115 1.4556264
1.5558666 3.2792432 2.2665377 1.8498546 2.1055987 2.1912305 3.911236 1.9517112
1.5833236 -0.32860276 3.4135015 1.5392584 4.646297 1.530581 1.8030758 3.7397568
2.1156049 2.0001068 2.977275 1.6558275 1.4962437 3.6453943 2.7831604 -0.9255357
2.0147297 -1.1483133 2.0412476 0.8310165 3.088161 4.042164 1.341952 2.7210162
1.5129213 1.9337652 2.0152667 1.9553547 -7.6530538 -2.8362532 1.0650686 3.1456833
2.8934433 2.9644184 1.45569 1.2733052 1.3611411 -3.7299666 1.4114118 1.855336
1.5505886 1.4312454 1.0692517 3.4222722 1.5328833 1.0928147 1.788986 3.1663544
2.1362119 2.0696766 2.7412755 -0.955665 1.3708532 1.0890503 2.5221398 1.8191776
1.9813149 2.0407698 2.5242107 -2.005652 0.8482097 2.7615156 3.1139235 -4.85054
1.882766 1.6913911 1.2942861 2.2131119 1.6885344 3.5518029 1.7289479 2.892513
3.5084863 2.370505 4.3311234 1.4389948 -1.589702 2.342623 1.2554824 3.8395054
1.028701 -3.6610947 1.8953432 3.0175962 1.3565643 2.2438772 1.218912 0.058331307
2.105645 1.3804193 1.304202 1.4460062 1.5754489 4.0062337 4.7385054 2.5306242
2.1457894 3.0251503 1.2266424 2.683889 2.2471774 3.2757962 0.26639658 0.27580917
0.72781336 4.1911483 1.0447096 3.6756477 2.0481348 -0.051848017 3.9066315 4.198341
3.488093 -0.2691916 3.0798182 2.7270517 1.5649999 -0.38927895 3.743422 -0.42573035
1.5372066 2.2388039 2.4222002 2.0196767 1.5609688 1.1395446 3.1302626 0.9313174
1.8416605 1.8514088 4.4190464 1.3195007 3.4358435 1.7580101 1.6139628 5.5904856
0.71824807 2.5047712 4.7137146 1.732139 -0.98402154 3.8829615 0.0813865 1.5119303
1.5904953 1.6118685 2.3623123 0.8800036 2.2551255 1.7161059 0.4202156 1.8956324
1.9319845 2.4202561 0.2754411 0.15296978 3.5593886 0.84582675 2.958042 3.3944273
1.2260766 3.272768 2.3077369 -0.23507203 1.900734 1.0647753 2.408872 0.85284245
1.6827492 2.1342702 0.044482417 2.3854547 1.6685387 1.3765049 1.5717132 3.128668
4.172415 4.083637 0.87663084 2.1598423 0.47373804 1.2324654 3.8171222 1.4246597
2.5547636 2.1599019 0.684905 1.8192892 1.0092264 1.4307173 3.8708112 2.073962
3.5262132 1.0960028 1.5706723 4.2594876 1.0762637 2.2579782 1.5099665 0.96168923
2.8367827 3.8188457 1.7497352 1.5247885 2.9984682 3.3141718 2.3831022 1.5972867
-1.6049819 2.2871032 0.35667032 2.0715337 1.3328495 2.0494347 -1.8650255 2.0606656
00000000: 195f dc3f e29a a3bf f5f1 a43f 3fc6 3e40
00000010: d6bf 9abf 0a70 7c40 40fe 3440 078f 1340
00000020: 95e5 dc3e 08f7 3ec0 5a5d 1d40 1ebb 0040
00000030: 1e79 a33f e1fc 0b40 2581 a33f eefb b73f
00000040: dcfc b63f a1e2 2540 62df 963f 6e3b 2440
00000050: 0f1b 1740 4104 a33f 2772 1c40 2765 6440
00000060: 6aeb 3540 510d d93f a038 1340 6e06 ec3f
00000070: 4d83 5440 2c47 a63f 00d6 7e40 f751 ba3f
00000080: a326 c73f 1fdf 5140 f40e 1140 09c8 ec3f
00000090: 21c2 0640 1f3d 0c40 b151 7a40 acd1 f93f
000000a0: 59aa ca3f 9f3e a8be cf76 5a40 6b06 c53f
000000b0: 77ae 9440 14ea c33f 30cb e63f 2d58 6f40
000000c0: 1266 0740 c001 0040 ac8b 3e40 28f2 d33f
000000d0: ea84 bf3f 244e 6940 4d1f 3240 e8ef 6cbf
000000e0: 55f1 0040 eefb 92bf cda3 0240 7fbd 543f
000000f0: 6ea4 4540 6859 8140 15c5 ab3f 2125 2e40
00000100: 68a7 c13f 9e85 f73f 21fa 0040 1049 fa3f
00000110: d1e5 f4c0 2c85 35c0 2b54 883f e052 4940
00000120: 2d2e 3940 08b9 3d40 0d54 ba3f aafb a23f
00000130: df39 ae3f c6b7 6ec0 24a9 b43f a67b ed3f
00000140: b079 c63f 0d33 b73f 3ddd 883f 8206 5b40
00000150: 8535 c43f 5ae1 8b3f 7efd e43f 8da5 4a40
00000160: b2b7 0840 9575 0440 0f71 2f40 76a6 74bf
00000170: 1e78 af3f 0066 8b3f bd6a 2140 d0da e83f
00000180: ba9b fd3f f99b 0240 ab8c 2140 9a5c 00c0
00000190: 4524 593f acbc 3040 864a 4740 a037 9bc0
000001a0: 7afe f03f 817f d83f 2bab a53f a0a3 0d40
000001b0: e521 d83f bd50 6340 2a4e dd3f ef1e 3940
000001c0: 0a8b 6040 5bb6 1740 9098 8a40 fb30 b83f
000001d0: 5b7b cbbf 89ed 1540 a6b3 a03f 75ba 7540
000001e0: 79ac 833f 604f 6ac0 9b9a f23f 4c20 4140
000001f0: e6a3 ad3f af9b 0f40 4f05 9c3f cfec 6e3d
00000200: e3c2 0640 94b1 b03f 17f0 a63f bb16 b93f
00000210: 4fa8 c93f 1133 8040 d6a1 9740 bff5 2140
00000220: 9d54 0940 109c 4140 9e02 9d3f d6c4 2b40
00000230: c1d1 0f40 a5a6 5140 2265 883e dc36 8d3e
00000240: fa51 3a3f e31d 8640 0bb9 853f d03d 6b40
00000250: a414 0340 965e 54bd 4006 7a40 cf58 8640
00000260: ea3c 5f40 7bd3 89be be1b 4540 0488 2e40
00000270: eb51 c83f 924f c7be 3a94 6f40 54f9 d9be
00000280: 30c3 c43f 9048 0f40 5405 1b40 6242 0140
00000290: d3cd c73f 99dc 913f 3956 4840 d16a 6e3f
000002a0: 88bb eb3f f7fa ec3f d468 8d40 66e5 a83f
000002b0: dce4 5b40 7a06 e13f 5596 ce3f 42e5 b240
000002c0: 1bdf 373f 2c4e 2040 c0d6 9640 bbb6 dd3f
000002d0: d6e8 7bbf 7182 7840 f7ad a63d ef86 c13f
000002e0: 5a95 cb3f b551 ce3f 2030 1740 ea47 613f
000002f0: fa53 1040 5ca9 db3f 8026 d73e 15a4 f23f
00000300: 454b f73f 7ae5 1a40 9e06 8d3e 1ca4 1c3e
00000310: 06cd 6340 1a88 583f 8f50 3d40 4c3e 5940
00000320: 14f0 9c3f 0875 5140 f6b1 1340 b9b6 70be
00000330: 404b f33f 8f4a 883f f52a 1a40 e253 5a3f
00000340: 5364 d73f e297 0840 3233 363d 4aab 1840
00000350: ad92 d53f 5031 b03f e62d c93f 193c 4840
00000360: 6c84 8540 28ad 8240 e16a 603f db3a 0a40
00000370: cb8d f23e 6dc1 9d3f bb4b 7440 405b b63f
00000380: 3f81 2340 d53b 0a40 ef55 2f3f 78de e83f
00000390: 552e 813f bf21 b73f 5fbb 7740 cbbb 0440
000003a0: 7aad 6140 d249 8c3f ca0b c93f b94d 8840
000003b0: 02c3 893f b782 1040 9546 c13f 4431 763f
000003c0: d98d 3540 f867 7440 53f7 df3f 452c c33f
000003d0: e7e6 3f40 641b 5440 bf84 1840 e473 cc3f
000003e0: 0c70 cdbf e65f 1240 7e9d b63e 0294 0440
000003f0: d09a aa3f f029 0340 28b9 eebf f2e1 0340

policy_layers.2.bias f4 [7]
1.1326089 0.8570359 1.1631943 1.3217936 1.6871152 1.2658746 0.9805424
00000000: 54f9 903f b466 5b3f 8de3 943f 8830 a93f
00000010: 64f3 d73f 2e08 a23f d404 7b3f

value_layers.0.weight f4 [128, 128]
-2.2875295 -1.2279168 -0.9770976 0.4983833 0.34330288 -0.11121659 0.03504485 0.4583619
0.18336025 0.29248947 -0.03660236 0.3286799 0.2857546 1.0190495 1.2001171 -1.0619941
-0.7569456 -0.054918423 -1.388833 0.035295576 0.66868114 -0.43007234 0.533565 -1.7912331
-0.114696 -1.884313 -1.1439941 1.7048699 0.9599483 1.6086943 0.954663 0.2769265
0.42656738 0.40098888 -1.9453999 -0.41154814 -1.3274491 -1.0662466 -0.41866216 -1.2367111
1.610434 -2.3555021 1.7494123 0.11405498 -0.69413483 0.72966397 0.8007738 1.1012334
0.8786341 0.45835868 -0.45007083 -0.7134515 -1.8479326 0.77644855 1.9803716 -0.4062501
-0.6280509 0.2530127 -1.3508705 0.81213063 0.09713228 0.5752347 -0.1534782 0.53811157
-1.4403319 -0.69319445 0.570955 0.108789116 1.3241992 -0.24308477 -1.6452508 -1.2457148
0.2450903 0.030008312 0.19066417 0.5204232 -1.008087 1.6213002 1.163374 -0.08377761
0.19839248 0.48749265 -0.20804241 -0.41990295 -0.6312194 0.7046267 -0.06452723 -0.6583729
0.30155474 -2.2898366 0.6901228 0.42509276 0.1954803 -2.5804632 -1.0087959 0.33493143
0.48881137 0.8684709 -0.18118072 -0.21600077 -0.14609441 -0.7689573 -0.21613315 -0.3096374
-2.1159766 -1.0972509 -2.872066 0.6612813 0.7055134 -0.52691215 0.18572168 0.7570854
-0.49819392 0.34495857 -0.17625563 -0.12117177 0.19884478 1.4039774 -0.0396261 0.29570025
-0.006082654 -0.86751366 0.54306966 2.1342275 -0.07246925 0.68829244 -1.1507282 -2.9505932
-0.49801376 -0.0638195 0.44273737 -0.16690297 1.4198713 -0.7530741 -0.45194378 -1.7915696
0.4599427 0.37243938 -0.074180916 0.034674622 -0.1140012 -2.0992002 0.43297467 -1.9464046
-0.6050229 1.0528961 0.03443391 0.0952679 -0.9753053 -1.8041157 -0.45816332 0.16664441
0.09163009 -3.0429366 -1.2966605 -0.61265624 0.082318746 -0.8429177 0.6470468 -1.618606
-0.6895867 -0.14992069 -0.47254577 0.58104837 -0.30075705 0.45440692 1.3533177 0.14662273
0.5757473 -2.0545764 -0.84034973 1.4142257 0.387652 -0.091317475 0.5592319 -0.111104205
0.18205442 -1.006057 2.2638028 -0.22296534 -0.40132704 0.3672375 -0.57396156 -1.5930315
0.42303118 -1.4824156 -1.0583177 -1.0292815 -0.4746442 0.080947824 -1.987472 -0.67634755
-2.2155366 -0.3806244 -0.9764248 -0.049095564 0.043529373 -0.46653053 -0.33899882 -0.40905443
-0.8213023 -0.44393274 0.04646296 -1.2615778 0.31612018 0.6682541 0.50399435 -0.39975184
0.17925265 0.5147413 0.06895712 0.036636077 -0.7773289 -1.7267596 -1.0040247 -1.17639
-0.6944988 -0.41973704 1.0477254 0.19970244 -0.71608776 0.31861183 -0.56070244 0.06360991
-0.9937342 -1.0946703 0.76807934 0.14423302 0.3955985 -0.42578217 0.32836565 -1.2860477
-0.88698816 -0.4565186 -2.2573202 0.39276195 -0.49337408 -2.2206452 -0.7484673 -1.0419251
-0.8709022 0.79715884 -0.13218473 -2.0938928 0.6809701 1.0013094 -0.012273705 -3.1034722
0.36154276 0.8831639 0.04166091 -0.8416639 0.8956852 0.25148216 -0.26969057 0.5893305
00000000: e266 12c0 612c 9dbf 1123 7abf 192c ff3e
00000010: 65c5 af3e 86c5 e3bd 308b 0f3d 69ae ea3e
00000020: cac2 3b3e 2ec1 953e 5bec 15bd bb48 a83e
00000030: 6d4e 923e 3770 823f 709d 993f 6cef 87bf
00000040: 30c7 41bf 24f2 60bd 48c5 b1bf 1892 103d
00000050: b02e 2b3f 7132 dcbe b797 083f 2047 e5bf
00000060: bde5 eabd 2b31 f1bf 666e 92bf 2d39 da3f
00000070: 2cbf 753f b2e9 cd3f cb64 743f 4fc9 8d3e
00000080: 0a67 da3e 6a4e cd3e dd02 f9bf 70b6 d2be
00000090: dae9 a9bf c57a 88bf e35a d6be 8d4c 9ebf
000000a0: b422 ce3f 8cc0 16c0 beec df3f a895 e93d
000000b0: d2b2 31bf 42cb 3a3f 83ff 4c3f 37f5 8c3f
000000c0: 2aee 603f fdad ea3e af6f e6be c2a4 36bf
000000d0: 0e89 ecbf 55c5 463f d17c fd3f 0300 d0be
000000e0: f2c7 20bf e18a 813e 53e9 acbf cbe7 4f3f
000000f0: 4aed c63d 9542 133f 6429 1dbe aec1 093f
00000100: cc5c b8bf 3175 31bf 1b2a 123f d4cc de3d
00000110: 5c7f a93f 37eb 78be 9497 d2bf 9573 9fbf
00000120: f4f8 7a3e fed3 f53c 783d 433e 743a 053f
00000130: ff08 81bf c486 cf3f 70e9 943f 9893 abbd
00000140: 6627 4b3e a398 f93e 1209 55be 85fd d6be
00000150: 9897 21bf 6a62 343f da26 84bd 208b 28bf
00000160: 6265 9a3e af8c 12c0 e3ab 303f c2a5 d93e
00000170: fd2b 483e 4f26 25c0 3920 81bf 227c ab3e
00000180: 7c45 fa3e 1c54 5e3f 7087 39be 4e2f 5dbe
00000190: c699 15be 63da 44bf 0252 5dbe cb88 9ebe
000001a0: 296c 07c0 b872 8cbf eecf 37c0 bb49 293f
000001b0: 879c 343f b7e3 06bf d32d 3e3e 59d0 413f
000001c0: 4613 ffbe 699e b03e 5b7c 34be e828 f8bd
000001d0: f79d 4b3e 88b5 b33f fa4e 22bd 0666 973e
000001e0: 0051 c7bb 6015 5ebf 9d06 0b3f 2f97 0840
000001f0: c26a 94bd ef33 303f 104b 93bf 85d6 3cc0
00000200: a9fb febe ccb3 82bd 79ae e23e 9de8 2abe
00000210: 58be b53f 77c9 40bf 2d65 e7be 2752 e5bf
00000220: 9c7d eb3e 60b0 be3e 2aec 97bd fa06 0e3d
00000230: 7679 e9bd 4c59 06c0 dbae dd3e c923 f9bf
00000240: c8e2 1abf 4dc5 863f 920a 0d3d d11b c33d
00000250: 9cad 79bf 43ed e6bf 6294 eabe d5a4 2a3e
00000260: 8ea8 bb3d 79bf 42c0 f9f8 a5bf 0ad7 1cbf
00000270: bb96 a83d 74c9 57bf dca4 253f 7b2e cfbf
00000280: c188 30bf cf84 19be 85f1 f1be 96bf 143f
00000290: d4fc 99be 06a8 e83e 8439 ad3f 4524 163e
000002a0: 2d64 133f 2e7e 03c0 2921 57bf 5905 b53f
000002b0: 537a c63e a804 bbbd d229 0f3f 9a8a e3bd
000002c0: 796c 3a3e 7ac6 80bf 25e2 1040 0751 64be
000002d0: bd7a cdbe 8e06 bc3e 25ef 12bf 75e8 cbbf
000002e0: 8b97 d83e cbbf bdbf f476 87bf 7fbf 83bf
000002f0: 9104 f3be f9c7 a53d 7c65 febf 1d25 2dbf
00000300: 5acb 0dc0 34e1 c2be faf6 79bf 6e18 49bd
00000310: db4b 323d 17dd eebe 4191 adbe 956f d1be
00000320: de40 52bf 274b e3be f24f 3e3d 627b a1bf
00000330: 81da a13e b312 2b3f c605 013f 46ac ccbe
00000340: 028e 373e 16c6 033f 6439 8d3d b60f 163d
00000350: 07ff 46bf 7506 ddbf e283 80bf f393 96bf
00000360: acca 31bf c6e7 d6be de1b 863f cc7e 4c3e
00000370: 8751 37bf 1721 a33e 328a 0fbf ea45 823d
00000380: 5d65 7ebf 281e 8cbf d9a0 443f d2b1 133e
00000390: e38b ca3e 1f00 dabe 8b1f a83e 369d a4bf
000003a0: a811 63bf cebc e9be ef77 10c0 1818 c93e
000003b0: 879b fcbe 0d1f 0ec0 8e9b 3fbf cd5d 85bf
000003c0: 72f3 5ebf 9a12 4c3f 6f5b 07be 5702 06c0
000003d0: 0e54 2e3f e82a 803f a617 49bc 4a9f 46c0
000003e0: 221c b93e 0817 623f a1a4 2a3d 4977 57bf
000003f0: a04b 653f 45c2 803e e214 8abe 5dde 163f

value_layers.0.bias f4 [128]
0.43954122 2.1371794 -0.5587351 0.8641481 -0.49594194 -1.2543406 -0.30147782 1.2547909
-1.1335845 -1.1723418 -0.35415813 -0.41567367 -0.37585258 -0.95741266 -0.6080384 -0.1766577
-0.3003061 -0.1932023 -0.7523067 -0.1823418 -0.056885105 -1.0522336 -0.368982 2.4249616
-0.30979615 -0.051954173 0.6771839 -0.38109976 -1.4655539 -0.17716771 -0.87444234 -0.22276624
-0.6634159 1.4391409 -0.55943877 -0.27051067 0.87046194 -0.70021 -1.613932 -0.6877358
0.09896058 -1.179934 -0.21202922 -0.35108697 0.7721173 0.6120368 0.7928236 -0.74408436
-0.27512836 0.41999722 -0.49836802 1.4195881 -0.8523889 -1.2075504 1.5310204 -1.0494086
-0.2983426 -1.3763933 -0.22011869 -0.031949908 -0.9683578 1.4741513 -0.29649496 0.21459623
-0.13907188 -0.11181864 -0.10294397 -0.04590117 -0.52335465 -1.6118345 -0.3348712 0.3888781
-0.26275346 -0.5638156 0.17586267 -0.2744779 0.35208845 -0.13088629 0.47087368 0.46911827
-0.43090552 0.35465008 -0.31724992 -0.2900265 -0.24766448 -1.0058244 -0.025255445 -0.2813394
-1.2531904 -0.4340294 -0.6287409 -0.071658984 -0.66040295 0.80729926 -0.22753447 -0.32926756
-0.4893139 -0.113239035 -0.04701702 -0.6922445 -0.5489267 -0.5662532 -0.009225417 -1.1914965
-0.23604605 -1.0826612 0.46291795 -0.78631455 -0.40254006 -0.29159224 1.4650887 -0.5325288
0.9962771 -0.76697415 -0.5681954 0.22198679 -0.20586486 -0.17110066 -0.3078453 0.37468413
-0.3010013 1.4108624 0.5137607 -1.1835157 -0.3205287 0.028677825 -0.2990465 -1.0409414
00000000: 8c0b e13e 8cc7 0840 4309 0fbf cf38 5d3f
00000010: 1aec fdbe 3c8e a0bf 4d5b 9abe fd9c a03f
00000020: 4c19 91bf 4c0f 96bf 3754 b5be 2ed3 d4be
00000030: c06f c0be ff18 75bf 68a8 1bbf c2e5 34be
00000040: b9c1 99be d3d6 45be 2c97 40bf cfb7 3abe
00000050: 5b00 69bd 97af 86bf 35eb bcbe 9232 1b40
00000060: 9a9d 9ebe e6cd 54bd ed5b 2d3f 821f c3be
00000070: 4597 bbbf 746b 35be 74db 5fbf d51c 64be
00000080: a0d5 29bf c535 b83f 6137 0fbf 6080 8abe
00000090: 98d6 5e3f f640 33bf 5395 cebf 740f 30bf
000000a0: d8ab ca3d 1408 97bf 301e 59be acc1 b3be
000000b0: 7ba9 453f 72ae 1c3f 7df6 4a3f 507c 3ebf
000000c0: a0dd 8cbe e009 d73e 182a ffbe 10b5 b53f
000000d0: 2936 5abf 0391 9abf 7af8 c33f 0553 86bf
000000e0: 5cc0 98be a82d b0bf cb66 61be e8dd 02bd
000000f0: 4ce6 77bf fdb0 bc3f 30ce 97be 1dbf 5b3e
00000100: dc68 0ebe 2c01 e5bd 4ad4 d2bd dd02 3cbd
00000110: 92fa 05bf 9850 cebf 3d74 abbe 081b c73e
00000120: 9f87 86be 3856 10bf 5815 343e 5e88 8cbe
00000130: f044 b43e 0e07 06be 5b16 f13e 4530 f03e
00000140: a69f dcbe b294 b53e 956e a2be 5a7e 94be
00000150: c29b 7dbe dbbe 80bf 82e4 cebc b80b 90be
00000160: 8b68 a0bf 1a39 debe 2af5 20bf f2c1 92bd
00000170: 2b10 29bf 2aab 4e3f ccfe 68be c295 a8be
00000180: 5a87 fabe dee9 e7bd eb94 40bd f036 31bf
00000190: 7686 0cbf f8f5 10bf 3426 17bc f582 98bf
000001a0: 0eb6 71be a494 8abf 9503 ed3e e94b 49bf
000001b0: bb19 cebe 944b 95be 0788 bb3f cf53 08bf
000001c0: 040c 7f3f 6b58 44bf 4175 11bf 8150 633e
000001d0: 3dce 52be 0335 2fbe e69d 9dbe 99d6 bf3e
000001e0: d81c 9abe 2497 b43f d285 033f 717d 97bf
000001f0: 561c a4be c2ed ea3c 9f1c 99be 913d 85bf

value_layers.2.weight f4 [1, 128]
-0.12873867 -0.028814811 0.27995908 0.2951371 2.3731732 -2.4181435 -1.0597404 -0.10559492
-0.8401473 -0.23543783 -1.3430789 -1.6346192 0.74430233 -0.781987 0.9517386 -3.1433036
-2.1113951 -0.35185343 -0.5916234 -2.4816535 -0.04885751 0.21637821 0.4560393 0.53030634
-1.8514466 0.8241434 0.57215345 1.0131423 -2.8898468 -2.2465858 -1.3158169 1.4565489
-0.6985725 -0.77700585 -1.6650106 -1.7851506 -1.5289031 -1.5963337 -2.1857538 -1.2707013
2.4727657 -1.4539157 0.32756126 0.99524224 0.7372522 0.43994483 1.0606896 -0.55681413
-2.150874 0.9030705 -0.4161137 -1.7876979 0.84985197 -3.2722719 -1.2386895 -0.7636186
2.2012632 -2.0951693 -0.33522582 0.00651942 -0.55196744 1.8951023 -1.9233036 -0.36427525
-1.4415836 -2.770743 -1.1301796 -0.034294568 0.87967324 -1.6328874 -1.9678116 0.25160474
-1.0671927 -1.5907043 -0.80724955 1.4268948 1.6628722 -1.7816958 0.190644 2.3342187
-2.8550763 -1.1993939 -2.0125723 -0.7855588 -2.2340205 -0.3304438 -1.377297 -1.702539
-1.6611934 -0.71096706 -0.36153677 -1.99017 -2.3457541 0.048697874 0.11956093 -0.3412182
0.7715343 0.72814935 -0.30834103 0.3266992 -1.221601 0.62828696 0.047293574 -2.166483
-0.30247492 -1.7366022 -0.04259056 -2.834244 -0.7945931 -0.81271046 0.047974207 -0.3198905
-2.6085021 -1.0521474 -1.975973 0.36905807 0.52145267 0.7291837 -2.0860171 0.53863555
-0.006284722 0.7308371 0.6810354 -2.37942 0.2974812 0.06601833 -2.0061967 -1.2834651
00000000: 12d4 03be 0a0d ecbc cc56 8f3e 361c 973e
00000010: 12e2 1740 ddc2 1ac0 93a5 87bf 2642 d8bd
00000020: e513 57bf 9d16 71be 02ea abbf 343b d1bf
00000030: 998a 3e3f 4d30 48bf 24a5 733f e32b 49c0
00000040: 1921 07c0 2226 b4be a274 17bf 69d3 1ec0
00000050: d01e 48bd 4092 5d3e fc7d e93e 28c2 073f
00000060: 34fc ecbf 10fb 523f a678 123f a6ae 813f
00000070: 40f3 38c0 10c8 0fc0 b06c a8bf 3270 ba3f
00000080: a6d5 32bf dbe9 46bf 111f d5bf d17f e4bf
00000090: 19b3 c3bf aa54 ccbf 64e3 0bc0 57a6 a2bf
000000a0: cb41 1e40 e919 babf 1cb6 a73e 32c8 7e3f
000000b0: 8fbc 3c3f 7340 e13e adc4 873f 5f8b 0ebf
000000c0: eba7 09c0 a12f 673f db0c d5be 49d3 e4bf
000000d0: e68f 593f e76c 51c0 618d 9ebf 827c 43bf
000000e0: 7fe1 0c40 4117 06c0 b8a2 abbe dca0 d53b
000000f0: bd4d 0dbf b692 f23f d02e f6bf 4982 babe
00000100: d085 b8bf da53 31c0 baa9 90bf 7678 0cbd
00000110: 4432 613f 7402 d1bf 40e1 fbbf 56d2 803e
00000120: c599 88bf 339c cbbf e8a7 4ebf 7da4 b63f
00000130: ffd8 d43f 9c0e e4bf 2e38 433e d763 1540
00000140: 92b9 36c0 bd85 99bf fccd 00c0 621a 49bf
00000150: 31fa 0ec0 ee2f a9be 454b b0bf ccec d9bf
00000160: fca1 d4bf f001 36bf 591b b9be e4bd febf
00000170: d620 16c0 6c77 473d 5cdc f43d 27b4 aebe
00000180: 4683 453f ff67 3a3f e0de 9dbe 1e45 a73e
00000190: 6c5d 9cbf 6ad7 203f e8b6 413d a8a7 0ac0
000001a0: fedd 9abe fb48 debf 7073 2ebd 4164 35c0
000001b0: 746a 4bbf cb0d 50bf 9a80 443d b0c8 a3be
000001c0: b3f1 26c0 c4ac 86bf afec fcbf 2ef5 bc3e
000001d0: ec7d 053f c8ab 3a3f 4e81 05c0 05e4 093f
000001e0: 12f0 cdbb 2418 3b3f 5658 2e3f 6b48 18c0
000001f0: 754f 983e 9e34 873d 8765 00c0 9648 a4bf
