Agent2_Congkak_PPO.pt (torch, 215323 bytes, 11 tensors)

shared_layers.0.weight f4 [128, 16]
-0.21722396 -0.046514124 -0.008179155 0.16602722 -0.43507913 -0.74552953 -0.27288574 -1.4860057
-0.04321972 -0.5170895 -0.13695586 -0.30915785 -0.11172813 0.07723072 -0.30220205 -0.31036797
-0.12923457 0.23977336 -0.112292215 -0.33909854 -0.13462675 -0.21341668 -0.2870597 -0.8574374
-0.1067454 -0.8302827 -0.5319752 -0.47387236 0.09996379 0.04036957 -0.9370255 -0.11526683
-0.22738703 -0.11166503 -0.13375287 -0.21796978 -0.070777625 -0.23446533 0.0052556684 -0.15173376
0.038710017 -0.027565747 -0.16938068 -0.1592525 -0.17436549 -0.31874117 -0.089051984 -0.16656026
-0.18936577 -0.2595986 -0.29327098 -0.6310779 -0.5501116 -0.24937792 -0.19974367 -1.3255746
0.0052121514 -0.14008564 -0.12527727 -0.17524521 -0.41609913 -0.16771919 0.31550944 -0.38574418
-0.2886675 -0.38342243 -0.33004582 -0.4853312 -0.7038679 -0.6843789 -0.91179615 -0.36106196
0.066020384 -0.17680845 -0.7110526 -0.31429806 -0.12380828 -0.2699578 -0.28645098 -0.0032954074
-0.103661865 -0.41837132 -0.21404827 -0.15841724 -0.14720577 0.0064526713 0.09065299 -0.37354442
-0.008358889 -0.09832315 0.21938783 0.123158395 -0.35060444 -0.20973332 -0.08133075 -0.16116536
-0.17037673 -0.07882493 -0.098955445 0.0993623 0.1029179 -0.16400737 -0.17451341 0.05559223
-0.25676206 -0.09204149 -0.15949029 0.06633044 -0.021854231 -0.031664096 -0.12807718 -0.22933376
-0.3175015 -0.034074515 -0.33780932 -0.06473579 0.010520538 0.14040387 0.060572226 0.0022089444
-0.1695149 0.02950245 0.063506715 -0.20356452 0.0441218 -0.10565975 -0.094693705 -0.02488601
-0.19241059 -0.13496737 -0.104419924 -0.094746806 -0.19929348 -0.17349187 0.0028816278 -0.18804692
-0.05280699 -0.0880171 0.097183205 0.053242538 -0.06110156 0.033171058 -0.25058192 0.12787803
-0.025054373 0.01776533 -0.14886366 0.07985556 0.02788962 -0.003968968 -0.023590239 -0.5194398
-0.4895568 -0.14273703 -0.30789477 -0.0663991 -0.27957916 0.034673326 0.056428116 -0.36683768
-0.19682884 -0.23708943 -0.102195494 0.19584464 -0.1839475 -0.13987282 -0.19388783 -0.16403903
-0.2392282 0.09212015 -0.05894404 -0.19666415 0.09502174 -0.15078011 -0.28403243 0.14447603
-0.021439807 0.05187676 -0.03792005 -0.54505676 -0.16537425 0.17579183 -0.40157175 0.07959353
-0.2501986 -0.21340497 -0.036563907 -0.29653403 0.06274176 -0.092336856 -0.030652538 -0.22216582
-0.11106433 0.2773537 -0.35146523 -0.5463197 -0.2778493 -0.85852146 -0.81004906 -0.23040238
-0.12714535 -0.64380723 -0.9760098 -0.43706167 -0.48396775 -0.15459791 -0.07403821 -0.14177224
-0.130262 -0.12538311 0.0582204 -0.35052842 0.11461303 -0.3802605 -0.109829016 -0.29129735
-0.17751884 0.08162599 -0.16412465 -0.30813217 0.03783821 -0.19615975 -0.111831434 -0.16295606
-0.28526634 -0.47032154 0.011260332 -0.18343438 -0.34040108 0.112345085 -0.034938462 -0.40778068
-0.017749354 -0.48729247 -0.41632286 -0.1479718 0.19749346 0.15514308 -0.053257402 -0.81459653
-0.3241904 -0.06737795 -0.21066599 -0.42755866 0.24980058 -0.7781025 0.1020264 -1.5359112
-0.08419882 0.09520647 -0.878497 -0.38586533 -0.62183243 -0.11379936 -0.14348121 -0.118615456
00000000: f56f 5ebe 9885 3ebd dd01 06bc 0a03 2a3e
00000010: b1c2 debe 06db 3ebf aeb7 8bbe 6f35 bebf
00000020: 2907 31bd fa5f 04bf 283e 0cbe f049 9ebe
00000030: b8d1 e4bd 242b 9e3d 3aba 9abe 8de8 9ebe
00000040: 1156 04be 2687 753e 76f9 e5bd 539e adbe
00000050: 98db 09be e789 5abe 7df9 92be 0481 5bbf
00000060: 559d dabd 688d 54bf 872f 08bf 669f f2be
00000070: d1b9 cc3d 905a 253d e7e0 6fbf 0411 ecbd
00000080: 25d8 68be a3b0 e4bd 83f6 08be 7833 5fbe
00000090: dcf3 90bd ae17 70be be37 ac3b 1860 1bbe
000000a0: 658e 1e3d 90d1 e1bc 2172 2dbe 1613 23be
000000b0: de8c 32be 0b32 a3be e360 b6bd c68e 2abe
000000c0: 1ae9 41be 1cea 84be 9d27 96be 528e 21bf
000000d0: 1dd4 0cbf ed5c 7fbe 9b89 4cbe 6eac a9bf
000000e0: b2ca aa3b 9c72 0fbe af48 00be 7b73 33be
000000f0: f20a d5be 94be 2bbe 748a a13e 4380 c5be
00000100: 3acc 93be f24f c4be c4fb a8be 557d f8be
00000110: b030 34bf 7533 2fbf 796b 69bf 1ddd b8be
00000120: b235 873d 460d 35be 8b07 36bf adeb a0be
00000130: 328f fdbd e937 8abe b4a9 92be c3f7 57bb
00000140: ac4c d4bd c434 d6be 782f 5bbe 2138 22be
00000150: 1cbd 16be ee70 d33b 46a8 b93d 3741 bfbe
00000160: b9f3 08bc a65d c9bd 34a7 603e 783a fc3d
00000170: 6d82 b3be 55c4 56be bc90 a6bd 8808 25be
00000180: 3d77 2ebe f76e a1bd 27a9 cabd 767e cb3d
00000190: 9fc6 d23d 8cf1 27be a5b3 32be aeb4 633d
000001a0: 5176 83be 4080 bcbd 6c51 23be 41d8 873d
000001b0: a507 b3bc 36b2 01bd aa26 03be 78d6 6abe
000001c0: 8e8f a2be b891 0bbd 58f5 acbe 3394 84bd
000001d0: 565e 2c3c 08c6 0f3e 951a 783d f0c3 103b
000001e0: 5095 2dbe 1faf f13c cf0f 823d 3873 50be
000001f0: 10b9 343d 2464 d8bd c6ee c1bd bfdd cbbc
00000200: 4807 45be e334 0abe 1dda d5bd 9d0a c2bd
00000210: 9713 4cbe daa7 31be b1d9 3c3b 5f8f 40be
00000220: 244c 58bd 4f42 b4bd fd07 c73d d914 5a3d
00000230: a145 7abd 60de 073d 464c 80be 75f2 023e
00000240: d43e cdbc 9988 913c b76f 18be 508b a33d
00000250: c678 e43c 1e0e 82bb 5140 c1bc 02fa 04bf
00000260: 30a7 fabe a829 12be 62a4 9dbe 40fc 87bd
00000270: 0025 8fbe 9e05 0e3d 2b21 673d 26d2 bbbe
00000280: 808d 49be 92c7 72be df4b d1bd 7f8b 483e
00000290: bc5c 3cbe d23a 0fbe 888a 46be d9f9 27be
000002a0: 3df8 74be 7da9 bc3d 4e6f 71bd 5462 49be
000002b0: c29a c23d 1a66 1abe b36c 91be 86f1 133e
000002c0: 89a2 afbc ba7c 543d 0e52 1bbd d788 0bbf
000002d0: de57 29be c602 343e d09a cdbe ef01 a33d
000002e0: 081a 80be d586 5abe 09c4 15bd 4fd3 97be
000002f0: c07e 803d 1b1b bdbd 081b fbbc 707f 63be
00000300: b275 e3bd 4e01 8e3e 40f3 b3be 9cdb 0bbf
00000310: 4342 8ebe 10c8 5bbf 605f 4fbf 9aee 6bbe
00000320: 6432 02be 8dd0 24bf c7db 79bf 8cc6 dfbe
00000330: 9fca f7be ea4e 1ebe 58a1 97bd be2c 11be
00000340: 6763 05be 6e64 00be 8478 6e3d 7678 b3be
00000350: 3cba ea3d 81b1 c2be 09ee e0bd ed24 95be
00000360: 80c7 35be 872b a73d 4b10 28be 80c3 9dbe
00000370: 3dfc 1a3d 1ade 48be e107 e5bd f4dd 26be
00000380: 6e0e 92be fccd f0be 417d 383c 39d6 3bbe
00000390: 0d49 aebe 2e15 e63d a21b 0fbd a1c8 d0be
000003a0: 1867 91bc 667e f9be 4528 d5be eb85 17be
000003b0: ba3b 4a3e d4dd 1e3e 6f24 5abd 6689 50bf
000003c0: 49fc a5be 73fd 89bd d3b8 57be f8e8 dabe
000003d0: b9cb 7f3e ba31 47bf 38f3 d03d bd98 c4bf
000003e0: 6e70 acbd 9cfb c23d 2ee5 60bf 2490 c5be
000003f0: 6930 1fbf a40f e9bd bdec 12be a9ec f2bd

shared_layers.0.bias f4 [128]
-0.06098558 -0.20476148 -0.4496021 -0.13473213 -0.48853847 -0.40299615 0.080013916 -0.3037558
-0.2777285 -0.2584367 0.06924594 -0.06319695 -0.42448607 -0.1337311 -0.22327894 -0.00393326
-0.3159838 -0.49063838 -0.25960883 0.041949086 0.08407287 -0.11581501 -0.2713596 -0.25539523
-0.14222352 -0.14502347 0.18499207 -0.80999064 -0.42079318 -0.4178988 -0.46398273 -0.070677176
-0.34583703 -0.11774869 -0.2534148 -0.44908848 -0.39744768 -0.091256306 -0.3351421 0.029779248
-0.13249014 -0.25921142 -0.053258166 -0.08394538 -0.17791037 -0.17952394 -0.3308272 -0.22749203
-0.31907132 0.038379505 0.06383822 -0.17940922 -0.51444346 -0.7812018 -0.19023891 -0.15288563
-1.0308769 -0.01917024 -0.14163786 -0.1800504 0.22957315 -0.36686882 -0.026234278 -0.50914484
-0.4976922 -0.31273398 -1.2532349 -0.6267079 -0.19307493 -0.13873918 -0.19409537 -0.043272957
0.707478 -0.22035205 -0.20432866 -0.043544304 0.06371702 -0.14898326 -0.0966788 -0.07307308
-0.58373284 -0.49013972 -0.6037219 -0.5618472 0.10068178 -0.307884 -0.088566974 -0.5087442
-0.41575724 -0.7150115 -0.50487936 -0.460267 -0.310711 -0.24232943 -0.4696879 0.071621366
-0.3193914 -0.094080694 -0.29904732 -0.4195464 -0.13303742 -0.20013602 -0.16760364 -0.32143307
-0.2353075 -0.092350364 -0.23071142 0.03768049 -0.18471369 -0.31114352 -0.31302762 -0.13442384
-0.10592037 -0.17520325 -0.21194234 -0.32545388 0.049476936 -0.10635064 -0.4599405 -0.017928725
0.058946453 -1.2595911 -0.7536773 -0.29384145 -0.4978918 -0.24091807 -0.022433193 -0.44758168
00000000: 04cc 79bd feac 51be 3f32 e6be 38f7 09be
00000010: b721 fabe 8355 cebe 56de a33d e185 9bbe
00000020: 6e32 8ebe d151 84be d1d0 8d3d 676d 81bd
00000030: 3d56 d9be cef0 08be 3ca3 64be 94e2 80bb
00000040: a1c8 a1be f434 fbbe 73eb 84be ced2 2b3d
00000050: 662e ac3d 6c30 edbd a5ef 8abe 2ac3 82be
00000060: 0ba3 11be 0881 14be 906e 3d3e 8c5b 4fbf
00000070: 3472 d7be d5f6 d5be 258f edbe 32bf 90bd
00000080: 8d11 b1be 3a26 f1bd 96bf 81be edee e5be
00000090: 437e cbbe 96e4 babd bf97 abbe 9cf3 f33c
000000a0: 7fab 07be 5cb7 84be 3c25 5abd 8eeb abbd
000000b0: 232e 36be 20d5 37be 2f62 a9be acf3 68be
000000c0: 515d a3be d433 1d3d 9dbd 823d 0db7 37be
000000d0: 91b2 03bf d7fc 47bf fdcd 42be 0d8e 1cbe
000000e0: c6f3 83bf e80a 9dbc 8409 11be 225f 38be
000000f0: 3915 6b3e 3bd6 bbbe 45e9 d6bc 5157 02bf
00000100: 83d1 febe ab1e a0be 006a a0bf ee6f 20bf
00000110: 6fb5 45be a511 0ebe f0c0 46be fc3e 31bd
00000120: 471d 353f f8a3 61be 883b 51be 835b 32bd
00000130: 127e 823d 118f 18be 89ff c5bd 57a7 95bd
00000140: 846f 15bf 98f3 fabe 858d 1abf 38d5 0fbf
00000150: 4032 ce3d f9a2 9dbe 9a62 b5bd 0f3d 02bf
00000160: 22de d4be fe0a 37bf c63f 01bf 1ea8 ebbe
00000170: 8315 9fbe 3525 78be ef7a f0be 39ae 923d
00000180: 4587 a3be 61ad c0bd bb1c 99be c9ce d6be
00000190: f63a 08be 75f0 4cbe 4aa0 2bbe e092 a4be
000001a0: 73f4 70be 3022 bdbd 9d3f 6cbe dc56 1a3d
000001b0: 9625 3dbe 344e 9fbe 2845 a0be 67a6 09be
000001c0: c7ec d8bd 7b68 33be 6a07 59be e4a1 a6be
000001d0: 54a8 4a3d 5dce d9bd 527d ebbe 43df 92bc
000001e0: d671 713d 483a a1bf fff0 40bf 6372 96be
000001f0: adeb febe 3ab3 76be d1c5 b7bc 6d29 e5be

shared_layers.2.weight f4 [128, 128]
-0.007534274 -0.264304 0.08872822 -0.18234752 -0.042800177 0.032541342 0.00033912808 -0.20257972
-0.10178832 -0.12965956 0.052631594 -0.2379166 -0.0009974269 0.041105468 -0.053720087 0.078276984
-0.14429283 -0.8852215 -0.5409212 0.14190353 -0.08216728 -0.1786375 0.14699504 0.12450656
-0.077368975 0.034017842 -0.056941524 -1.6289406 -0.12598047 -0.2891846 -0.49680525 0.02672619
-0.10030601 -0.1245084 -0.1527191 -0.08240669 -0.24868798 -0.18733925 -0.41168806 -0.15859666
-0.0992184 -0.0044563115 0.105240166 -0.05061727 -0.046963874 0.2437934 -0.09636644 0.033737957
-0.037250727 -0.09931259 -0.036147967 -0.011757203 -0.038960934 0.12296704 -0.28261152 0.0114522455
-0.10525039 0.39538166 0.028302187 0.11063223 -0.27679607 0.14180036 -0.35517368 -0.06559703
0.1816821 0.059987612 0.41612566 -0.0004620524 0.04548113 -0.07291182 -0.21586153 0.0031656984
-2.21834 0.06259582 -0.571743 0.016714532 0.07025687 -0.14501847 0.0034289777 0.1253827
-0.2500137 -0.15509428 0.14367135 -0.48822007 -0.05437978 -0.04868283 -0.25137794 0.3391487
-0.26169962 -0.17329085 -0.08482271 -0.8725037 0.4779316 -0.17286934 0.17664053 0.05100315
-0.0589063 0.015490168 0.22256978 -0.102505244 -0.14332347 0.07350351 -0.16194966 -0.34670785
-0.06475633 -0.0209099 -0.5186265 -0.05957231 0.33199784 0.18488654 -0.04365534 -0.12874806
0.055939976 -0.08634631 -0.028602477 0.24258037 0.17617844 -0.19977808 0.21655922 0.086178385
-0.2636807 -0.19690259 -0.15304753 0.054901514 -0.38249332 -0.036529582 0.019240439 0.012117747
-0.022373777 0.0017459001 -0.035254557 0.019636285 -0.14527702 0.231179 0.090370245 0.96910965
-0.06382268 0.021318091 -0.069087625 0.5340543 0.007574369 -0.027835935 0.065336436 -0.016987786
-0.1214655 -0.01831124 -0.37173775 -0.010046926 -0.06171388 -0.06127594 0.051765397 0.039196506
0.073574856 0.0891487 0.09536203 -1.242003 -0.06541081 0.027436335 0.16798356 0.06394726
0.06743665 -0.052895177 0.04196223 -0.4916098 -0.2432072 0.04374577 -0.21059313 -0.033744495
-0.15966626 0.23475312 0.1146873 0.023138778 -0.18716721 -0.10132762 -0.04004314 -0.18922389
0.011732284 -0.10123187 -0.060159575 -0.18296516 -0.30668643 -0.14114267 -0.04499469 -0.08959547
-0.1376284 -0.18079093 -0.018100554 -0.16737103 0.45229393 -0.2234197 0.5913698 0.15254879
0.0052718273 0.06722873 -0.3834719 -0.62244195 -0.09458817 -0.09216904 -0.1865011 -0.20778635
-0.62164515 0.049146414 -0.5867435 0.013041589 0.019456197 0.1919498 -0.02835587 0.052532397
0.016718838 0.06630422 0.03743699 0.16518152 0.0895547 -0.00078460755 0.08136448 -0.21040794
0.05169592 -0.21273951 -0.48935646 -0.2035144 -0.098312184 -0.13691972 -0.27074012 0.017922442
0.038578697 -0.07044107 -0.013383864 -0.54350424 0.43765467 0.03807226 -0.04116021 -0.09102367
-0.05384119 -0.083916835 -0.050869796 0.4687116 -0.075721346 -0.16775432 -0.10704757 -0.06279022
-0.14679065 0.09851935 -0.09773155 0.5703864 -0.57042086 0.09715995 -0.026284868 -0.022460012
0.2970604 -0.13548046 0.18926007 -0.060821664 -0.13338017 0.11977404 -0.0441786 -0.025650509
00000000: 12e2 f6bb db52 87be 24b7 b53d 4fb9 3abe
00000010: 3d4f 2fbd 124a 053d 00cd b139 0f71 4fbe
00000020: 6576 d0bd 7ac5 04be 3a94 573d 69a0 73be
00000030: 18bc 82ba 355e 283d 9809 5cbd af4f a03d
00000040: 80c1 13be e09d 62bf d079 0abf 294f 113e
00000050: 5247 a8bd c0ec 36be de85 163e 4cfd fe3d
00000060: a073 9ebd 4b56 0b3d 843b 69bd 2081 d0bf
00000070: 0601 01be 0110 94be 425d febe e2f0 da3c
00000080: 3d6d cdbd 43fe febd 6562 1cbe d7c4 a8bd
00000090: 10a8 7ebe dcd5 3fbe c7c8 d2be 2a67 22be
000000a0: 0433 cbbd 4006 92bb 2888 d73d 0e54 4fbd
000000b0: 315d 40bd faa4 793e c55b c5bd d030 0a3d
000000c0: 3894 18bd 6664 cbbd e40f 14bd 49a1 40bc
000000d0: 8095 1fbd 25d6 fb3d 75b2 90be 33a2 3b3c
000000e0: 848d d7bd 776f ca3e fdd9 e73c 2793 e23d
000000f0: 37b8 8dbe 1d34 113e 53d9 b5be bc57 86bd
00000100: df0a 3a3e 92b5 753d 6c0e d53e a03f f2b9
00000110: 6c4a 3a3d cb52 95bd ce0a 5dbe 9b77 4f3b
00000120: 48f9 0dc0 3d32 803d c05d 12bf eaec 883c
00000130: d5e2 8f3d b97f 14be b3b8 603b 5364 003e
00000140: cc01 80be 09d1 1ebe 951e 133e fbf7 f9be
00000150: 55bd 5ebd a667 47bd 9cb4 80be e6a4 ad3e
00000160: 7efd 85be 2873 31be 87b7 adbd 675c 5fbf
00000170: 73b3 f43e a904 31be 41e1 343e aee8 503d
00000180: bc47 71bd 79ca 7d3c 55e9 633e 45ee d1bd
00000190: 63c3 12be 0289 963d 22d6 25be b183 b1be
000001a0: f79e 84bd 3d4b abbc b5c4 04bf 1802 74bd
000001b0: 9ffb a93e e652 3d3e f1cf 32bd 88d6 03be
000001c0: 5121 653d 56d6 b0bd be4f eabc fd66 783e
000001d0: 1f68 343e a092 4cbe b3c1 5d3e 4b7e b03d
000001e0: 2801 87be d5a0 49be 7eb8 1cbe 69e0 603d
000001f0: 2ad6 c3be 0ba0 15bd 209e 9d3c 8489 463c
00000200: 3649 b7bc b0d6 e43a 1567 10bd 46dc a03c
00000210: 80c3 14be 30ba 6c3e 0914 b93d 9217 783f
00000220: 77b5 82bd 47a3 ae3c d07d 8dbd c8b7 083f
00000230: 6a32 f83b 3008 e4bc 1ccf 853d f829 8bbc
00000240: e7c2 f8bd 7401 96bc 6954 bebe dd9b 24bc
00000250: b2c7 7cbd 7bfc 7abd f407 543d 848c 203d
00000260: 6aae 963d 9893 b63d 2b4d c33d f4f9 9ebf
00000270: 1af6 85bd 2ac2 e03c e203 2c3e c8f6 823d
00000280: 3a1c 8a3d 9da8 58bd 96e0 2b3d 48b4 fbbe
00000290: 4f0b 79be c42e 333d baa5 57be ab37 0abd
000002a0: 8d7f 23be 1f63 703e 2de1 ea3d 898d bd3c
000002b0: c3a8 3fbe db84 cfbd 4704 24bd e8c3 41be
000002c0: c438 403c a852 cfbd e369 76bd 385b 3bbe
000002d0: 0106 9dbe b487 10be 5a4c 38bd d47d b7bd
000002e0: 76ee 0cbe 4221 39be 9d47 94bc 5063 2bbe
000002f0: 1293 e73e 22c8 64be 0364 173f c035 1c3e
00000300: 4bbf ac3b 37af 893d 6e56 c4be 5b58 1fbf
00000310: 71b7 c1bd 1fc3 bcbd 25fa 3ebe f2c5 54be
00000320: 2324 1fbf c04d 493d d234 16bf 64ac 553c
00000330: 9a62 9f3c 7d8e 443e 924a e8bc 362c 573d
00000340: f2f5 883c 82ca 873d 8757 193d 5825 293e
00000350: 7468 b73d 1fae 4dba 6ca2 a63d 2e75 57be
00000360: 1abf 533d 63d8 59be ee8c fabe 1466 50be
00000370: e657 c9bd af34 0cbe 739e 8abe 16d2 923c
00000380: b204 1e3d 6843 90bd ff47 5bbc 1823 0bbf
00000390: 4614 e03e a8f1 1b3d 9c97 28bd 9e6a babd
000003a0: 9488 5cbd 97dc abbd d95c 50bd f8fa ef3e
000003b0: cb13 9bbd cac7 2bbe c23b dbbd 2998 80bd
000003c0: 4a50 16be 83c4 c93d 7b27 c8bd d804 123f
000003d0: 1a07 12bf ccfb c63d 5d53 d7bc 0ffe b7bc
000003e0: 4d18 983e 64bb 0abe 64cd 413e 2320 79bd
000003f0: d094 08be 184c f53d 9ff4 34bd 0421 d2bc

shared_layers.2.bias f4 [128]
1.8261538 -3.5489764e-05 -1.1513731 -0.00028165395 0.31011724 -0.021216042 -0.006808225 -0.076622546
-1.1551201 0.13861974 -0.0025155672 0.27649373 -0.0056213895 -0.20967615 -0.5179473 -0.006410354
-0.9460243 -0.008951284 -0.2048654 0.71916866 0.76311344 -0.31837177 0.7963583 -0.008056588
0.88032097 -0.20333675 -0.38346374 -5.919393e-05 0.98446876 -0.13873622 0.29509154 -2.3722925
-0.13793632 -0.19539464 -0.18166675 0.28751016 0.8080441 0.55934817 -0.00061802496 -0.29702935
-0.46564624 2.111719 -0.0015698001 -0.1790541 -0.58709604 1.5012838 -1.703046 -0.42120603
-0.44782358 -0.00043764384 1.9515433 -1.3715912 -0.51603204 0.57041764 -1.3406808 -1.2724983
1.7846763 0.5260039 0.45086458 -0.26184076 -0.00030533376 0.8324358 -0.046767686 -0.83944935
0.15817814 -1.0940179 0.2701762 -0.00018288774 1.0156701 0.9572909 1.0419642 -0.00030472374
-0.41337082 0.35581118 -0.08629222 -0.5288861 0.55517405 -0.35842505 -0.27255204 -0.0005012231
1.0452147 0.59564877 1.6478753 -2.3061018 -0.18450859 0.17808399 0.1095197 0.5862454
0.8835754 -0.023842763 -1.1494064 -0.012502117 0.75119984 0.70437616 -0.44127792 1.0619578
0.3249005 -0.03112524 -0.004823271 -0.0015513352 2.460095 -0.010671951 0.45504346 -0.2525276
-0.12673831 1.2444022 2.5204446 -0.018310975 -1.1264536 0.781357 0.7260982 -0.14190014
-0.30138332 -0.1160421 -0.03648389 -0.16101943 -0.22887044 0.29297957 0.8767358 -0.01046998
-8.464616e-24 1.5803303 0.59095234 1.4175258 0.23468517 -0.4496281 -1.4198052 0.8313971
00000000: 68bf e93f d8da 14b8 3260 93bf f4aa 93b9
00000010: b0c7 9e3e 44cd adbc 8817 dfbb 48ec 9cbd
00000020: fada 93bf 55f2 0d3e 37dc 24bb 9690 8d3e
00000030: a233 b8bb 58b5 56be 3298 04bf f20d d2bb
00000040: a62e 72bf 68a8 12bc 3cc8 51be 701b 383f
00000050: 675b 433f a001 a3be 23de 4b3f c7ff 03bc
00000060: b75c 613f 8237 50be 5c55 c4be 0047 78b8
00000070: 2506 7c3f de10 0ebe 3d16 973e a4d3 17c0
00000080: 2e3f 0dbe 8815 48be d906 3abe 8834 933e
00000090: fadb 4e3f 7131 0f3f f402 22ba 3b14 98be
000000a0: 2f69 eebe 6726 0740 c0c1 cdba f559 37be
000000b0: ed4b 16bf 112a c03f 69fd d9bf 51a8 d7be
000000c0: 2249 e5be 9073 e5b9 2ccc f93f 4d90 afbf
000000d0: ad1a 04bf e406 123f 6e9b abbf 39e1 a2bf
000000e0: 4670 e43f 31a8 063f b9d7 e63e fe0f 86be
000000f0: 3415 a0b9 831a 553f 798f 3fbd 27e6 56bf
00000100: 73f9 213e c708 8cbf 8954 8a3e 8ec5 3fb9
00000110: 7a01 823f 0411 753f 155f 853f 54c3 9fb9
00000120: 57a5 d3be e22c b63e fab9 b0bd 1465 07bf
00000130: e31f 0e3f 7d83 b7be f18b 8bbe 8364 03ba
00000140: 98c9 853f 707c 183f 94ed d23f 2c97 13c0
00000150: d2ef 3cbe a65b 363e dd4b e03d 2e14 163f
00000160: ff31 623f e651 c3bc c01f 93bf aed5 4cbc
00000170: a24e 403f ff51 343f 2eef e1be 3cee 873f
00000180: 5c59 a63e 5cfa febc 880c 9ebb 2c56 cbba
00000190: 3272 1d40 68d9 2ebc 75fb e83e 4c4b 81be
000001a0: b0c7 01be 9248 9f3f f74e 2140 e600 96bc
000001b0: a22f 90bf 0307 483f 92e1 393f 454e 11be
000001c0: ea4e 9abe 7ba7 edbd 2270 15bd 47e2 24be
000001d0: 035d 6abe 6b01 963e c271 603f 478a 2bbc
000001e0: c0ba 2399 4348 ca3f a748 173f 7c71 b53f
000001f0: 4f51 703e a835 e6be 2dbc b5bf 71d6 543f

policy_layers.0.weight f4 [128, 128]
1.1433114 -0.36351523 -0.6245343 0.25346518 0.103908844 -0.030346425 -0.055073537 0.2367246
-0.56450295 0.12990065 -0.06476546 0.50055254 0.014636352 -0.3715101 0.1189936 0.23902835
-0.39663792 0.09480071 -0.46275428 0.2866503 0.063777916 -0.07852495 -0.0067939158 0.17361127
-0.2233712 -0.7080769 -0.07295479 0.194071 -0.5424911 0.24370748 0.51877767 0.46021628
0.1590679 0.74008256 -0.07404612 0.50813675 -0.17560071 -0.5284572 0.71779484 0.29670218
0.05881258 0.6556632 0.7749085 -0.23434258 0.14680035 -0.7921362 -0.2947307 -0.3266128
0.15159333 -0.16222009 0.3668975 -1.3493946 0.54838663 -0.031130401 -0.2429775 -0.65660393
-0.5785728 0.16149946 -0.07295336 0.45906183 0.12402756 0.10676729 1.2365799 -0.15921453
-0.3768778 -0.049066365 1.0746503 -1.0907328 0.449757 0.4630585 -0.2762121 -0.20612183
0.08449274 0.09947505 0.30556867 -0.12322237 0.7399254 0.07345512 0.25968575 -0.40649197
0.699633 -0.22891457 -0.15159611 -0.7262555 -0.12636343 -0.13016397 -0.17250042 0.044168122
0.4963108 -0.56534904 -0.17240727 -0.26040792 0.48966807 0.75870013 0.4908074 0.22774135
0.5587361 -0.2348411 0.4633614 -0.21465299 0.3716595 -0.19136818 0.72304726 0.2707459
0.40155217 0.50527316 -0.31379852 -0.31571782 0.31534114 -0.22030227 0.7756602 -0.25846136
0.09867179 0.20831713 0.30667335 -0.38966635 -0.5273417 0.89422256 -0.6009632 0.7584762
0.6462874 0.3367067 -0.67556715 0.6665849 -0.7657062 0.1400527 -0.58815193 0.23081036
-0.11566675 -0.32812455 0.8963007 -0.14811255 -0.19260083 -0.14030463 1.1176412 -0.03610483
-0.3362131 -0.3718615 0.028830219 0.27363127 0.13374323 -0.30437773 0.34123352 -0.3532573
-0.97858155 0.1259949 -0.41728112 0.18403178 -0.59027207 0.2541784 -0.4071024 0.46981314
0.5153345 -0.46404585 0.040947888 0.011728562 -0.15094148 -0.45324707 -0.11946886 0.20929992
-0.3421271 -0.2761481 0.048878137 0.45059177 0.13843258 -0.4365257 0.16245799 0.08478867
0.04660116 0.6560383 -0.7440856 -0.33113226 0.38116488 -0.18380016 0.32352918 0.08244918
0.1856027 -0.07241391 0.33240688 -0.47112605 0.59970766 -0.13268702 -0.04106463 0.171882
-0.6776221 -0.09835265 1.2813196 0.21516243 -0.34563598 0.21828593 -1.5694503 0.22261445
-0.072485454 0.33558893 -0.25419655 -0.456633 -0.03513392 -0.12180271 -0.022749003 0.2773896
-0.15920186 0.08201518 0.21639071 -0.036145657 -0.9719899 -0.032259934 -0.020803057 -0.24488018
1.2673833 -0.47113547 -0.010999278 0.22511396 -0.04658933 0.039101955 -0.094737835 -0.087980226
0.08318201 -0.008532293 0.026674109 -0.21512578 -0.33403483 -0.29277667 0.56574506 -0.3839171
-0.06349378 -0.07186802 -0.026271796 -0.35746473 0.21345004 -0.240465 0.12724383 -0.25340572
0.41449565 0.20044155 0.22794425 0.5499036 -0.042324774 0.06672149 0.37855184 -0.111514024
0.08369289 0.72877145 0.05915668 0.19959034 -0.802586 -0.07273593 -0.29450077 -0.10927836
0.49708426 1.1235781 -0.3197545 -0.7340588 0.005853508 0.14723624 0.14913414 0.06359893
00000000: 0758 923f ab1e babe 7be1 1fbf 30c6 813e
00000010: 29ce d43d 1199 f8bc ca94 61bd ef67 723e
00000020: 4483 10bf ad04 053e c1a3 84bd 3624 003f
00000030: 4fcd 6f3c 9236 bebe ebb2 f33d d9c3 743e
00000040: 2014 cbbe e026 c23d 21ee ecbe d4c3 923e
00000050: ff9d 823d b0d1 a0bd 7f9f debb 27c7 313e
00000060: 6bbb 64be 8744 35bf 5269 95bd 8cba 463e
00000070: b2e0 0abf 748e 793e 9dce 043f 78a1 eb3e
00000080: b2e2 223e 0d76 3d3f 7ea5 97bd 4015 023f
00000090: acd0 33be f948 07bf 67c1 373f 59e9 973e
000000a0: 76e5 703d 8bd9 273f 6760 463f 80f7 6fbe
000000b0: d552 163e 70c9 4abf f1e6 96be cb39 a7be
000000c0: 483b 1b3e 061d 26be fdd9 bb3e f6b8 acbf
000000d0: 1163 0c3f 2f05 ffbc 18cf 78be 3217 28bf
000000e0: 591d 14bf 1d60 253e 9268 95bd 270a eb3e
000000f0: 2902 fe3d cfa8 da3d 4048 9e3f 2209 23be
00000100: 21f6 c0be d0f9 48bd 248e 893f 229d 8bbf
00000110: 8d46 e63e 0116 ed3e ac6b 8dbe 9a11 53be
00000120: 880a ad3d 93b9 cb3d 7f73 9c3e 035c fcbd
00000130: c06b 3d3f a36f 963d 88f5 843e b71f d0be
00000140: 261b 333f 9568 6abe 033c 1bbe e1eb 39bf
00000150: 6a65 01be b449 05be f3a3 30be a2e9 343d
00000160: 731c fe3e b7ba 10bf 888b 30be 3054 85be
00000170: c6b5 fa3e 2c3a 423f 1c4b fb3e 0735 693e
00000180: 5409 0f3f 2f7a 70be b53d ed3e fecd 5bbe
00000190: 274a be3e 05f6 43be a019 393f 359f 8a3e
000001a0: 3f98 cd3e 9559 013f 33aa a0be c4a5 a1be
000001b0: 6574 a13e eb96 61be ab91 463f 0c55 84be
000001c0: 6f14 ca3d 1651 553e 4a04 9d3e 5982 c7be
000001d0: deff 06bf c5eb 643f b9d8 19bf 7f2b 423f
000001e0: 1773 253f d264 ac3e f8f1 2cbf 4fa5 2a3f
000001f0: 5205 44bf fa69 0f3e 2091 16bf 8d59 6c3e
00000200: b0e2 ecbd f1ff a7be f673 653f d1aa 17be
00000210: 2739 45be 04ac 0fbe de0e 8f3f a9e2 13bd
00000220: 2024 acbe a164 bebe 5a2d ec3c 6619 8c3e
00000230: fcf3 083e 66d7 9bbe 29b6 ae3e 24de b4be
00000240: 5284 7abf cf04 013e dfa5 d5be d472 3c3e
00000250: 121c 17bf ac23 823e ba6f d0be 598b f03e
00000260: f6ec 033f 6b97 edbe f9b8 273d 2829 403c
00000270: 6790 1abe 0010 e8be 17ac f4bd b852 563e
00000280: 492b afbe 4963 8dbe 7134 483d f7b3 e63e
00000290: 45c1 0d3e 4c80 dfbe 635b 263e afa5 ad3d
000002a0: dce0 3e3d 20f2 273f 657c 3ebf 2b8a a9be
000002b0: 0b28 c33e 1c36 3cbe 9ea5 a53e 1edb a83d
000002c0: a20e 3e3e be4d 94bd 3c31 aa3e 6f37 f1be
000002d0: 7186 193f 1bdf 07be 6333 28bd d601 303e
000002e0: a478 2dbf 1d6d c9bd 4802 a43f 8a53 5c3e
000002f0: 33f7 b0be 5986 5f3e bfe3 c8bf 0bf5 633e
00000300: 4173 94bd 50d2 ab3e 0d26 82be cdcb e9be
00000310: 96e8 0fbd b373 f9bd 1e5c babc 0206 8e3e
00000320: d005 23be 93f7 a73d 8795 5d3e 780d 14bd
00000330: 55d4 78bf fe22 04bd 2c6b aabc dfc1 7abe
00000340: 9e39 a23f ab38 f1be 5136 34bc 4684 663e
00000350: 74d4 3ebd 5f29 203d e905 c2bd fa2e b4bd
00000360: 545b aa3d 08cb 0bbc a983 da3c ef49 5cbe
00000370: 9d06 abbe d3e6 95be abd4 103f c890 c4be
00000380: 0709 82bd 8a2f 93bd f337 d7bc 9e05 b7be
00000390: a692 5a3e 753c 76be 354c 023e 65be 81be
000003a0: c638 d43e 8d40 4d3e 386a 693e 7bc6 0c3f
000003b0: be5c 2dbd 47a5 883d 8cd1 c13e 7761 e4bd
000003c0: 2e67 ab3d c490 3a3f 464e 723d 6961 4c3e
000003d0: 4776 4dbf 93f6 94bd cec8 96be 55cd dfbd
000003e0: d481 fe3e 68d1 8f3f ddb6 a3be 47eb 3bbf
000003f0: c9ce bf3b 19c5 163e 9fb6 183e 2840 823d

policy_layers.0.bias f4 [128]
0.7567124 0.22915572 0.014676603 0.03626113 0.14564271 -0.35581335 0.24901593 -0.41891557
0.005966788 -0.28004855 -0.038644623 0.116027564 -0.016588459 0.027435234 0.103376836 0.49992886
0.25433612 0.01412566 0.74693835 -0.29085457 0.2027091 0.74342453 0.33377382 -0.45558938
0.2924574 0.7480053 0.31882575 0.81359553 0.43074208 -0.17706677 -0.11955337 -0.19048043
0.11394483 0.34843826 0.6929755 -0.07320732 0.32778654 0.39161298 -0.360907 0.30263835
-0.5571624 0.52744883 -0.0012148764 0.01860346 0.43895695 0.3903549 -0.045181967 0.3668444
0.65794855 0.0016620965 -0.35457444 -0.14695486 -0.0057323556 0.35219818 0.52454 0.07477209
-0.21754192 0.08889713 -0.61412424 0.27758947 -0.21858251 0.6529474 0.21256392 0.56813043
-0.37640435 0.01440613 0.34172538 0.765459 0.486502 -0.10244429 -0.5308521 -0.42812014
0.90002644 0.05917368 -0.090797395 0.50530916 -0.12017957 0.061121322 -0.010844034 -0.3693156
-0.005654034 -0.19025478 -0.32214734 0.6512051 -0.12765047 0.5758873 -0.24006706 -0.063092284
-0.17877482 0.5295812 -0.032952793 0.068281226 -0.1533867 -0.3064094 0.14163688 0.59793466
0.6982437 0.5282099 0.3286104 -0.4216128 0.18990235 0.32409382 -0.13228749 -0.07868534
0.103834614 0.48433644 0.27110997 0.69930816 0.437944 -0.19115177 -0.39453346 0.60663646
0.6303007 -0.45709634 -0.074896894 0.053542517 0.04017164 0.56310296 0.30145615 -0.554596
0.10070926 -0.459865 0.5708374 0.41270065 0.14809547 -0.04201337 0.623942 -0.46048918
00000000: e7b7 413f cca7 6a3e 2276 703c 8d86 143d
00000010: 5d23 153e 2b2d b6be 08fe 7e3e 1a7c d6be
00000020: 0c85 c33b 8662 8fbe d349 1ebd dc9f ed3d
00000030: 85e4 87bc dbbf e03c 3cb7 d33d adf6 ff3e
00000040: 5838 823e 506f 673c 5a37 3f3f e4ea 94be
00000050: f992 4f3e 1251 3e3f 67e4 aa3e 0343 e9be
00000060: fabc 953e 467d 3f3f 213d a33e cc47 503f
00000070: 3a8a dc3e fe50 35be 66d8 f4bd 4d0d 43be
00000080: e85b e93d 8066 b23e d866 313f b8ed 95bd
00000090: a3d3 a73e 7f81 c83e cdc8 b8be 6af3 9a3e
000000a0: 32a2 0ebf e306 073f 7d3c 9fba 4966 983c
000000b0: f7be e03e 99dc c73e ba10 39bd 07d3 bb3e
000000c0: 516f 283f b4da d93a c88a b5be 567b 16be
000000d0: 7cd6 bbbb 5253 b43e 4148 063f 1c22 993d
000000e0: 4fc3 5ebe b30f b63d 3f37 1dbf 3520 8e3e
000000f0: 18d4 5fbe 9027 273f 5baa 593e ff70 113f
00000100: 12b8 c0be b007 6c3c a1f6 ae3e 1ff5 433f
00000110: ca16 f93e 50ce d1bd ece5 07bf 9032 dbbe
00000120: 2268 663f 1a60 723d fcf3 b9bd f15b 013f
00000130: b520 f6bd 5a5a 7a3d 2dab 31bc ef16 bdbe
00000140: 7a45 b9bb 26d2 42be 7ff0 a4be 61b5 263f
00000150: ceb6 02be 5a6d 133f 24d4 75be 8736 81bd
00000160: bf10 37be a292 073f 82f9 06bd 07d7 8b3d
00000170: 6711 1dbe b1e1 9cbe 4209 113e 3f12 193f
00000180: 19c0 323f c438 073f 9f3f a83e a2dd d7be
00000190: c375 423e a0ef a53e 5f76 07be c825 a1bd
000001a0: 3ea7 d43d f2fa f73e edce 8a3e dc05 333f
000001b0: 323a e03e 4abd 43be 4a00 cabe 874c 1b3f
000001c0: 635b 213f 8808 eabe 8b63 99bd 664f 5b3d
000001d0: 058b 243d 8427 103f 7658 9a3e 01fa 0dbf
000001e0: a840 ce3d 6d73 ebbe 6622 123f 804d d33e
000001f0: 57a6 173e 3616 2cbd aaba 1f3f 3dc5 ebbe

policy_layers.2.weight f4 [7, 128]
-0.105447024 1.0085766 0.6572681 1.0888482 -0.9316097 0.7760559 0.71866983 0.077056676
1.1471978 1.951857 0.59002715 1.4440527 1.3808122 1.2298737 -0.02504692 0.42068258
-0.08679482 -0.3993468 0.5860102 0.032869212 -3.4237132 2.5348585 -1.6152574 -1.3340384
-1.9057325 1.4741179 -1.3557098 0.95719004 1.1702635 0.7120638 0.73223305 0.52402675
-0.078343794 1.597746 1.735342 0.22350474 -0.51457703 0.8974662 1.2347163 0.24255222
0.86830163 -0.13934287 1.6194413 1.1841922 1.0344201 1.5299107 -3.3951693 1.3187224
-0.36653194 0.15489858 -1.9524938 0.60721374 0.09630789 -1.0062206 1.3585912 -3.3308597
0.036235582 1.1200771 1.470803 1.2565095 0.5676519 -0.87690103 -1.3939216 1.9813414
0.7250008 0.007767735 0.8927946 1.4273543 1.4568607 1.1053044 0.15313281 0.6639406
1.5036212 1.3091483 2.1710215 0.35065997 0.6753836 -0.059197806 0.19874924 0.79712415
-0.57797915 0.5689258 1.1819469 -1.1017656 -0.87854016 0.29748327 0.8946331 1.3021435
0.31272358 1.120183 0.5011023 0.9407317 -0.36879164 0.5454515 1.6655242 0.7324271
-1.9701288 1.2874407 -0.94797933 1.3993288 1.9455814 1.8605481 -0.5807286 -0.93707854
-1.7883763 1.7287846 -0.7086916 1.5853071 1.1030099 2.0337894 0.48308682 1.1807948
0.9888843 -4.1088343 2.396007 1.73643 0.754384 -0.6922681 0.8153513 1.2459022
-1.7352339 1.4909009 0.1312491 0.018076599 -0.076949835 -1.1016799 1.2951549 1.1614051
-0.29145154 -2.8059633 1.8757068 0.14209358 1.7676136 -0.32690245 1.5108213 0.3884126
1.4821825 2.421468 1.1099349 2.2676938 1.4661322 -0.36460894 1.542942 1.0836892
1.3501096 0.5270855 1.9580593 1.6882327 -2.8273482 1.7615155 -1.1431881 0.2759799
1.1571395 0.40881303 1.3218964 1.3499057 0.1936521 -1.1356622 -0.1646488 -5.3448725
0.87468797 -0.040365413 1.4045137 -0.067351304 2.2949035 1.1210177 0.60662717 -1.4716517
2.1363373 -2.7748597 1.3013058 2.5195832 -1.8031765 0.2494298 1.4882016 -3.0679696
-0.48938105 -0.71446174 2.1100094 2.4424143 0.68083954 1.4951577 2.594306 -2.521108
0.027478535 2.4931984 -0.5302208 1.2305931 -0.14069915 0.6506457 -2.6311185 0.47247806
-6.5265293 1.645364 0.7285722 1.3654929 -0.34581524 0.14435993 -3.4902163 -0.6555019
-0.1523492 -0.64610106 3.343664 -1.6728413 1.7779073 -0.90674305 1.8656718 -3.2434647
2.1781583 1.0229273 2.4353428 -0.8823105 -0.8581356 0.102556184 2.4336982 -0.94690853
1.5116315 1.0757624 2.302834 1.8358446 1.8197786 -2.7321332 0.38645387 -0.8229045
-0.87489897 1.818099 -0.8415665 1.6625695 2.587796 2.2845385 0.06814225 0.38666162
1.4515148 1.3958496 -1.0564579 -0.7916025 1.137378 2.1138384 -0.51916367 -5.5909033
0.6204027 0.7167199 1.5464371 1.8435242 1.622072 -1.8851211 1.0783137 1.3315008
2.176779 0.39034456 0.7944047 0.929996 0.77374905 1.5671086 -0.40892622 -0.26237893
00000000: 9cf4 d7bd 0a19 813f b942 283f 615f 8b3f
00000010: f97d 6ebf 99ab 463f bffa 373f e4cf 9d3d
00000020: 61d7 923f 73d6 f93f 050c 173f b8d6 b83f
00000030: 74be b03f 806c 9d3f 332f cdbc b563 d73e
00000040: 7cc1 b1bd 2f77 ccbe c404 163f dea1 063d
00000050: 1e1e 5bc0 1f3b 2240 c1c0 cebf c5c1 aabf
00000060: 0bef f3bf e5af bc3f e687 adbf 680a 753f
00000070: 32cb 953f d049 363f a073 3b3f 9e26 063f
00000080: b672 a0bd f182 cc3f b01f de3f 6dde 643e
00000090: 52bb 03bf 58c0 653f 2f0b 9e3f 9c5f 783e
000000a0: 0449 5e3f e6af 0ebe da49 cf3f 9c93 973f
000000b0: e167 843f 1dd4 c33f 744a 59c0 e5cb a83f
000000c0: 13aa bbbe bc9d 1e3e 51eb f9bf 5c72 1b3f
000000d0: 123d c53d d6cb 80bf 51e6 ad3f ce2c 55c0
000000e0: c36b 143d b05e 8f3f 4643 bc3f 4ed5 a03f
000000f0: a351 113f 967c 60bf 066c b2bf 989c fd3f
00000100: a799 393f 7c88 fe3b 308e 643f 8cb3 b63f
00000110: 697a ba3f 9d7a 8d3f d9ce 1c3e 03f8 293f
00000120: a976 c03f 2c92 a73f 04f2 0a40 b489 b33e
00000130: f1e5 2c3f 6679 72bd ec84 4b3e 5410 4c3f
00000140: 71f6 13bf 1fa5 113f 094a 973f a806 8dbf
00000150: 02e8 60bf ba4f 983e ad06 653f a3ac a63f
00000160: 4e1d a03e 2862 8f3f 3e48 003f cbd3 703f
00000170: 42d2 bcbe b6a2 0b3f e62f d53f 5880 3b3f
00000180: 2e2d fcbf dbca a43f c6ae 72bf 351d b33f
00000190: d008 f93f 7126 ee3f a1aa 14bf 61e4 6fbf
000001a0: 84e9 e4bf d048 dd3f d06c 35bf 58eb ca3f
000001b0: 6e2f 8d3f 9b29 0240 2857 f73e 4924 973f
000001c0: 8627 7d3f 927b 83c0 2e58 1940 5743 de3f
000001d0: 4f1f 413f 7b38 31bf ddba 503f b979 9f3f
000001e0: 251c debf d7d5 be3f 2a66 063e 6015 943c
000001f0: e097 9dbd d903 8dbf a3c7 a53f eca8 943f
00000200: 2339 95be e794 33c0 2917 f03f fb80 113e
00000210: 2a41 e23f c25f a7be 9862 c13f 04de c63e
00000220: 28b8 bd3f 55f9 1a40 5912 8e3f e521 1140
00000230: 38aa bb3f 06ae babe 207f c53f 54b6 8a3f
00000240: 64d0 ac3f 13ef 063f b0a1 fa3f 0218 d83f
00000250: 46f3 34c0 5779 e13f fd53 92bf 3d4d 8d3e
00000260: 261d 943f f14f d13e e733 a93f b6c9 ac3f
00000270: bc4c 463e 615d 91bf b299 28be 3209 abc0
00000280: 8deb 5f3f 3456 25bd 1bc7 b33f 7bef 89bd
00000290: b3df 1240 827d 8f3f eb4b 1b3f 155f bcbf
000002a0: c0b9 0840 4d97 31c0 3091 a63f da40 2140
000002b0: 7dce e6bf 876a 7f3e 647d be3f 9d59 44c0
000002c0: 2790 fabe f7e6 36bf 650a 0740 8450 1c40
000002d0: 804b 2e3f 5461 bf3f 1c09 2640 d559 21c0
000002e0: aa1a e13c 9090 1f40 8dbc 07bf 1384 9d3f
000002f0: 7013 10be b790 263f 3f64 28c0 a5e8 f13e
00000300: 54d9 d0c0 4a9b d23f b583 3a3f 79c8 ae3f
00000310: b20e b1be 17d3 133e b45f 5fc0 f9ce 27bf
00000320: 6e01 1cbe e166 25bf 97fe 5540 aa1f d6bf
00000330: 7792 e33f 5020 68bf 55ce ee3f ed94 4fc0
00000340: f266 0b40 48ef 823f a8dc 1b40 1adf 61bf
00000350: c6ae 5bbf fa08 d23d b6c1 1b40 9968 72bf
00000360: 247d c13f 95b2 893f a261 1340 f5fc ea3f
00000370: 81ee e83f 45db 2ec0 48dd c53e dfa9 52bf
00000380: 61f9 5fbf 78b7 e83f e770 57bf 14cf d43f
00000390: 739e 2540 e135 1240 2a8e 8b3d 83f8 c53e
000003a0: 3dcb b93f 33ab b23f 033a 87bf 76a6 4abf
000003b0: 9a95 913f 2149 0740 e9e7 04bf aee8 b2c0
000003c0: b6d2 1e3f f57a 373f a7f1 c53f 9af8 eb3f
000003d0: 0ea0 cf3f a64b f1bf 2f06 8a3f 9e6e aa3f
000003e0: 5950 0b40 3edb c73e 1b5e 4b3f 3814 6e3f
000003f0: 6b14 463f 0497 c83f c75e d1be 8856 86be

policy_layers.2.bias f4 [7]
-0.10849001 0.059175003 -0.5761611 -4.571168 1.622053 -1.0370002 0.8078847
00000000: 0330 debd 7d61 723d 4b7f 13bf 0247 92c0
00000010: 6f9f cf3f 6cbc 84bf 88d1 4e3f

value_layers.0.weight f4 [128, 128]
-0.48188913 -0.25451308 -0.74494207 -0.29446107 -0.28320765 -0.024952732 -0.4123088 -0.10872811
-0.21248938 0.037796356 -0.37849686 -0.08815851 -0.39528793 -0.5076544 0.13703279 0.22349669
-0.09884126 0.21083266 -1.5886223 0.5603519 -0.53137547 0.79049575 0.30068362 0.017571192
0.59630907 -1.053484 0.0542638 0.4101629 -0.004361719 0.5669129 -0.42870775 -1.0498009
0.9733222 -0.80752194 0.4490178 0.47802693 -1.9702598 -0.00458874 0.14460008 0.37820092
-0.067259945 -0.6234987 -0.49111214 -0.11756613 -0.7260402 -0.2925072 -0.93361956 -0.42997986
-0.005274077 -0.0030934718 -0.13702527 -0.15692262 -0.7097335 -0.093780406 0.008034578 -0.48889676
-0.08213425 -0.08228605 -0.10362665 -2.4388855 0.07197715 0.23293966 -1.497314 -0.2588759
0.11996751 -0.7368134 0.26368365 -0.07585121 -0.3149848 0.19302198 -0.42339677 -1.3219342
-0.28272086 0.35160407 -0.12993835 -0.09741386 -0.099272475 0.04422502 -0.25906876 -0.06580061
0.35502747 -0.6264631 0.17729396 0.6873089 0.024161851 0.26806107 0.78368765 0.81801206
-0.3089921 -0.17187092 0.063395135 -0.38484845 0.41660124 -0.060762808 -0.047078833 -0.07427324
-0.11704241 -0.09753164 -0.16523954 0.6524916 0.7874623 -0.87140167 0.009103634 -0.52543473
0.41357034 -1.7471427 -2.1747952 0.111111715 0.13792951 -0.47454166 -0.00014437176 -0.3988702
-0.6797711 -0.79063255 -0.24224983 0.77253515 0.11379904 1.0726926 -0.69805115 -1.4834958
-0.16680512 -0.28527972 0.8851077 -0.074550405 -0.114094 -0.12047867 0.08524223 -0.20088363
-0.02724015 0.10047905 -1.542886 0.012723647 -0.0110559575 -0.057177562 -0.5885118 -0.06413652
-0.23514256 -0.268496 -0.21769656 0.013582567 -0.09416351 -0.070107214 -0.85128903 -0.44896293
-0.01662694 0.12892929 0.31101346 -0.08079722 -0.7670128 -0.41074836 0.01949968 -0.15745786
0.020092674 0.14708176 0.057894345 -0.05311606 -0.63112724 0.3413155 0.009224434 0.10638238
-0.002827575 -0.11114956 -0.046891265 0.18658827 -0.28022304 -0.036194712 -0.17474052 -0.30275005
-0.419632 -0.6285339 -0.019582521 -0.43426344 -0.49141288 0.38727134 -0.43234923 -0.27176982
0.044214077 0.06030339 -0.12195412 -0.1742543 0.016640916 -0.06964509 0.18866958 0.123741284
-0.16574445 0.47031933 -0.22667667 -0.2930613 -0.37294465 -0.15628396 -0.02382104 -0.06276257
-0.31840792 -0.14327951 -0.073651776 -0.022807859 -0.30102915 0.012711802 -1.4618481 -0.25018084
-0.05392163 0.08868927 0.2665536 0.094252825 -0.11951482 0.11399733 -0.07653858 0.08855121
-0.54779625 0.025641195 -0.44326478 -0.19050293 0.022830453 -0.3055718 0.00090974313 -0.4874288
-0.40273857 0.0025734273 -0.3099469 -0.12008182 0.36019167 -0.054798994 -0.2850715 -0.06901055
-0.21154422 -0.04071297 -0.082919285 -0.10399899 0.12252001 -0.23264 0.1478607 -0.03738875
-0.14304636 0.13999084 -0.09918994 0.38688585 -0.4055402 0.1295214 -0.10421909 0.04225544
0.047343224 0.019458339 -0.3977967 -0.33662027 0.070747115 -0.52899367 0.18864478 0.26870438
0.02137734 0.3160951 -0.4996198 0.00018722843 0.07590597 -0.042952366 0.09112163 -0.23156968
00000000: 2cba f6be 8a4f 82be 86b4 3ebf 9ac3 96be
00000010: 9800 91be ac69 ccbc 241a d3be d8ac debd
00000020: d196 59be 5ad0 1a3d 57ca c1be 738c b4bd
00000030: 2e63 cabe a4f5 01bf 5352 0c3e 51dc 643e
00000040: 496d cabd 84e4 573e fa57 cbbf 3973 0f3f
00000050: 3908 08bf ee5d 4a3f 34f3 993e 76f1 8f3c
00000060: b6a7 183f 90d8 86bf b843 5e3d df00 d23e
00000070: c0ec 8ebb 3421 113f 957f dbbe e05f 86bf
00000080: a52b 793f c2b9 4ebf a9e5 e53e f2bf f43e
00000090: 7931 fcbf 245d 96bb 0b12 143e 8da3 c13e
000000a0: 95bf 89bd 9c9d 1fbf 0d73 fbbe 83c6 f0bd
000000b0: c5dd 39bf 81c3 95be b101 6fbf 5226 dcbe
000000c0: 2ad2 acbb d8bb 4abb 5a50 0cbe 53b0 20be
000000d0: 18b1 35bf f10f c0bd 76a3 033c ad50 fabe
000000e0: 0036 a8bd 9785 a8bd 363a d4bd b316 1cc0
000000f0: c268 933d bc87 6e3e fca7 bfbf 628b 84be
00000100: 87b1 f53d ce9f 3cbf 8b01 873e e157 9bbd
00000110: b045 a1be 8ea7 453e 76c7 d8be 2435 a9bf
00000120: cac0 90be 7305 b43e 8f0e 05be eb80 c7bd
00000130: 5e4f cbbd 4b25 353d a9a4 84be 78c2 86bd
00000140: 29c6 b53e e35f 20bf 8c8c 353e 7af3 2f3f
00000150: 13ef c53c 4d3f 893e c19f 483f 3d69 513f
00000160: 3634 9ebe eefe 2fbe 4fd5 813d db0a c5be
00000170: c24c d53e 6ce2 78bd bcd5 40bd 921c 98bd
00000180: eeb3 efbd abbe c7bd 8e34 29be b109 273f
00000190: 2197 493f 2e14 5fbf 6927 153c e482 06bf
000001a0: 7ebf d33e 5fa2 dfbf d82f 0bc0 8a8e e33d
000001b0: 653d 0d3e 20f7 f2be 8062 17b9 b738 ccbe
000001c0: 7b05 2ebf e566 4abf 5710 78be ddc4 453f
000001d0: 790f e93d fe4d 893f 7bb3 32bf 31e3 bdbf
000001e0: f6ce 2abe 2f10 92be 6b96 623f e2ad 98bd
000001f0: 1daa e9bd 85bd f6bd 7a93 ae3d 70b4 4dbe
00000200: bc26 dfbc f6c7 cd3d 4a7d c5bf d876 503c
00000210: 0c24 35bc 0533 6abd b6a8 16bf 025a 83bd
00000220: 36c9 70be 4f78 89be d9eb 5ebe 6a89 5e3c
00000230: ccd8 c0bd 5f94 8fbd 14ee 59bf 78de e5be
00000240: 3835 88bc 0a06 043e 283d 9f3e 0379 a5bd
00000250: f35a 44bf 9c4d d2be cbbd 9f3c a23c 21be
00000260: 6499 a43c 9a9c 163e 9f22 6d3d 3a90 59bd
00000270: 8e91 21bf e8c0 ae3e 1522 173c 01df d93d
00000280: d64e 39bb 61a2 e3bd 0e11 40bd ff10 3f3e
00000290: 6579 8fbe e840 14bd 2eef 32be 0e02 9bbe
000002a0: 01da d6be 99e7 20bf 866b a0bc c757 debe
000002b0: 789a fbbe 6e48 c63e e15c ddbe 6a25 8bbe
000002c0: d219 353d b000 773d 15c3 f9bd b86f 32be
000002d0: 8852 883c 16a2 8ebd 9932 413e 126c fd3d
000002e0: eab8 29be b2cd f03e ee1d 68be 210c 96be
000002f0: 9af2 bebe e708 20be 5724 c3bc aa89 80bd
00000300: 5d06 a3be ddb7 12be bed6 96bd 8cd7 babc
00000310: 7e20 9abe 2945 503c d71d bbbf b417 80be
00000320: eddc 5cbd b8a2 b53d b779 883e a007 c13d
00000330: 30c4 f4bd 6f77 e93d 42c0 9cbd 565a b53d
00000340: 603c 0cbf 7c0d d23c 9af3 e2be 3313 43be
00000350: ee06 bb3c e873 9cbe d47b 6e3a 4590 f9be
00000360: c033 cebe f2a6 283b 5cb1 9ebe 75ed f5bd
00000370: 0b6b b83e e974 60bd e4f4 91be 6755 8dbd
00000380: 0c9f 58be a5c2 26bd 96d1 a9bd 6cfd d4bd
00000390: c5eb fa3d 2e39 6ebe cc68 173e f224 19bd
000003a0: bf7a 12be c259 0f3e 1824 cbbd e715 c63e
000003b0: f7a2 cfbe 42a1 043e d170 d5bd 0a14 2d3d
000003c0: f8ea 413d 1867 9f3c 02ac cbbe 7e59 acbe
000003d0: dde3 903d 216c 07bf 192c 413e 9f93 893e
000003e0: 881f af3c 38d7 a13e 2bce ffbe c052 4439
000003f0: 9774 9b3d d2ee 2fbd fa9d ba3d 9a20 6dbe

value_layers.0.bias f4 [128]
-1.0085962 0.27146563 0.12519243 0.10525846 0.9784599 -0.5043404 0.3101259 -0.22044176
-0.28430328 -0.27728432 -0.150921 0.4249251 0.06567885 -1.1361471 0.44609204 -0.21059437
0.19644545 -0.45715258 0.666398 -0.104237854 1.2824448 -0.19232614 0.26661292 -0.51958704
-0.11619626 0.26389816 0.10889355 -0.0058726855 0.2758913 0.9881563 -0.04860919 0.95127606
-0.27623937 2.5104306 0.037263256 -0.045957267 0.9086875 -0.115527935 -0.08751263 4.917858
-0.8662969 -0.30050078 -1.078656 0.19026864 1.8702549 1.1416188 4.311811 -0.367443
-0.19967566 0.09550489 0.055400737 -0.14171685 -0.72960424 -0.15680404 -0.09171699 0.19863443
-0.78005075 -0.24313702 -0.11026632 -0.328568 -0.34901294 -0.08554579 -0.44923493 -1.2672464
-0.14011155 -0.23242076 0.6068694 -0.61010695 1.1615796 -0.6261745 -0.44014576 5.9315352
-0.45176852 5.7783012 -0.6199154 0.038505707 -1.057099 0.007793892 -0.40800956 -0.2564435
0.07449374 0.49037194 0.043992292 -0.19374104 -0.38562533 2.00702 0.4577398 -0.19018261
-0.07749584 -1.6528239 -0.7146425 -0.8600308 -0.4099081 0.77375364 -0.21345796 0.8378829
1.0145874 -0.26317474 0.3312627 -0.50304234 -0.35628462 0.610648 1.1149646 -0.61217546
-0.49229684 1.3584944 -0.99532825 1.0689038 1.5823339 0.4375305 1.083854 0.6413702
-0.8700902 0.50421315 -0.80700135 1.4814053 -0.7343026 -0.058382887 -0.05698251 -1.049553
-0.32473412 -0.6045532 -0.3146043 -1.5556142 -0.3036598 -0.8929955 1.1150349 0.6161296
00000000: ae19 81bf 8bfd 8a3e 7232 003e bf91 d73d
00000010: 597c 7a3f 741c 01bf d2c8 9e3e 7cbb 61be
00000020: 3390 91be 36f8 8dbe 098b 1abe c88f d93e
00000030: a282 863d 456d 91bf 2d66 e43e 0da6 57be
00000040: ff28 493e e70f eabe 0f99 2a3f a87a d5bd
00000050: 2727 a43f 25f1 44be 7d81 883e a803 05bf
00000060: 4ef8 edbd a91d 873e 9503 df3d a86f c0bb
00000070: a041 8d3e d0f7 7c3f 6e1a 47bd d486 733f
00000080: 3f6f 8dbe e5aa 2040 5ba1 183d b03d 3cbd
00000090: be9f 683f e999 ecbd d239 b3bd 185f 9d40
000000a0: a2c5 5dbf 3ddb 99be 6611 8abf c8d5 423e
000000b0: 8364 ef3f 9120 923f 5bfa 8940 7d21 bcbe
000000c0: c777 4cbe 1198 c33d e2eb 623d 391e 11be
000000d0: 58c7 3abf 3d91 20be 1ed6 bbbd d366 4b3e
000000e0: 68b1 47bf e9f8 78be 4fd3 e1bd 113a a8be
000000f0: d3b1 b2be a232 afbd 1f02 e6be 2135 a2bf
00000100: 6779 0fbe b5ff 6dbe cb5b 1b3f f82f 1cbf
00000110: a4ae 943f f94c 20bf c95a e1be 23cf bd40
00000120: 344e e7be d8e7 b840 c7b2 1ebf 29b8 1d3d
00000130: 054f 87bf e863 ff3b a1e6 d0be 904c 83be
00000140: 2d90 983d 0812 fb3e 4331 343d 0d64 46be
00000150: af70 c5be 0473 0040 df5c ea3e 3bbf 42be
00000160: 24b6 9ebd bc8f d3bf d0f2 36bf fa2a 5cbf
00000170: 79df d1be b814 463f b994 5abe 7e7f 563f
00000180: 00de 813f d7be 86be 449b a93e 62c7 00bf
00000190: f06a b6be 6d53 1c3f 29b7 8e3f 88b7 1cbf
000001a0: 550e fcbe 25e3 ad3f d5cd 7ebf d7d1 883f
000001b0: eb89 ca3f ff03 e03e babb 8a3f d630 243f
000001c0: 3bbe 5ebf 1d14 013f a497 4ebf b09e bd3f
000001d0: 41fb 3bbf e522 6fbd 7e66 69bd c157 86bf
000001e0: 8d43 a6be 00c4 1abf d113 a1be 5e1e c7bf
000001f0: 4c79 9bbe 5a9b 64bf 77b9 8e3f abba 1d3f

value_layers.2.weight f4 [1, 128]
-0.173198 0.854592 -1.679561 -2.3101814 -0.16464469 -1.5747792 2.393029 0.70641613
0.6825778 0.8333781 -1.5122442 -1.4867811 -6.280467e-05 -1.8845416 0.122906044 -1.1847984
-1.0357921 0.82030356 -0.00768853 0.9115546 -0.124002986 -2.0434334 -1.2841998 0.8923102
0.83464193 1.145157 -0.03131061 0.37256694 1.2735772 0.120839044 -1.1458322 -0.26549459
-0.7147498 0.10331411 -1.0410559 -1.6668653 1.0148722 0.9468 1.3263998 0.15024066
-0.61506706 -1.5906178 -1.6656313 -0.9583283 -0.49020174 -1.0573906 0.050896138 -0.95968133
-1.0951257 0.4919479 -1.5263255 -2.5770159 -0.91484076 -0.96205294 -1.8479115 1.1885701
-0.86606705 -1.7907431 -2.4462986 -1.2228463 -0.090714335 -0.64891034 -0.6757914 -0.86559
1.0633887 -1.3432025 -0.09413573 0.95774347 0.048812047 1.2227148 -1.0110108 0.12538993
0.7570076 -0.020845527 -1.59128 0.4393778 -0.14280736 0.005315542 -1.7477837 0.73010796
-1.979704 0.8401697 -1.127783 0.8969812 0.6114985 -0.35545173 1.389683 -2.038226
-1.6281097 -0.6613463 -1.0160096 0.23279077 -1.3763732 -0.7598086 0.926252 -0.7889055
1.3322517 -0.7132287 0.7435765 -0.78968596 0.57002485 0.5011939 0.7304587 0.7758517
1.0205394 -0.010477875 -1.1556495 1.4642113 0.035898097 -0.022044465 -0.0015597735 1.3268093
-0.23635967 0.047594327 -1.0163375 0.030095616 -0.0500774 0.8556621 -0.26569945 -1.4524443
1.0349166 0.9232686 -0.49983063 -0.95075214 0.8215142 -1.0720979 0.5311284 0.22993751
00000000: d15a 31be 8bc6 5a3f dbfb d6bf 03da 13c0
00000010: 9e98 28be 5d92 c9bf 6327 1940 b0d7 343f
00000020: 6bbd 2e3f 4458 553f 3891 c1bf d84e bebf
00000030: 00b6 83b8 a938 f1bf 2ab6 fb3d 79a7 97bf
00000040: d694 84bf 6aff 513f 10f0 fbbb a45b 693f
00000050: 47f5 fdbd 9dc7 02c0 a960 a4bf 716e 643f
00000060: 18ab 553f 8194 923f 8e3f 00bd 18c1 be3e
00000070: 9404 a33f 767a f73d a1aa 92bf e8ee 87be
00000080: d8f9 36bf 5996 d33d 5241 85bf d85b d5bf
00000090: 55e7 813f 7c61 723f 78c7 a93f b0d8 193e
000000a0: 0975 1dbf 5d99 cbbf 6833 d5bf 0155 75bf
000000b0: b9fb fabe 9358 87bf 7878 503d adad 75bf
000000c0: 142d 8cbf 98e0 fb3e a25e c3bf d4ed 24c0
000000d0: 0133 6abf 1a49 76bf 5d88 ecbf 1123 983f
000000e0: 92b6 5dbf 1237 e5bf 2890 1cc0 3a86 9cbf
000000f0: 70c8 b9bd fd1e 26bf aa00 2dbf 4e97 5dbf
00000100: 1f1d 883f 0fee abbf 3cca c0bd ad2e 753f
00000110: 24ef 473d eb81 9c3f cd68 81bf 3866 003e
00000120: 40cb 413f 3dc4 aabc 10af cbbf 21f6 e03e
00000130: 183c 12be 002e ae3b 60b7 dfbf 5be8 3a3f
00000140: f166 fdbf 5d15 573f 315b 90bf 8fa0 653f
00000150: 2a8b 1c3f c5fd b5be 22e1 b13f 4b72 02c0
00000160: e665 d0bf fe4d 29bf 9a0c 82bf b460 6e3e
00000170: ff2c b0bf d182 42bf da1e 6d3f b6f5 49bf
00000180: 3987 aa3f 2896 36bf 085b 3e3f dc28 4abf
00000190: 26ed 113f 3e4e 003f 57ff 3a3f 389e 463f
000001a0: 09a1 823f 65ab 2bbc 53ec 93bf 476b bb3f
000001b0: e209 133d 9896 b4bc 5071 ccba e3d4 a93f
000001c0: 4508 72be 45f2 423d 5917 82bf 158b f63c
000001d0: f61d 4dbd ac0c 5b3f c209 88be b2e9 b9bf
000001e0: 2678 843f 555b 6c3f cde9 ffbe 7e64 73bf
000001f0: c14e 523f 813a 89bf 08f8 073f bd74 6b3e
