Agent1_Congkak_PPO.pt (torch, 215323 bytes, 11 tensors)

shared_layers.0.weight f4 [128, 16]
000000 50 92 89 be d4 b3 a1 3c ed 75 a3 be c2 0d a3 be
       -0.2686944 0.019739069 -0.31925908 -0.31846434
000010 a4 b6 44 3e e6 61 a6 3c a3 c4 0e 3e b4 38 02 be
       0.19210297 0.020310353 0.13942198 -0.12716943
000020 7d 1e 99 be 2e dd 18 3e 52 19 88 be 5e d7 9d be
       -0.29906073 0.14928123 -0.26581818 -0.30828375
000030 fb 09 d0 be c1 e6 cb be 13 45 be bc e0 69 ee bd
       -0.40632614 -0.3982449 -0.023226297 -0.11641288
000040 7d 64 4e be 4c 9e 15 3c de 73 4d be bf fb 04 be
       -0.2015552 0.009131979 -0.20063731 -0.12986659
000050 cd f7 4b 3d 23 b5 1a 3d 4f 5e f1 be 8b 7e ac 3d
       0.049796868 0.0377704 -0.47142264 0.08422574
000060 80 02 8c be 70 25 50 bd bc d4 99 3d d9 05 94 bd
       -0.27345657 -0.050816953 0.07511279 -0.07227678
000070 13 36 2e 3d ae 63 20 3d 84 ff 32 3d a8 09 6a be
       0.042532038 0.039157562 0.04370071 -0.22855246
000080 1b 91 89 bc 5c 3e e1 be 2a 4f 97 be 6f f6 66 be
       -0.016792824 -0.4399289 -0.29552585 -0.22554944
000090 3c e5 a1 bd 55 37 12 be ba 03 5e be 02 c4 d6 be
       -0.07905051 -0.1427892 -0.21681109 -0.41946417
0000a0 6e 54 6b be 6c dd 10 3e 10 eb 24 3e db 67 a8 be
       -0.22981426 0.14146966 0.16105294 -0.32891735
0000b0 d6 56 5e bc 25 05 1f 3d 7e b4 d0 be f8 f2 1d bf
       -0.013570508 0.038823266 -0.40762705 -0.61698866
0000c0 bf f6 a3 3d 4e fa 2c bf 03 3d 95 3c cf 53 0a 3e
       0.080060475 -0.67569435 0.01821757 0.13508533
0000d0 46 ab a2 3d 70 3f 65 be 1b df 07 3d f9 77 60 bf
       0.07942824 -0.2238748 0.033171754 -0.87683064
0000e0 ac d5 da be de 20 94 bd 0b 3c 91 3d 0a dc 0e bf
       -0.42741144 -0.072328314 0.070915304 -0.558045
0000f0 07 0e 13 bf 0d 96 b1 be e5 5f 5d 3e b5 5b b7 3e
       -0.5744328 -0.34684792 0.21618612 0.35812154
000100 5b 1d 86 bd a8 9b 31 3e 75 77 1c be 87 7a 1f bf
       -0.06548568 0.17344534 -0.15279944 -0.62296337
000110 d0 77 5c be 91 f8 e8 be f5 f4 4b bf 29 79 30 3d
       -0.2153008 -0.4550214 -0.7967065 0.043084297
000120 ff f0 13 be 3f e8 51 bd 5d 45 40 be c0 4d 81 bd
       -0.14447401 -0.051246878 -0.1877646 -0.06313658
000130 3d c2 72 bf f1 f4 01 3e 6a 33 58 bd 30 a2 a3 be
       -0.94827634 0.12691094 -0.052783407 -0.31959677
000140 a7 01 37 bf e4 f4 81 be b3 e6 23 bc 57 78 4a 3e
       -0.71486896 -0.2538215 -0.010003733 0.19772469
000150 3e bd 17 be 1a e2 38 3d 0a ab c2 be f8 4a 40 bd
       -0.14818284 0.045137502 -0.38021117 -0.046946496
000160 77 b3 88 3d 2d ae a3 be a8 ac 19 be 2c ac 81 be
       0.06674855 -0.31968823 -0.1500727 -0.2532667
000170 d8 d7 72 3e c8 6f af be 8e 1f 9e bd 2f 03 8d bf
       0.2371515 -0.3426497 -0.07720862 -1.1016597
000180 fe eb 27 bd 21 5a 29 3d b2 95 d2 be 3b e8 04 3e
       -0.040996544 0.04134572 -0.41129833 0.12979214
000190 db e1 82 be bd 2f fb bc 1b 14 98 bd 37 67 04 3e
       -0.2556294 -0.030662412 -0.0742571 0.12929998
0001a0 7f 07 b2 be fd c1 e9 3d 1a 5a 86 3d 00 6c 37 be
       -0.34771344 0.114139535 0.06560154 -0.17912292
0001b0 34 05 2f bd 73 df 9c be 31 75 b7 be c8 0d 3b be
       -0.04272957 -0.30639228 -0.35831597 -0.18266976
0001c0 9c f3 49 be f9 be 7e be 5c d2 04 be a8 d2 1c bf
       -0.19721836 -0.24877538 -0.1297087 -0.61258936
0001d0 b5 3d a5 3c ca ac 96 bd a8 57 12 bf 76 b7 e2 3d
       0.020171026 -0.07357176 -0.57165 0.11070149
0001e0 aa f5 2f be 62 f8 96 3e b5 cd e2 be f1 64 9f 3d
       -0.17183557 0.29486376 -0.44297567 0.07782925
0001f0 62 b0 f1 be aa c0 1c bf ce 23 bc 3e 98 38 a7 bf
       -0.47204882 -0.6123148 0.36746067 -1.3064146
000200 56 a0 cd 3c dc 76 f1 be a0 ce bd be ae f6 93 3d
       0.025100868 -0.47160995 -0.37071705 0.07224785
000210 63 24 37 be 3d b5 3f bf d1 ed 29 be 04 c9 b8 be
       -0.17884974 -0.7488592 -0.16594626 -0.36090863
000220 2b fc 99 be 21 90 07 bf 67 51 42 bf 08 95 aa be
       -0.300752 -0.529543 -0.7590546 -0.33316827
000230 59 cf 4f 3e 53 b2 81 be 91 8b 4e 3e 90 d1 27 bd
       0.2029394 -0.25331363 0.20170428 -0.04097134
000240 24 07 07 ba 48 67 dd 3b ac cc 82 bb 75 72 1e be
       -0.00051509053 0.006756697 -0.003991684 -0.1547335
000250 e8 21 9d bb 38 15 82 be c4 7c f6 ba 70 54 72 be
       -0.0047953017 -0.25406814 -0.0018805494 -0.23665023
000260 a5 cb 3c be 8a 0a 96 3d 5f 82 5a be 74 a9 7f 3d
       -0.18437059 0.07326229 -0.21338795 0.062417462
000270 99 a8 c4 3d 74 04 52 be c8 42 f8 bd 1a dd a2 be
       0.0960247 -0.20509511 -0.121221125 -0.31809312
000280 61 79 4e bd cd 46 a7 be c5 cd 92 3d 96 e3 a4 be
       -0.050408725 -0.32671204 0.07168154 -0.32204884
000290 64 da 46 be 23 a9 15 bd 40 81 26 3e ca 88 c4 3e
       -0.19419247 -0.036538254 0.16260242 0.38385612
0002a0 be 44 09 bf ac b7 62 bf 75 68 0b be 89 26 9d be
       -0.5362052 -0.8856151 -0.13614066 -0.30693462
0002b0 7c b9 a2 be bf b1 51 bf f9 02 03 bd 05 3f 62 be
       -0.31782138 -0.81911844 -0.031985257 -0.22094353
0002c0 b5 a4 a1 be 82 2c 61 be 30 ba e6 bc 68 ee aa 3e
       -0.31570974 -0.21989635 -0.028164953 0.33385015
0002d0 db cf 00 be 33 9b 0b bf a3 7f 33 bf f8 52 9e bd
       -0.1257929 -0.5453369 -0.70116633 -0.07730669
0002e0 bf 10 85 bd 78 99 ea bd fc 3b 1a bf 7f fd 8c be
       -0.06497335 -0.11455053 -0.6024778 -0.27537152
0002f0 69 e2 2a bd 09 ce 2d bf 3f 7d 98 3d b8 1b 29 3b
       -0.041719828 -0.6789251 0.07445764 0.0025803875
000300 44 e7 a6 bd c6 91 ac 3d 3b 26 02 3e cb ac 88 be
       -0.08149579 0.084262416 0.12709896 -0.2669433
000310 03 f0 91 be 7d e2 a0 be 64 8d a0 be 05 d6 96 3d
       -0.28503427 -0.31422797 -0.31357872 0.0736504
000320 2b f1 2d be cc 1a 75 be c2 97 57 be 6e ee 63 bd
       -0.1698653 -0.23936003 -0.21053985 -0.055647306
000330 ef 88 8e 3d 78 90 2a be 69 53 ae 3d bd b4 a9 be
       0.06959712 -0.16656673 0.08512003 -0.33145705
000340 89 19 c0 bb 27 c5 f0 3c e8 bb d3 be 77 5f 0c bd
       -0.005862419 0.029390885 -0.413543 -0.03427073
000350 33 45 03 3e 20 e4 67 be c1 38 23 be b4 3e dd be
       0.12819366 -0.22645617 -0.15939619 -0.432119
000360 9a a1 d7 be 7c 8a 57 3e 1f bd 08 bf 70 fc f5 3d
       -0.4211548 0.21048921 -0.53413576 0.12011039
000370 e5 3e 69 3e 9a 62 18 bf 52 18 d5 be 65 58 e1 be
       0.22777899 -0.59525454 -0.41620117 -0.44012752
000380 db 36 78 bd 14 26 4d be d2 d8 9d bc b8 69 2d be
       -0.06059919 -0.20034057 -0.019268427 -0.1693486
000390 a8 ae 94 bd 59 f3 8c 3d e6 7f 6e be 94 42 7e 3d
       -0.072598755 0.068823524 -0.23290977 0.062075213
0003a0 33 e2 84 be f2 82 a1 be 4e ab 43 be ed 68 a2 bd
       -0.25953826 -0.31545216 -0.19108316 -0.07930169
0003b0 e6 e0 6e be bc 54 0a 3d e8 45 f4 3d 50 c2 26 bf
       -0.2332798 0.033772215 0.11927396 -0.6514025
0003c0 b8 b7 82 be f8 af aa bd 8d f4 3a bd 99 9e 11 be
       -0.2553079 -0.083343446 -0.045643378 -0.14220656
0003d0 c4 84 8a bd 4e d3 df bd 5d 81 8d bc 21 00 43 3d
       -0.06763604 -0.10928975 -0.0172736 0.047607545
0003e0 32 83 55 3e ea 58 0d bd b1 9a 47 be 3f 72 26 be
       0.20850828 -0.034508623 -0.19492604 -0.16254519
0003f0 32 31 73 be d1 fb ca bd ca dc 11 3d 79 81 88 be
       -0.23749235 -0.099113114 0.03561095 -0.2666128

shared_layers.0.bias f4 [128]
000000 d7 0f 39 be 6a c0 8e bc 5a 17 fd 3c d3 c5 0d bf
       -0.18072449 -0.017425735 0.030894924 -0.5537998
000010 b2 e2 93 bc a4 f2 fa be 5b 41 9d be c1 a0 3b be
       -0.018052433 -0.49013245 -0.30713925 -0.18323041
000020 6f d6 b2 be 2d d1 3e be d4 46 5b bc 50 03 32 be
       -0.34929225 -0.18634482 -0.013383586 -0.17384076
000030 10 f6 7f 3a ab eb d7 bd b8 14 96 be 65 4b 4c 3e
       0.0009764144 -0.10542997 -0.29312682 0.19950636
000040 02 37 f6 bd 7a b2 94 be e8 60 95 be a1 37 ab 3d
       -0.12022211 -0.29042417 -0.29175496 0.0836022
000050 27 79 c0 3d 82 0b 67 3d 2c ac 9d be e4 03 ec be
       0.09398108 0.05640746 -0.3079542 -0.46096718
000060 98 9f 0f bf 6f 1f 59 be 6a f8 83 3e e8 f6 54 3d
       -0.56102896 -0.21203397 0.25775462 0.05199328
000070 9e be ee bd 2f 1b 83 be 09 ed d9 be 0a ff 41 be
       -0.11657451 -0.25606677 -0.42563656 -0.18944946
000080 f8 eb e2 bd d3 ab e8 bb d9 a4 c3 bd 1b 31 e7 bc
       -0.11080164 -0.007100561 -0.095529266 -0.028221657
000090 5e 7d fb bd a1 ad 05 be 43 0f 01 bf 89 50 17 bf
       -0.12279771 -0.13054515 -0.5041391 -0.5910726
0000a0 00 6f d1 bd c7 c7 12 bf 7e bd 9d be 92 f4 8c be
       -0.1022625 -0.57336086 -0.30808634 -0.27530342
0000b0 4e 4a 26 be ae 2d 62 be eb a1 85 bc f9 81 cc bd
       -0.16239282 -0.22087738 -0.01631256 -0.09985728
0000c0 23 62 cf 3d 4a e4 05 bf 20 95 93 be c8 61 14 3e
       0.1012614 -0.52301466 -0.2882471 0.14490426
0000d0 5a de 91 be 83 11 f5 be f2 45 6c bf 04 eb a8 be
       -0.28489953 -0.47864923 -0.9229423 -0.32991803
0000e0 4c 97 9c 3d d1 d0 dc be 73 6a 03 be 40 1f 47 be
       0.07646045 -0.43128064 -0.12833576 -0.19445515
0000f0 88 ee a2 3d 6e 72 c0 bd b8 e3 c5 bd dd 97 c2 be
       0.079556525 -0.09396826 -0.096625745 -0.38006487
000100 b4 66 b6 3c 04 c7 33 bf cd d0 83 3b 2c 2f bf be
       0.02226577 -0.7022555 0.0040226937 -0.37340677
000110 49 22 f4 be 58 e2 3d be a2 6e 3d be f0 83 b9 be
       -0.47682407 -0.18543375 -0.18499234 -0.36233473
000120 47 4a 98 be 47 f6 96 be 32 c1 8c be b7 46 b1 be
       -0.2974417 -0.2948477 -0.27491146 -0.34624264
000130 7f d4 25 3e da 2c 1c be 11 a5 23 be c6 82 ea be
       0.16194342 -0.15251485 -0.15980937 -0.45802897
000140 8a 6d 3b be 19 8e 3e bc c5 11 12 3e 7a 65 bd be
       -0.18303505 -0.011630558 0.14264591 -0.36991483
000150 88 29 90 be d1 dc 37 be 43 e1 a4 3d d2 ea a3 3d
       -0.28156686 -0.17955329 0.08050778 0.08003773
000160 2b 7a 1c 3e 67 9e 2b 3e f2 a1 a3 be f0 76 e3 bc
       0.15280978 0.16759644 -0.31959492 -0.027766675
000170 89 23 bd be 1d 95 b8 be 27 0a 91 3d 86 0e b7 be
       -0.36941174 -0.36051264 0.070820145 -0.35753268
000180 2f 7e b3 3e 79 8c 22 bf 27 a1 bc bd ce 8d 96 be
       0.35057208 -0.63495594 -0.09210425 -0.29405063
000190 68 25 df be af f8 0d bd 10 e7 a7 be db 6b 60 be
       -0.43583226 -0.03466099 -0.32793474 -0.21916144
0001a0 d5 46 b9 be 5d 74 6b bd 07 f2 9a 3d a2 7c f1 bd
       -0.36186853 -0.05748402 0.07565694 -0.1179135
0001b0 f8 e3 f6 3c bf 0a 12 bd 92 00 a8 bd a6 9a ee bd
       0.030138 -0.03565478 -0.08203234 -0.116505906
0001c0 97 b6 af be 84 4f fe be 4c 97 9e 3d 58 66 a2 be
       -0.34318992 -0.4967004 0.07743701 -0.31718707
0001d0 5b 92 a5 be 10 31 04 3f e8 ec 0b 3f d1 e4 f0 be
       -0.32338223 0.51637363 0.54658365 -0.47049573
0001e0 60 a1 8c be 3f d7 e8 3d 25 96 ad be 9d f5 0b be
       -0.2746687 0.1136918 -0.33903614 -0.13667913
0001f0 d5 72 05 bf 5d ad 84 3e dd b4 87 be d1 9f 69 be
       -0.52128345 0.25913516 -0.26505175 -0.22814871

shared_layers.2.weight f4 [128, 128]
000000 ba 88 b3 3c dc 15 d2 bd 5a fa 04 bf a3 44 9f be
       0.021915782 -0.102580756 -0.51944506 -0.31107053
000010 67 a3 bf 3a b6 80 f3 3c e5 c8 e2 bc c7 3b 4a be
       0.0014620841 0.02972446 -0.027683685 -0.19749366
000020 73 c0 96 bd d6 93 0e bd 86 c9 ce be bb f2 ed bd
       -0.073609255 -0.034808956 -0.40388125 -0.11618563
000030 d9 4e fe 3d ce d9 cb bd dc 6f 97 bc 28 b4 9d bd
       0.12417383 -0.09953652 -0.018485956 -0.07700378
000040 ea cb c1 3c 7e 24 ec bc a8 77 35 be e2 c6 ac bc
       0.023656804 -0.028825995 -0.17721426 -0.021090928
000050 51 6c 13 3e d0 79 89 bd de b3 5a be 38 17 62 bf
       0.14396788 -0.06712687 -0.21357676 -0.8831668
000060 5e 00 b7 3d bb db 7b 3d fd f9 02 be 67 c0 82 bd
       0.08935617 0.06148885 -0.12790675 -0.06384354
000070 e0 f4 1f bd e1 43 8a be e4 3c 08 3d 12 41 9c 3d
       -0.03905189 -0.27004912 0.033261195 0.07629599
000080 38 24 8d b8 23 c9 41 3d 08 9b 85 bd 13 87 e0 3d
       -6.73015e-05 0.04731096 -0.065237105 0.10963263
000090 5d ff a3 be 08 51 44 be fb 77 05 bd 3e 8e 46 bf
       -0.32030764 -0.19171536 -0.032585125 -0.77560794
0000a0 4e ae b9 bc b1 2e d5 bd ee 96 62 bd bf 31 18 be
       -0.022666123 -0.10409296 -0.05531972 -0.14862727
0000b0 84 fb 8e bd 84 10 3c bd 1a ad 52 be 76 8a a1 bd
       -0.069815665 -0.045914188 -0.20573846 -0.078877375
0000c0 20 e5 95 be b2 4d da bd 88 a8 1b 3d 01 54 37 be
       -0.2927637 -0.106593505 0.03800252 -0.17903139
0000d0 19 6f 33 be 4c e9 e9 be 40 12 c3 3b 16 25 33 bd
       -0.17522849 -0.45685804 0.0059531033 -0.04373654
0000e0 39 c5 b8 3d 7e 8d 0b be 12 d7 e6 bd da 23 28 bd
       0.09021992 -0.13628194 -0.1127149 -0.041049816
0000f0 c1 d3 31 bd e4 c6 45 3c db 8b ab be 8b 7b 4c 3c
       -0.043414835 0.012071345 -0.3350514 0.012480627
000100 18 32 42 3c 56 8d 32 be 52 c6 c8 3c c6 5f b3 be
       0.011852764 -0.17436728 0.024508629 -0.35034007
000110 46 2b da bc b6 dd 0a 3e 1c ee 07 be fe 50 43 bd
       -0.026631963 0.13561139 -0.13274425 -0.047684662
000120 07 50 81 be 98 c4 6d bd fa 15 33 bd e9 92 82 bd
       -0.2525637 -0.058048815 -0.04372213 -0.06375677
000130 24 1e b7 3c 4b 74 9c 3e e4 1e 21 be d2 d4 30 be
       0.02235324 0.30557474 -0.1573444 -0.17268685
000140 26 3b 90 bf 46 2a 62 bc 55 e6 0d bf e3 98 1a 3e
       -1.1268051 -0.013804024 -0.55429584 0.15097384
000150 12 98 a4 bd 91 e4 7f bf aa 38 43 be dd 26 6c bd
       -0.080368176 -0.9995814 -0.19064584 -0.05765425
000160 c0 b1 0f bd c2 03 ff be 36 a3 c7 3d 9e f3 e0 bd
       -0.035081625 -0.49807554 0.09747927 -0.10983966
000170 02 59 61 bc 78 a5 65 be 4c f0 21 be 46 df a1 bb
       -0.013754131 -0.22426403 -0.15814322 -0.0049399463
000180 6b 1c 2d bd 13 26 1c be 3a 83 56 bd 21 24 07 bf
       -0.04226343 -0.15248899 -0.05237124 -0.52789503
000190 03 4a 96 3c 63 80 39 3d 88 d7 dc bd 74 9d ab bd
       0.018345838 0.045288455 -0.10783297 -0.08379641
0001a0 d7 58 ac 3d 77 df 99 bd 66 4d 1e 3d 20 fb 23 bd
       0.08415382 -0.07513326 0.03864803 -0.040034413
0001b0 1b 7f 27 3e a7 1f 5d be 9e 8a 90 3e 76 0e 4a bc
       0.1635708 -0.21594106 0.28230757 -0.012332549
0001c0 ae b3 21 be ef 23 84 3d 70 db 1e bd 6d 55 42 be
       -0.15791199 0.06452166 -0.03878349 -0.189779
0001d0 83 35 aa bc 96 d1 73 be 41 42 c9 3c db 0e b8 3b
       -0.02077747 -0.2381042 0.024567725 0.0056170053
0001e0 c0 e5 09 be 3b e4 84 3c 6a 0c da be 3e 09 97 3a
       -0.13466549 0.01622211 -0.42587596 0.001152314
0001f0 c1 d7 9e bd 47 ce a1 be 89 cf 77 be ba 18 0d be
       -0.077559955 -0.3160269 -0.24200262 -0.13778964
000200 1d fa aa bd 8e 89 7d bd 36 94 56 be 8a 46 96 bd
       -0.083484866 -0.06189876 -0.20954975 -0.07337673
000210 f8 4d e4 bc 79 5f 1c bd 0d 1f f3 bd e4 5b a8 3d
       -0.02786921 -0.038176987 -0.11871157 0.08220652
000220 c9 de 98 bd 5e 21 7c bd 02 ef 84 bc 54 3c ab 3c
       -0.07464368 -0.06155526 -0.016227249 0.02090279
000230 f4 3d a3 bd 6c b4 56 bd 66 28 ac bb 90 90 ea 3c
       -0.07970801 -0.052418157 -0.0052538393 0.028633386
000240 38 36 45 bd c6 8b 25 bd 21 cc 40 be e0 aa b2 bd
       -0.04814741 -0.0404165 -0.18827869 -0.08723998
000250 eb 4c 0f 3c 06 46 c0 3c 3c 72 84 bd 8a 8b e7 be
       0.008746366 0.02347089 -0.06467101 -0.45223647
000260 ae 07 1e bd a0 51 db bc 17 e0 c9 bf 9a 67 7c bd
       -0.038581543 -0.02677232 -1.5771512 -0.06162224
000270 72 8c 64 bc 72 2e 85 be ca b7 b9 bd 23 f9 b0 bd
       -0.0139495 -0.26011997 -0.09068258 -0.08641269
000280 bc c3 12 3b 63 d3 b8 bd 79 2c 80 bd 54 c7 d9 be
       0.0022394499 -0.09024694 -0.062584825 -0.42534888
000290 56 42 58 bd 42 c6 24 3d 12 ce 1b 3d 28 7a ab bd
       -0.052797638 0.040228136 0.03803832 -0.08372909
0002a0 9b 8c b9 bb 28 a0 81 bc 29 b6 34 bf a7 99 2e 3c
       -0.0056625134 -0.015823439 -0.70590454 0.010656751
0002b0 7a d2 b0 3d a6 bf 96 3d ba e7 db bb 82 7c 60 3d
       0.08633895 0.07360773 -0.0067109736 0.05480624
0002c0 14 8a 8e be d1 2f 5d bd 78 14 e2 3c 17 d1 31 3c
       -0.2783972 -0.05400068 0.02759765 0.010853074
0002d0 04 22 8f be d6 73 90 3d b9 39 31 3e 37 e0 8e 3d
       -0.2795564 0.07053344 0.17307176 0.06976359
0002e0 16 69 42 be db 70 a0 bc 3f be 90 3e 4f 03 e6 3d
       -0.189854 -0.019585064 0.28270146 0.112311
0002f0 c1 93 1f be 79 36 6c 3d 2b dd 4a 3e 0d 7f d0 bc
       -0.15583707 0.057669137 0.19810931 -0.025451208
000300 8f 44 67 bd ad 7b 49 be 85 b5 8a 3e b6 4e 88 3e
       -0.056461867 -0.19676085 0.27091613 0.26622552
000310 dc 27 08 bd 08 54 94 ba 97 bc d9 bd 6e ab 95 3e
       -0.033241138 -0.0011316547 -0.10631674 0.29232353
000320 8e 0e 29 bd ae ae 83 be 10 65 ef 3c 1b e9 b5 be
       -0.041273646 -0.25719208 0.029222995 -0.35529408
000330 d9 fe 3a bd eb 34 a6 3e ee b8 56 be 3f 24 6f 3e
       -0.045653198 0.32462248 -0.20968983 0.2335367
000340 48 4f 97 bd de 65 86 bc 19 23 f4 be 10 80 8a 3d
       -0.073881686 -0.016405996 -0.47683027 0.06762707
000350 6c 2d c8 bc d4 ce b0 3e 90 74 18 be 48 8e 1b be
       -0.024435721 0.34532797 -0.14888215 -0.15190995
000360 ea 4d 50 bd 20 bd db bd 04 41 30 bd 4a 9f 44 bc
       -0.050855555 -0.10729432 -0.043030754 -0.012000868
000370 4e 73 eb bc f3 9b 71 bd 34 c8 87 bf 75 4c 7b bb
       -0.028741505 -0.058986615 -1.0607972 -0.0038345132
000380 2b eb b7 bf 0e 67 13 bc a6 f9 90 bd ef 0f ed bd
       -1.4368643 -0.008996738 -0.07078867 -0.11575305
000390 44 4f c5 bd fa 98 65 bd ff 82 17 3e 11 b1 88 bd
       -0.09634259 -0.056054093 0.14796065 -0.06674398
0003a0 ef 67 e0 bc e4 d7 2f bd 26 90 e7 3c 17 e8 5c bd
       -0.02739331 -0.0429305 0.028266978 -0.053932276
0003b0 ef ee 13 3e 47 ef ab 3d 80 b7 16 be 46 14 5b 3e
       0.14446615 0.08395248 -0.14718437 0.21394452
0003c0 a5 93 72 bd 7b 7f ee bb b6 a2 c8 3e 7e 48 9c 3d
       -0.059222836 -0.0072783804 0.3918664 0.07631014
0003d0 f9 c6 ea bc c7 77 49 bc ed c0 2f bd d5 8a 4c bd
       -0.02865933 -0.012296624 -0.042908598 -0.049937088
0003e0 4e a5 89 bd a0 99 65 be 0e 08 5d bc f3 fe 8a bd
       -0.067209825 -0.22421885 -0.01349069 -0.06786909
0003f0 e0 3c cc 37 03 1b 03 3e 6b f0 55 3d 01 79 9c bc
       2.4347042e-05 0.12803273 0.052231234 -0.019100668

shared_layers.2.bias f4 [128]
000000 8c d5 d4 3e cb 5f a9 bf a7 90 00 40 be a0 05 b9
       0.41569173 -1.3232359 2.0088289 -0.0001274375
000010 85 06 47 3f ca 9e df 3e e0 1e da be 76 3d af 3e
       0.77744323 0.43675834 -0.4260168 0.34226578
000020 4e 7e 20 bd 7b b3 3e bc 5a a5 bf bd d8 7c 1e bc
       -0.039182954 -0.011639471 -0.0935771 -0.00967332
000030 81 e0 83 3f 8f 8a 29 3f db 6a 4e 3f 78 87 02 3f
       1.0302888 0.6622705 0.806318 0.5098796
000040 1a 5a bf 3e 6a b3 73 3f 7d d3 d7 3e 35 70 27 3e
       0.3737343 0.9519564 0.4215354 0.16351397
000050 7e 3e 27 3f ba f6 50 bf be f6 6a 3f 37 00 01 c0
       0.6532973 -0.81626475 0.9178275 -2.015638
000060 d5 a4 9a be b2 8a b5 bf d8 eb 1f ba 35 11 b1 be
       -0.30203882 -1.4182951 -0.0006100512 -0.3458344
000070 44 02 e1 3e a1 a9 fc 3e f5 5e b6 3e 79 32 5c 3f
       0.4394704 0.49348167 0.3561932 0.86014515
000080 43 19 02 3f 69 91 d0 3e 69 72 7f be 9d 7c 65 3f
       0.50819796 0.4073594 -0.24945988 0.8964327
000090 ba a6 11 bd 89 2a a3 3e ab 08 0f bf ab 16 56 3f
       -0.035559393 0.3186839 -0.558726 0.8362834
0000a0 c2 67 38 3f e4 57 56 bd 11 ad b2 3e 3d 65 5a 3e
       0.7203332 -0.052329913 0.34897664 0.21327682
0000b0 52 1f f4 3d 25 52 45 3f 98 04 41 be 3d 9a 85 bd
       0.119200364 0.7707847 -0.18849409 -0.06523559
0000c0 bb 03 2c 3f 32 83 ca bc ce b0 02 3f 97 76 e1 3e
       0.6719319 -0.024720762 0.5105103 0.4403579
0000d0 e1 87 12 3e bd c2 1d 3f 1c 12 aa 3f d5 f0 ab bf
       0.14309646 0.6162527 1.3286777 -1.3432871
0000e0 86 2d 82 bd 3f 84 1b bf ef 56 ba 3e 4d 02 82 3f
       -0.06356339 -0.60748667 0.3639445 1.0156952
0000f0 19 11 e3 be 76 c6 76 3f 1c 09 60 bf 44 b3 2b be
       -0.44348982 0.9639658 -0.875139 -0.16767603
000100 bc 51 d3 3e 88 0d 41 be 84 21 ab 3f 74 3f e5 be
       0.41273296 -0.18852818 1.3369603 -0.44774973
000110 aa a3 92 3f 76 88 82 3f 64 ce a2 bb e4 0e 58 3e
       1.1456196 1.0197895 -0.0049684513 0.2109943
000120 10 e6 c3 ba 63 4e bc 3e 98 19 ab 3d 20 32 c3 3e
       -0.0014945883 0.36778554 0.08354491 0.3812418
000130 44 27 b7 3f d9 69 bc 3e a2 1b 97 3e a9 78 10 3f
       1.4308858 0.36799505 0.2951327 0.5643411
000140 42 e5 cf 3e 27 a6 8c 3f 1b d6 7a bc 33 49 94 3e
       0.40604597 1.0988206 -0.015309836 0.28962097
000150 a5 42 46 c0 e5 3e 20 be 0e a0 0f bd 29 d3 0c 3f
       -3.0978177 -0.15648992 -0.03506475 0.55009705
000160 a3 9b 00 3e 9e 4b 34 3f b7 0b 10 3f e0 23 18 3f
       0.1255937 0.7042788 0.56267875 0.5942974
000170 82 08 84 3f d4 3c 41 3f 33 8b 67 3f db c4 3d 3e
       1.0315096 0.7548344 0.90446776 0.18532126
000180 aa f7 b8 3e 00 1e 8c 3e 04 16 93 bd 84 4d da bd
       0.36126453 0.27366638 -0.071819335 -0.10659316
000190 a4 aa 44 bd 84 7f d5 bc 4d ee 89 be c9 3d 94 3f
       -0.048014298 -0.02606178 -0.26939622 1.1581355
0001a0 c7 2a c8 be 42 b9 86 bd 0f 47 85 3e 80 41 46 bc
       -0.39095137 -0.06578304 0.26030776 -0.012100577
0001b0 6a 89 13 be 90 bb d3 3d 06 84 cf 3e 01 35 62 bc
       -0.14407888 0.10338509 0.40530413 -0.013806582
0001c0 10 02 ee be 9d b0 57 3f fb 61 1d bd d0 14 99 3e
       -0.4648595 0.84253865 -0.03842352 0.2989869
0001d0 41 eb 8f bd 7c 56 2d 3f cd d7 32 3f ae b1 49 3f
       -0.07027293 0.6771009 0.69860536 0.7878674
0001e0 3b cb 59 be ce 9e a5 3e ae 5a 9c bf 51 87 19 bd
       -0.21268933 0.3234772 -1.2215173 -0.037482563
0001f0 12 95 81 3e 0a 0d 18 3f ea 66 5f 3e da d5 8f 3e
       0.25309044 0.59394896 0.21816602 0.28092843

policy_layers.0.weight f4 [128, 128]
000000 61 1b 73 3e f1 7a 17 3e bb 77 4b 3d 21 13 c3 bd
       0.23740913 0.14792992 0.04967473 -0.09525133
000010 aa c0 d1 bd 98 ad e6 be 6c b4 41 3d 4f a7 f2 3c
       -0.10241826 -0.45054317 0.047291204 0.029620795
000020 82 e9 7d 3e 42 ba c5 bd c7 96 79 3e fa 00 98 3e
       0.24796107 -0.096546665 0.24373923 0.29688245
000030 68 32 0d 3e 87 89 aa be 26 4e 41 bf a0 69 17 bf
       0.1378876 -0.3330805 -0.7550987 -0.59145546
000040 23 5c f2 3b 9d e8 ed 3d f0 29 54 3e 4a a9 95 3e
       0.0073962375 0.11616633 0.20719123 0.2923072
000050 7d d4 01 3f 0d 8c 93 3e 9e aa 2b be ae dc 96 3e
       0.50714856 0.28817788 -0.16764304 0.2946524
000060 d1 94 1e 3e a0 a3 1f 3e 97 1d 85 3e 65 89 92 3e
       0.15486456 0.15589762 0.25999138 0.2862045
000070 f8 e4 3d 3e f0 ca d5 be 2c 4e d3 3c e2 22 d6 be
       0.18544376 -0.41756392 0.025794111 -0.41823488
000080 dd 58 2e bd ee 51 13 bf ee 34 56 3d 59 04 aa bd
       -0.042565215 -0.5754689 0.05229657 -0.083016105
000090 95 33 c3 3d 45 74 5a 3d fb ce 70 bc 69 2e b4 3e
       0.09531323 0.05333354 -0.0146977855 0.35191658
0000a0 92 d3 83 3c e6 ad 38 3e cf 59 34 3d 57 9f 91 3e
       0.016092096 0.18035087 0.04403096 0.2844188
0000b0 cd 56 09 3e 98 06 46 3e db 73 9c 3e 9c aa d4 3e
       0.13412018 0.19338453 0.3055714 0.41536415
0000c0 ba 4c db bd 06 b9 ed be 4d c9 b2 bd a8 e9 99 be
       -0.10707994 -0.46430224 -0.08729801 -0.30061078
0000d0 92 85 cb be a6 b2 58 3e bf f1 06 3e d8 71 ea bd
       -0.39750344 0.21161899 0.13178156 -0.11447495
0000e0 2e 19 83 3d 1f 1f 83 3e 74 ff f0 3d a3 55 80 be
       0.06401287 0.2560968 0.11767474 -0.25065336
0000f0 bb a2 d9 bc d4 a3 d6 3d 9c ef 12 bf 2c 6e fc be
       -0.026566854 0.104804665 -0.57396865 -0.49302804
000100 38 19 c7 3d bc 1c 7e bd f1 0d 7a 3e a6 6e 15 be
       0.09721607 -0.062039122 0.2441938 -0.1459299
000110 e0 f1 aa be 26 09 94 bd 1f 9f aa 3e 3d 77 c4 bd
       -0.3338766 -0.072283074 0.33324525 -0.095930554
000120 c5 ca 5c 3e 9a 5f 95 3e 90 05 5f 3e 39 9c 32 3e
       0.21561725 0.291745 0.21779466 0.17442407
000130 1c fe d3 3e 50 bd 05 be e2 f0 53 3e 0c b4 4c 3e
       0.41404808 -0.13060498 0.20697358 0.19990557
000140 00 3f 1d 3f e0 8d a2 bd 54 7b 0e 3e dc 30 66 be
       0.61424255 -0.07937217 0.13914233 -0.22479576
000150 58 a6 70 3d 63 64 37 3c 28 00 59 be 76 55 45 3e
       0.058752388 0.011193368 -0.21191466 0.19270882
000160 3e 37 9b be 74 5c 9c bd 38 2b 8e be 0f f0 a4 be
       -0.30315584 -0.076348215 -0.27767348 -0.322144
000170 c0 30 0d bd 60 6c 8e 3d 06 8b 61 bd 61 1a e0 bd
       -0.03447032 0.06954265 -0.055064224 -0.109425314
000180 63 9b 96 3d bb 3e 41 3e 75 38 a6 bd 38 c7 ec 3b
       0.073538564 0.18871586 -0.08116237 0.007225897
000190 65 29 83 3c 94 47 20 bd 79 41 ed bd 21 c4 9d bc
       0.01601095 -0.039130762 -0.115847535 -0.01925856
0001a0 c3 cb 0a 3f 56 35 7f 3e e8 b3 c4 bd 6b 44 5d be
       0.54217166 0.2492269 -0.09604627 -0.2160813
0001b0 3f 92 5d 3e 78 a9 bb 3e 8a ac 50 3e 6d 47 c6 3e
       0.2163782 0.36652732 0.20378318 0.3872637
0001c0 f5 23 08 3e 03 5e c9 3d 4a e3 55 be 08 be 05 bf
       0.13294967 0.098323844 -0.20887485 -0.5224309
0001d0 2f 8f 32 3e ee 11 2e bf 96 8b 89 bd fd 8c c5 bd
       0.17437433 -0.6799611 -0.06716077 -0.09646032
0001e0 84 72 66 3d 0e e5 e0 be 67 2b 89 3e 2b b4 98 be
       0.056261554 -0.43924755 0.26790926 -0.29824957
0001f0 7a 5b 07 be 77 56 44 3e f0 c7 8f 3e c4 af b5 3e
       -0.1321849 0.19173609 0.28082228 0.3548566
000200 18 d0 e2 be e8 88 8a be 62 4e d8 3c 2d 9a 8b 3e
       -0.44299388 -0.27057576 0.026404563 0.27266064
000210 2b 61 a9 be b7 ad ec bd f8 57 fa bd 30 49 8c be
       -0.33081946 -0.11556571 -0.1222381 -0.27399588
000220 96 b1 0a bd 7f a2 ad bd 86 b2 a1 bd b9 97 9a 3d
       -0.033860765 -0.08478259 -0.07895379 0.0754847
000230 2a c0 9b 3e e4 14 3d be ad 2e ac be 20 ff af bd
       0.30420047 -0.18465 -0.3362936 -0.08593583
000240 51 d0 bd be 4d ca d7 bd 43 e3 73 3e 2c 70 8f 3e
       -0.37072995 -0.10536633 0.23817162 0.28015268
000250 97 6f ae be 7e 97 11 be 10 b7 04 bd 05 4a 01 be
       -0.3406951 -0.14217946 -0.032401145 -0.12625892
000260 b1 f0 00 bd c7 5d de bd dd dc 96 3d 69 e3 60 bc
       -0.03147954 -0.1085773 0.07366345 -0.013726094
000270 68 8c c9 3d 28 d8 a9 3e db 8d 8b 3e 37 75 b9 3e
       0.098412335 0.33172727 0.27256665 0.3622224
000280 2c c7 fa 3d 1b 20 dc be b4 a1 a1 ba 08 13 57 be
       0.1224502 -0.42993245 -0.0012331516 -0.21003354
000290 8f 3a bc bc e7 8f 1d bd 5d be 1c bd 88 2f ec bc
       -0.022977142 -0.038467314 -0.038267482 -0.028831258
0002a0 5e 2e fe 3e 5c 5d 24 3d 6e 4f 21 3e c6 da 39 3e
       0.4964475 0.040128097 0.15752956 0.18149862
0002b0 38 d9 97 be b5 68 9a be d3 74 18 bc 5b 41 ec 3d
       -0.29657912 -0.3015801 -0.009305197 0.11535903
0002c0 35 62 a4 be 71 06 c2 3d 30 af d1 3e 9b aa 05 be
       -0.32106176 0.09473885 0.4095397 -0.13053362
0002d0 c2 ad 17 3f a8 83 5a be e7 7e 35 3e 32 4e 4b 3d
       0.5924951 -0.21339285 0.1772419 0.04963512
0002e0 41 47 2a 3d c8 24 f7 3d 30 92 31 be 7b 93 8b 3d
       0.04157186 0.12067562 -0.17340922 0.06815239
0002f0 32 d4 a4 bd cf 7a 04 bf 42 42 32 3e cd 9d 7a be
       -0.080482855 -0.5174989 0.17408088 -0.24474259
000300 a9 00 dd bd ff 39 48 be 28 f6 16 3e 36 f5 2e be
       -0.107911415 -0.19553374 0.14742339 -0.17085728
000310 18 e9 c8 3d 79 91 9d be 19 fd cf 3e b0 56 46 bd
       0.09810084 -0.3077505 0.40622786 -0.048422515
000320 e3 df 26 3e ac df a0 be c7 b0 7d 3c 95 d5 65 be
       0.16296344 -0.31420648 0.015484042 -0.22444756
000330 a5 81 9f bd d9 dd d1 3e 18 e1 a9 3c cc 9b 84 be
       -0.077883996 0.4098957 0.020737216 -0.25900114
000340 63 a7 9e 3e 25 40 c0 3e 34 78 30 ba ec 0e 9c be
       0.3098708 0.37548938 -0.0006731779 -0.30480134
000350 30 d7 f5 bd dd a6 20 be 53 1e b1 be a5 fa 9f be
       -0.120039344 -0.15688653 -0.34593448 -0.31245914
000360 83 90 5a 3e 76 fd af 3d b4 4c de 3d bb b7 cb 3e
       0.2134419 0.08593266 0.10854474 0.39788613
000370 47 11 ae be 25 8c fb 3d 8c ab d8 bd 8b 31 74 3d
       -0.33997557 0.1228259 -0.10579595 0.05961756
000380 85 34 b6 3e 59 76 23 be 7b 49 07 3e c0 23 fe bd
       0.35586944 -0.15963115 0.13211624 -0.124091625
000390 a6 08 01 bd b7 37 9d 3e 2b 35 0c 3e 62 c3 9f 3e
       -0.03150239 0.3070657 0.13692157 0.31203753
0003a0 6f a0 7f 3e b8 57 83 3e ae 22 d5 3b 25 31 73 3e
       0.24963544 0.25652862 0.0065043783 0.23749216
0003b0 d1 4f a8 bd 64 6c 9d be 29 1e 32 be d3 10 f6 bd
       -0.08218349 -0.30746758 -0.17394318 -0.12014928
0003c0 62 17 b4 3c 5e 4c c0 3d f6 63 19 3e 1c 0a 0e 3e
       0.021983806 0.09389566 0.14979538 0.13871044
0003d0 53 4d 58 3d 98 22 14 3e e3 96 09 3e 55 3e 51 3e
       0.052808117 0.14466321 0.13436465 0.20433934
0003e0 1e 48 70 bd 5b e9 a5 be 4f aa a0 3c 2a 18 93 3e
       -0.058662526 -0.324046 0.01961246 0.28729373
0003f0 ce 88 30 be c2 ee fb 3d 75 c5 40 3f b5 7d 89 bd
       -0.17239687 0.12301399 0.75301296 -0.0671343

policy_layers.0.bias f4 [128]
000000 07 a3 93 bd d8 e5 b9 3e 6e 69 9b 3f d1 29 06 3f
       -0.072088294 0.3630817 1.214155 0.52407557
000010 6d ac 91 be 14 36 14 bf 7e 21 df be f3 ed d7 3e
       -0.28451863 -0.57895017 -0.4358024 0.42173728
000020 7a b7 31 3f 2a 92 79 be 03 05 a5 3f b7 39 58 bf
       0.6942059 -0.24372163 1.2892154 -0.84463066
000030 de 13 88 3f 1d f7 ce 3e f0 d3 53 3f 29 17 82 3f
       1.0631063 0.40422907 0.82745266 1.0163318
000040 a4 20 a6 3f e1 f7 a4 be 7f ca 92 3f 8d 26 de 3d
       1.2978711 -0.32220367 1.1468047 0.10847197
000050 6f 08 bc 3e 0a cd a6 3f 32 00 0f bf 40 ed 26 bf
       0.36725184 1.3031323 -0.55859673 -0.65205765
000060 c7 92 04 bf 74 35 9f 3e 6b ff e1 3e 2d dd 79 3f
       -0.51786464 0.3109547 0.4414018 0.9760311
000070 d2 65 e7 be 9b cc ae 3f d2 e2 b8 be af 24 36 3f
       -0.4519487 1.3656191 -0.3611055 0.71149725
000080 18 ed 4a 3f 3c 73 aa be c1 c0 d6 be f8 81 c0 be
       0.79268026 -0.33291042 -0.41943935 -0.37599158
000090 43 cc c0 be 89 87 f5 be cc 7d 24 bf 38 8f 00 3f
       -0.3765584 -0.47954968 -0.6425445 0.50218534
0000a0 90 a9 ad 3f bc 6e 76 be 51 3d 15 bf 46 6e 80 3f
       1.3567371 -0.2406568 -0.58296686 1.0033653
0000b0 fe 07 39 3e 0d ae a2 3f 48 38 de 3e aa d1 f0 be
       0.18069455 1.2709366 0.43402314 -0.4703496
0000c0 1b ce b3 be c3 dc 3b 3e d2 88 f1 be 2d 4a c5 bd
       -0.35118183 0.18345933 -0.47174698 -0.096332885
0000d0 70 64 84 3f df 1b 74 be ed 25 77 3f 9b 74 57 be
       1.0343151 -0.23838757 0.96542245 -0.21040575
0000e0 a8 7b e4 3e 19 d5 cb be dd 1c 89 3e 5c 88 c0 3f
       0.44625592 -0.39811018 0.26779833 1.5041614
0000f0 67 b0 c0 be 1f df 06 3e 56 91 9b 3f a9 b5 06 bf
       -0.37634584 0.13171051 1.2153728 -0.5262094
000100 f6 f5 13 3f b6 2f f2 3e 3b 5c 89 3f b9 5a ef be
       0.5779718 0.47302026 1.0731272 -0.46748903
000110 c9 ed eb be 88 c0 bc be 3f bb 36 3f e4 20 e0 be
       -0.46079853 -0.3686564 0.71379465 -0.43775094
000120 e9 b3 cd be cb 47 15 bf 9d 4f 4e 3f 95 ae af 3f
       -0.40176323 -0.5831267 0.8059023 1.3725153
000130 25 4d 93 3f 8a 40 8b 3d f6 a9 1f 3f 61 59 5d 3f
       1.1507918 0.06799419 0.62368715 0.86464506
000140 17 d3 49 3f b1 7c a9 3f 6c 29 97 3f 3a b7 fe be
       0.7883772 1.3241178 1.1809516 -0.49749166
000150 76 49 5d 3f f3 15 ca 3f af 3c aa 3f bd 35 cb 3e
       0.8644022 1.5787948 1.3299769 0.39689437
000160 1a 8e 3f be 79 78 04 bf 0c 1f 08 3e f0 56 ce 3d
       -0.18706551 -0.51746327 0.13293093 0.10075176
000170 bb f2 9c 3f bd a5 ad 3f 93 ea f6 be 4c 8d a9 3f
       1.2261575 1.3566204 -0.4822584 1.3246245
000180 25 8a 51 3f 2f 16 5d 3f 1f 6f 69 3f 2f fc 81 bd
       0.81851417 0.86361974 0.9118518 -0.06346928
000190 28 da bb 3f f1 0d 11 3f 41 df aa be 96 ef c8 bc
       1.4675951 0.566619 -0.33373454 -0.024528306
0001a0 37 d9 d9 3e 40 8e 8b 3f eb cc bb 3f ab de e1 be
       0.42548534 1.0902786 1.4671911 -0.44115195
0001b0 d2 29 8e 3f a8 c9 48 3e c0 cc cf 3e c5 eb 54 3f
       1.1106513 0.19608176 0.405859 0.83172256
0001c0 c7 55 b3 3e 65 b7 2b bf 61 63 cb 3d 5f ee c9 3f
       0.3502638 -0.6707671 0.099310644 1.577587
0001d0 d3 46 8c be dd e2 00 bf b6 3d 7b 3f b5 71 d9 be
       -0.27397785 -0.50346166 0.9814104 -0.42469564
0001e0 e2 0f c6 3f b5 b2 ce be b3 89 17 3f 31 77 4c bd
       1.5473597 -0.40370718 0.5919449 -0.049918357
0001f0 32 eb fd be 01 69 51 3f a5 b3 83 3f be cc 38 3f
       -0.49593502 0.8180085 1.0289198 0.7218741

policy_layers.2.weight f4 [7, 128]
000000 9e a3 b8 3f 27 76 b2 3f ac 20 07 3f f6 1f 11 40
       1.4424932 1.3942307 0.5278423 2.2675757
000010 9f cb d3 3f 07 9b 3c 40 75 e9 fd 3f 78 4e bd 3f
       1.6546515 2.946962 1.983687 1.4789572
000020 26 09 a1 3f 94 32 f0 3f 82 29 a3 3f 04 aa 19 40
       1.2580917 1.8765435 1.2747042 2.401002
000030 30 85 db 3e c4 60 0b 40 86 7a 56 3f e8 60 3a 3f
       0.42875051 2.177781 0.83780706 0.7280412
000040 6d 4f 45 3f c6 3b 4a 40 05 72 be 3e 0d 0a 02 40
       0.7707432 3.1598983 0.37196365 2.0318635
000050 4d 70 96 3f 6f 8c c7 3e 03 80 95 3f a0 a7 20 40
       1.1753021 0.3897433 1.1679691 2.510231
000060 ba 17 03 40 59 4e 89 3f 49 44 06 40 9e 72 b8 3f
       2.0483232 1.0727035 2.0979178 1.4409978
000070 78 de 19 40 ad c8 07 3f c2 ed 1c 40 7b cd 53 3f
       2.4042034 0.5304058 2.4520116 0.82735413
000080 b4 42 ab 3f 38 4b dd 3f 80 5a f5 3f 68 90 a5 3f
       1.3379731 1.728858 1.9168243 1.2934694
000090 1a 1a 4e 3f 77 0f af 3f b8 5f 3f 40 0c ad 79 3f
       0.8050858 1.3676594 2.9902172 0.97529674
0000a0 e6 4b 12 3f 86 24 85 3f 5f fe 0c 40 75 52 53 3f
       0.5714706 1.0401771 2.2030256 0.82547694
0000b0 fe ac 29 40 f0 52 68 3f d1 70 b2 3f 01 ba 0b 40
       2.6511836 0.9075155 1.3940679 2.1832278
0000c0 e8 b7 0a 40 13 66 cd 3f 57 b1 bf 3f 29 09 ba 3f
       2.1674747 1.6046776 1.4975995 1.4534045
0000d0 26 05 3a 3f 9f 95 26 40 6f 4d 0d 40 d0 87 5f 3f
       0.72664106 2.6028821 2.2078512 0.8731661
0000e0 95 f8 a9 3f b3 bd c7 3f 5f 51 34 3f fd 4b f1 3c
       1.3278986 1.5604767 0.7043666 0.02945518
0000f0 13 87 12 40 07 e4 1c 40 c7 64 36 3f f1 49 f9 3f
       2.2894943 2.4514177 0.71247524 1.947569
000100 19 9f 8a 3f 90 af ca 3f d4 86 7f 3f a5 4f b1 3f
       1.0829803 1.5834827 0.99815106 1.385243
000110 34 d3 b7 3f 68 12 e8 3f 63 9b 89 3f 60 e7 37 40
       1.4361329 1.8130617 1.0750545 2.873497
000120 2a 9c d3 3f fb dc e6 3f b0 1b 95 3f e1 02 bf 3e
       1.6532032 1.8036188 1.1649075 0.37306884
000130 43 67 2d 3f 89 fa 8a 3f 07 43 8a 3f 0e 56 9f 3f
       0.6773569 1.0857707 1.0801705 1.2448137
000140 93 72 96 3f c6 a1 1e 3f 5a b0 e2 3e 46 7c ff 3f
       1.1753715 0.61965597 0.4427517 1.99598
000150 90 5d 16 3f 3a 25 a8 3e ae 3b 82 3f fc 5d 12 40
       0.58736515 0.32840902 1.0174463 2.2869864
000160 c9 3b b1 3f d5 d8 13 40 9f 37 ce 3f b0 11 ae 3f
       1.384637 2.3101094 1.6110724 1.3599148
000170 a7 a5 1b 3f 5e fe 7c 3e 86 b7 a1 3f f6 9b 90 3f
       0.6079964 0.24706408 1.2634132 1.1297596
000180 7f 8b ab 3f 5a cf c9 3f 9f 1f e7 3f 51 15 03 40
       1.3401946 1.5766404 1.8056525 2.048176
000190 99 2f fd 3d 75 53 ac 3f d6 8d 14 40 8c a8 83 3f
       0.12362594 1.3462969 2.321157 1.0285811
0001a0 65 85 b7 3f 97 f1 55 3f cc 1e 39 3f 86 f6 f4 3f
       1.4337584 0.8357176 0.7231262 1.9137733
0001b0 04 54 5a 3f cf 9b 1b 40 d2 a6 2e 3f 40 e5 dd 3f
       0.8528445 2.4313848 0.682233 1.7335587
0001c0 34 b7 18 40 13 6f 4f 40 a4 34 0a 40 fa 86 19 3f
       2.3861818 3.2411544 2.159463 0.5997158
0001d0 70 85 a1 3f 89 0d f8 3f ba 47 19 3f d2 b9 10 40
       1.2618847 1.9379131 0.5987507 2.2613416
0001e0 c2 59 b9 3d 6e d2 ac 3f bc d5 9f 3f 5d cb 04 40
       0.09050323 1.3501718 1.2487102 2.0749123
0001f0 68 d5 8b 3f 83 13 c8 3f 28 d4 57 3f 30 0e e1 3f
       1.0924501 1.5630955 0.843081 1.7582455
000200 66 19 b1 3f 2f ef 74 3f be 9d 7b 3f d9 2f 4a 3f
       1.3835876 0.95677465 0.9828757 0.7897926
000210 5c c8 ad 3f 03 13 2a 40 64 0f 1d 40 48 d0 f7 3f
       1.357677 2.6574104 2.4540644 1.9360437
000220 d3 53 4d 3f cf fd 20 40 da 12 2f 3f b5 f6 d8 3f
       0.8020603 2.5154912 0.6838814 1.6950289
000230 db 2e a9 3f 23 82 18 40 85 9b 9a 3f 70 0a 76 3f
       1.3217424 2.382943 1.2078711 0.96109676
000240 69 d4 54 3e 91 1d 44 40 9d 29 b2 3e 40 f1 01 40
       0.20784153 3.0643046 0.34797373 2.0303497
000250 2a 89 07 40 19 6d eb 3e a4 27 e2 3f f6 b5 2d 40
       2.1177468 0.45981672 1.7668347 2.714231
000260 a2 c0 00 40 60 48 85 3f 38 bf b5 3f 5a a0 d4 3f
       2.0117574 1.0412712 1.419898 1.6611435
000270 ef 35 db 3f 92 50 47 3f 40 95 20 40 40 3a 4c 3f
       1.7125834 0.77857316 2.5091095 0.7977638
000280 53 3b 0b 40 24 66 dd 3f a3 71 ba 3f 40 c4 c2 3f
       2.1754959 1.7296796 1.4565929 1.5216141
000290 a5 84 76 3f 35 80 d5 3f a1 ea b4 3f cb 52 f3 3f
       0.9629615 1.6679751 1.4134103 1.9009641
0002a0 80 a7 87 3f 00 ee d6 3f 3e bc 33 40 da fe 34 3f
       1.0597992 1.6791382 2.8083644 0.7070137
0002b0 a2 51 ef 3f 99 53 43 3f 7d 34 9a 3f a2 54 30 40
       1.8696787 0.76299435 1.2047268 2.7551656
0002c0 12 56 1c 40 b0 6e e3 3f 58 41 1c 40 12 e4 06 40
       2.4427533 1.7768154 2.4414883 2.1076703
0002d0 5b a9 5b 3f a5 42 15 40 ca b4 85 3f 54 2f 08 40
       0.8580529 2.3321927 1.0445797 2.1278887
0002e0 8d f0 4e 3f 50 ca c6 3f 95 41 0a 40 e9 f4 52 bb
       0.808358 1.5530491 2.1602528 -0.0032189435
0002f0 9b 36 fe 3f ef ed d1 3f 43 e7 82 3f ed 7f b3 3f
       1.9860414 1.6400737 1.0226825 1.4023415
000300 93 a0 4e 3f 93 c8 c8 3f 48 d4 0b 3f 31 20 e0 3f
       0.80713767 1.568621 0.5462079 1.7509824
000310 f6 2f ec 3f 07 95 ef 3f 17 6a 9b 3f b5 e2 f1 3f
       1.8452137 1.8717355 1.2141751 1.889731
000320 a9 06 ea 3e bf 16 d8 3f 03 f0 b6 3f 36 d9 01 3f
       0.45708206 1.6881942 1.4291996 0.5072206
000330 86 fc 81 3f 7d 8a dc 3f 68 3c f8 3f c5 42 6d 3f
       1.0155189 1.7229763 1.9393435 0.9268001
000340 07 38 3f 3f eb 69 3b 3f 6e b8 a3 3f 68 5f 0c 40
       0.74694866 0.73208493 1.2790658 2.1933231
000350 22 eb 60 3f bc 94 b2 3e bb 8b a5 3f eb 3a d0 3f
       0.87858784 0.348791 1.2933267 1.626798
000360 0b 7b c1 3f 84 89 16 40 d2 3f ca 3f e9 4e d9 3f
       1.5115675 2.3521433 1.5800726 1.6977206
000370 b1 22 61 3f ec 1b 0d 3f 1e 26 c4 3f cd fd 73 3f
       0.8794356 0.5512073 1.5324132 0.95309144
000380 aa 62 a4 3f f2 6f 81 3f b7 20 75 3f 30 93 ee 3f
       1.284261 1.0112288 0.95753044 1.8638668
000390 46 6f 95 3e b8 af d7 3f 97 39 1c 40 0b ee 0c 40
       0.29186457 1.68505 2.441015 2.202029
0003a0 9a c1 d0 3f 1d 3b 70 3f 13 db 07 3f 06 4c 1a 40
       1.6309083 0.938402 0.53068656 2.41089
0003b0 d5 30 42 3f e7 95 1d 40 42 0f da 3f 10 2b 87 3f
       0.7585576 2.4622743 1.7035906 1.0560017
0003c0 9d 31 f9 3f 86 37 0d 40 be 23 e8 3f 52 51 58 3f
       1.9468266 2.206514 1.8135908 0.84499085
0003d0 62 77 d7 3f 1d 3e 0d 40 09 20 bf 3f 1f be 2c 40
       1.6833308 2.206916 1.4931651 2.699104
0003e0 55 ad 18 3f d1 dd ae 3f 04 4c 67 3f 9a 85 ae 3f
       0.59639484 1.3661443 0.90350366 1.3634522
0003f0 f4 ac e4 3f d7 94 bb 3f 72 45 85 3e c1 4a 76 3f
       1.7865281 1.4654797 0.26029545 0.96207815

policy_layers.2.bias f4 [7]
000000 61 c3 00 3f 1b 5c d0 3e 08 5b 7c 3e 01 82 19 3f
       0.50298125 0.4069527 0.246441 0.59963995
000010 07 9d 71 3f ee 0b 2a 3f b6 ff 79 3f
       0.9438023 0.66424453 0.9765581

value_layers.0.weight f4 [128, 128]
000000 26 51 93 bf 02 09 62 bf a3 1b d2 bd 12 05 16 3f
       -1.150914 -0.88294995 -0.102591775 0.58601487
000010 d3 63 b6 be 10 2f 01 bf ad 0c 4a bc a9 d3 de 3e
       -0.35623035 -0.50462437 -0.012332124 0.4352086
000020 aa e1 b4 be d7 91 73 be 0a a4 5d bc 20 b1 10 3e
       -0.35328418 -0.23786102 -0.0135278795 0.14130068
000030 09 3b 92 bd 70 ec 7c 3c a6 8c 43 3b d8 59 0d bf
       -0.07140166 0.0154372305 0.0029838472 -0.55215216
000040 62 97 df be cc 55 99 3e 84 a1 3d 3e 26 08 7b 3e
       -0.43670183 0.2994827 0.18518645 0.24514827
000050 53 6f de 3e cd b0 12 3e 9a 1c f1 3e 06 b8 aa be
       0.4344431 0.14325257 0.47092134 -0.33343524
000060 99 b6 bb bd 4d 36 b7 bf 29 1a e7 bd 6c d2 4c 3e
       -0.09165687 -1.4313446 -0.112842865 0.20002145
000070 d5 5b c9 3e 40 11 13 3e 20 c4 58 be 66 72 0d 3e
       0.39327875 0.14362049 -0.21168566 0.13813171
000080 ed bd 29 bd 29 39 24 3e f6 5d b2 bf 07 c9 a9 be
       -0.041440893 0.1603743 -1.3934925 -0.33161184
000090 cd a6 4a bf 52 8b 05 bc 0b 92 e8 3d 2a d4 2a bf
       -0.7916077 -0.008150892 0.113559805 -0.66729987
0000a0 8e f7 40 3f 83 26 19 bf da 02 2a 3f 22 9f 46 bd
       0.7537774 -0.5982439 0.664106 -0.048491605
0000b0 8e b5 e7 be 90 74 34 3f 36 38 6b bd a5 30 f9 3e
       -0.45255703 0.7049036 -0.057426654 0.48669925
0000c0 b4 e9 8f be 3e 6d da 3c a1 bb 30 bf a2 1e 97 3d
       -0.2810799 0.026663419 -0.690363 0.073788896
0000d0 47 53 e4 bf 17 af c5 3e 9a 4f 3d 3f ec 61 e7 bf
       -1.7837914 0.38610145 0.7394959 -1.8076758
0000e0 b3 1b a1 bd 1b bf b3 3e 88 6c ba be 7a 7b ac be
       -0.07866611 0.3510674 -0.36410928 -0.33687955
0000f0 5c bb 06 3e 2c 23 f3 3d 40 4c 4c bd 43 74 cb 3d
       0.1315741 0.11871943 -0.049877405 0.099342845
000100 21 bd ae bf 29 90 5e 3d 9d 07 36 3e e5 ac a5 3d
       -1.3651468 0.0543367 0.17776342 0.08089618
000110 b8 94 fc 3e 36 0d bb 3e 85 13 1a bf c4 cb d3 bf
       0.49332213 0.36533517 -0.60186034 -1.6546559
000120 80 9e 5c 3e a4 e7 40 bf 64 25 11 3b 86 4f 03 3f
       0.21544838 -0.75353456 0.002214753 0.5129322
000130 20 fe 9e bf a2 ed f9 3e f1 dc 09 3f 61 09 80 be
       -1.2421303 0.48814112 0.53852755 -0.25007156
000140 1d b1 d7 bd 40 f0 64 3f dd 7b b9 3d 0d e1 dc be
       -0.105318286 0.8942909 0.09056828 -0.4314045
000150 ae 20 10 bf 1a 1b 52 3e 97 3c 16 be 78 10 e0 be
       -0.56299865 0.20518151 -0.1467155 -0.43762565
000160 c6 2e 13 3e f0 7e 17 be 5c 78 f1 3e 6d 15 60 3f
       0.14373311 -0.14794517 0.4716214 0.87532693
000170 b5 25 40 bd a8 9e 60 be 15 86 b9 be 1e af 8f be
       -0.04691096 -0.21935523 -0.3623511 -0.2806329
000180 42 5d ef 3d 81 3c 45 3f 40 7a 00 be a7 27 b6 be
       0.116877094 0.77045447 -0.12546635 -0.35577127
000190 26 fe 9e 3d 4d f1 c6 3b 6f 03 11 3c 20 ed 18 3f
       0.07763319 0.0060712458 0.008850916 0.59736824
0001a0 25 06 c9 bf 65 9c 87 3b ee 05 fa be 61 b4 65 bd
       -1.5705 0.0041385167 -0.4883265 -0.056080226
0001b0 e0 0f 81 bd 70 b7 0d bf aa d7 5d be c1 fe 34 3e
       -0.06301856 -0.5535803 -0.216643 0.17675306
0001c0 ff 0c bb be 27 42 27 3f 92 aa 7a bc ad 80 f1 bd
       -0.36533353 0.65335315 -0.015299456 -0.11792121
0001d0 c2 47 80 be e7 1c 81 be 7e 74 5e 3f b0 77 19 3e
       -0.25054747 -0.25217363 0.868965 0.14987063
0001e0 84 2a b9 3e f4 35 45 bf b8 40 c7 3c 29 f9 b9 bd
       0.3616525 -0.7703545 0.024322852 -0.09080727
0001f0 ef a2 06 be 90 48 4a be 7f 4d c8 be 9e 2d fe bf
       -0.13148092 -0.19754243 -0.39121625 -1.9857671
000200 66 4c c2 be 33 df f9 bd c3 bd 10 bf 6a 05 c5 be
       -0.37948912 -0.12200775 -0.56539553 -0.38480693
000210 c8 5b 71 3f 75 2b 81 bd b6 a6 4d be 9c f6 63 bf
       0.9428067 -0.06307117 -0.20083126 -0.8904817
000220 76 09 d9 3d 6d fa 8d 3d 2c 24 51 bd 1c 44 49 be
       0.10597508 0.069325306 -0.051059887 -0.19654888
000230 42 e0 1d 3f 89 cd da bf 21 00 30 3e 18 27 17 bf
       0.61670315 -1.7093974 0.17187549 -0.5904403
000240 c1 27 cb bd c8 5e b2 3f fd 6b a4 bc 64 1d cb 3d
       -0.09919692 1.3935175 -0.020071024 0.09917715
000250 0f 46 2d bf c0 01 e8 bf 9d d0 87 3d d3 5e 07 c0
       -0.67685026 -1.8125534 0.06631587 -2.1151626
000260 f4 e0 b3 3d e3 55 16 c0 4b 29 af be eb c8 14 bf
       0.08783141 -2.348992 -0.34211192 -0.58119076
000270 5e 7b 16 bf 57 9a 4a bf 8e 94 a3 3e 17 5f af be
       -0.58781993 -0.79141754 0.31949276 -0.34252235
000280 c0 f3 de be 2d 6a 45 3d d1 e6 04 3f 93 79 df 3e
       -0.43545341 0.04819696 0.519147 0.4364744
000290 41 d0 07 bf 8c cf ba 3f 34 d8 c4 be 98 9c ef 3d
       -0.53052145 1.4594588 -0.384462 0.1169979
0002a0 f1 3b 1a bd e2 fa 04 c0 3a 8f 8b be 10 82 3d 3f
       -0.03765482 -2.0778127 -0.2725771 0.74026585
0002b0 47 d5 85 3d eb dc 1c 3f 30 38 20 3e 46 84 fa 3d
       0.0653482 0.61274594 0.15646434 0.122322604
0002c0 a0 06 14 bf dc 8c 48 bf 69 dd a8 3f 14 fe c1 3e
       -0.5782261 -0.78339934 1.3192569 0.3788916
0002d0 85 ef 7f bd ce e1 10 3f 0f 4f 40 3e 15 8b aa bf
       -0.062484283 0.5659455 0.18780158 -1.3323694
0002e0 6b 82 14 3f 8a 73 b6 bf 25 13 d1 be 43 09 d5 bf
       0.580115 -1.425401 -0.4083492 -1.6643451
0002f0 56 e7 ed be b6 22 d4 3e 36 ec e1 bf 92 74 2f bf
       -0.46465558 0.41432732 -1.7650211 -0.6853725
000300 82 8d bc bf e6 1a 34 be c7 cd b7 bd 59 84 64 be
       -1.4730685 -0.17588386 -0.08974796 -0.22316112
000310 30 4f 1c 3f 67 65 03 3f 5e 6d 14 be 32 96 59 bf
       0.6105833 0.513266 -0.14494845 -0.84994805
000320 b4 68 09 bf 0e 4e 82 3e f6 64 0e 3f 06 48 56 bf
       -0.5367539 0.25450176 0.55622804 -0.8370365
000330 a6 ff 49 3f 77 18 be 3b e2 b5 66 3d 12 4e de be
       0.78905714 0.0058012563 0.0563258 -0.43418938
000340 90 03 62 3e 09 e4 9c 3f 78 46 34 3e f7 a7 99 be
       0.22071671 1.2257091 0.17605007 -0.3001096
000350 a0 71 69 bf ba 27 c6 bf b6 60 83 be 11 a8 2b bf
       -0.91189003 -1.5480874 -0.25659722 -0.67053324
000360 0f 18 29 be 5d f5 0e 3e 72 ea 4a 3f 70 e4 f2 3e
       -0.16513084 0.13960786 0.79263985 0.4743991
000370 41 9b bf be ea 6f 0e 3f 09 40 0a bf 7f 16 81 be
       -0.37423137 0.5563952 -0.5400396 -0.25212476
000380 65 0b 63 be 32 ce ec be f7 fd 52 3f 90 21 17 bd
       -0.22172315 -0.46251065 0.8241877 -0.036897242
000390 aa bd 8c 3d c2 97 9e 3e 5d e3 5c 3d 7a e6 39 bf
       0.06872113 0.30975157 0.053927768 -0.72617304
0003a0 27 f7 5b bf 93 d1 87 3d 0e f6 c7 be 1c 0e 1b bf
       -0.85924 0.0663177 -0.39054912 -0.60568404
0003b0 55 fd 16 bf 6d e3 8f bf 1d df b3 bf 1c 0a 1c bf
       -0.58980304 -1.124128 -1.4052464 -0.60952926
0003c0 05 29 4f bf 30 78 80 3f a5 ca 37 be 57 02 df bf
       -0.80921966 1.0036678 -0.17948397 -1.7422589
0003d0 3e 98 81 3f 10 5b 12 3f 0b 8e 9e 3f 72 d9 07 c0
       1.0124586 0.571702 1.2387098 -2.1226468
0003e0 b6 80 6a be d8 aa ab 3f 8f 96 53 3d 3c 56 1c bf
       -0.22900662 1.3411512 0.051657256 -0.61069083
0003f0 99 31 6d 3f 0c 85 89 bd 02 99 f8 3e 56 ef ab 3e
       0.92653805 -0.0671483 0.48554236 0.33581036

value_layers.0.bias f4 [128]
000000 20 a8 35 3f 83 0e 2a 40 e8 d1 fd be e1 52 84 3f
       0.70959663 2.6571357 -0.49574208 1.0337793
000010 d4 44 1a bb 0e 08 95 bf 9a cd 4b 3f 77 2f b0 3f
       -0.002353956 -1.1643083 0.796106 1.3764485
000020 4c 19 91 bf cb 88 8e bf 56 96 12 3f ae 7d 5e be
       -1.1335845 -1.1135496 0.57260644 -0.2172763
000030 3a 4c 24 3e 5c 66 56 bf 11 57 ca be d3 34 44 3e
       0.16044703 -0.8374994 -0.3951955 0.19160776
000040 8f 81 4c be a3 18 a4 3e c8 a3 e2 bd 38 6e 10 b8
       -0.19971298 0.32050046 -0.11066395 -3.4434925e-05
000050 8f 0f 39 3f 67 16 7b bf 7d 48 68 3d 8e 21 0a 40
       0.72289366 -0.9808106 0.056709755 2.158298
000060 ff 9f cb be 9a 6d 84 be 74 6e 21 3e 12 7f 13 bd
       -0.39770505 -0.2586487 0.15764791 -0.036009856
000070 f9 a3 86 bf 1c 97 73 be 1a 35 52 bf b6 ef 3f be
       -1.051879 -0.23788112 -0.82112277 -0.18743786
000080 a8 ad 99 be c1 66 00 40 80 9d 92 be 26 81 2e be
       -0.30015302 2.0062716 -0.28635788 -0.17041454
000090 0c d5 ff 3e f5 00 1d bf 18 25 c7 bf f9 3d fa be
       0.4996723 -0.61329585 -1.5558195 -0.48875406
0000a0 28 26 4a 3f ff 27 6b bf f4 ec 30 3f f4 a2 ae be
       0.7896447 -0.91857904 0.6911156 -0.34108698
0000b0 6b 6d bd 3f ea 7e 8c 3f df ac 53 3f 43 fe 1f bf
       1.4799017 1.0976231 0.82685655 -0.6249735
0000c0 46 c0 4f be ac 26 32 3f 2a bb d3 be cf 70 a1 3f
       -0.2028819 0.6959026 -0.41353732 1.2612551
0000d0 2a 43 53 be 79 f8 9e bf c7 6e c7 3f 0d 4f 6b bf
       -0.2063109 -1.2419578 1.5580682 -0.91917497
0000e0 ae fc 9e 3e ab f0 90 bf dc e1 f4 3f 19 38 91 3f
       0.31052154 -1.1323446 1.9131427 1.1345245
0000f0 a9 5e f8 be 4d 20 20 40 cf a3 38 bd 2e 60 ef 3f
       -0.4850972 2.5019715 -0.045078095 1.8701227
000100 f5 63 b0 b9 4d a1 c9 bd d9 35 7f be 63 b9 4e 40
       -0.0003364381 -0.09845219 -0.24922885 3.230065
000110 df 74 09 be 83 4d 94 bf 8f ea 87 be 02 33 2e 3f
       -0.13423489 -1.1586155 -0.26546142 0.6804658
000120 3b cc 42 3f a4 9d f4 be 1f 7d 9a 3f 72 11 6c b9
       0.7609288 -0.4777652 1.2069434 -0.00022513213
000130 1e 39 51 3f 28 82 4c be e1 30 97 3d b3 6e b9 3e
       0.8172778 -0.19971526 0.0738237 0.3621727
000140 5c 31 a4 be fb 97 35 3f b6 ac 22 3f 97 52 61 3f
       -0.32068908 0.7093503 0.63544786 0.8801665
000150 21 b2 be be 19 76 38 3f fe 2d 57 3f 9a ee 10 be
       -0.37245277 0.720552 0.84054554 -0.1415352
000160 5b c5 a3 bd 87 08 c1 3f 5e b8 16 bf b4 aa 13 3f
       -0.07996627 1.5080727 -0.5887507 0.5768235
000170 d6 da a0 be f9 e3 cf bf 7a d4 16 3f c5 88 92 3f
       -0.3141696 -1.6241447 0.58917964 1.1447989
000180 41 93 06 bf 76 83 37 3f 6a 40 13 3f 74 e0 1f bf
       -0.5256844 0.7168497 0.57520163 -0.62451863
000190 3b 89 52 3f aa 13 03 bf 66 d3 37 be 50 6f 09 bf
       0.8224065 -0.5120188 -0.17951736 -0.53685474
0001a0 a9 e1 38 be 41 a6 7e bf ba ae d6 3b 46 09 0e bf
       -0.18054833 -0.99472433 0.0065515907 -0.554829
0001b0 92 1e bf be 2a 4a 49 3f 19 ec 6b 3f 76 c4 05 bf
       -0.3732801 0.7862879 0.9215713 -0.522529
0001c0 6c a8 fd 3e c5 a9 42 bf a7 e2 ee be 25 94 5c bb
       0.49542558 -0.760403 -0.46657297 -0.0033657637
0001d0 3d 43 da be 38 80 1a bd 5d b8 6e be db 2e 33 3f
       -0.42629424 -0.037719935 -0.23312517 0.6999337
0001e0 85 c0 45 40 47 ab bb 3f f7 9c ad 3f 84 8f 02 bf
       3.0898755 1.4661645 1.3563527 -0.5100024
0001f0 21 b6 6f 3f f3 ca 7f 3e 43 71 38 bf 57 0f 32 bf
       0.9363728 0.24979763 -0.72047824 -0.69554657
