Agent1_Congkak_PolicyGradient.pt (torch, 80903 bytes, 6 tensors)

layers.0.weight f4 [128, 16]
0	0x3d84c5e6	0.06483059
1	0x3e66710d	0.22504063
2	0x3e8c76d6	0.27434415
3	0x3e44271e	0.19155547
4	0x3e2f6d56	0.17131552
5	0x3de898f2	0.11357297
6	0x3d986784	0.07441619
7	0xbd198812	-0.037483282
8	0xbe00308e	-0.12518522
9	0xbda5a3b5	-0.08087865
10	0x3d1df4f0	0.03856367
11	0xbdda6ba4	-0.10665062
12	0xbd0ba8e4	-0.034096614
13	0xbe15b857	-0.14621101
14	0x3d8bd4f0	0.06827724
15	0xbe20f83d	-0.15719695
16	0xbe9b62e4	-0.30348885
17	0xbda0aa70	-0.078450084
18	0x3e7caf7b	0.24676315
19	0x3e3d0bfa	0.184616
20	0xbeaa7477	-0.3329198
21	0x3e3cfe64	0.18456417
22	0x3e2deef1	0.1698568
23	0x3e72d407	0.23713695
24	0x3dddea1a	0.10835667
25	0xbe46737f	-0.19379996
26	0xbe519856	-0.20468268
27	0xbdaf51f5	-0.08560554
28	0x3e4c2d64	0.1993919
29	0x3e13fa61	0.1445098
30	0xbe02df06	-0.12780389
31	0xbd59b72d	-0.053153206
32	0xbd54559f	-0.051839467
33	0x3e4ae386	0.19813356
34	0xbd92bafa	-0.07164569
35	0x3e30608d	0.17224331
36	0x3e40da6f	0.18833326
37	0x3dfd7f74	0.123778254
38	0x3db18699	0.086682506
39	0xbe2b5116	-0.1673015
40	0xbda84c2f	-0.08217656
41	0x3e41241c	0.18861431
42	0xbe8febce	-0.28109592
43	0xbe95c7d7	-0.29254028
44	0xbc4a5c65	-0.01235113
45	0x3d9653a8	0.07340175
46	0x3dbf7a47	0.093494944
47	0x3e557d73	0.20848636
48	0x3e180017	0.14843784
49	0xbd7e388e	-0.062065654
50	0xbd025990	-0.031823695
51	0x3e45bb03	0.1930962
52	0x3c91e053	0.017807161
53	0xbdbe9b55	-0.09306971
54	0x3db6ba26	0.08922224
55	0x3a3e8331	0.0007267474
56	0xbe015141	-0.12628652
57	0x3d733f25	0.05938639
58	0xbc44aca7	-0.012004054
59	0xbdc264b3	-0.09491863
60	0x3e406d46	0.18791685
61	0xbe6e2f50	-0.23260236
62	0x3c10e042	0.00884253
63	0x3dcc44d9	0.09974069
64	0x3da36c86	0.079796836
65	0xbc94c2b6	-0.018159252
66	0x3e5ab84c	0.21359366
67	0x3e859d0d	0.26096383
68	0xbe21970a	-0.15780273
69	0xbe0a6e5a	-0.13518658
70	0xbdcfe9cf	-0.10152017
71	0x3e020749	0.12698092
72	0xbc76c93f	-0.015062629
73	0x3def6b9f	0.11690449
74	0xbe6760f0	-0.22595572
75	0xbd79a32b	-0.060946625
76	0xbea615ea	-0.32438594
77	0x3df5906f	0.11990439
78	0xbe9fe836	-0.3123185
79	0x3e89fc5c	0.26950347
80	0x3e628ee6	0.22124824
81	0x3e42218d	0.18958111
82	0x3d8fb291	0.07016481
83	0xbda8eb33	-0.08247986
84	0x3e5f0bf5	0.21781905
85	0x3da5d007	0.08096319
86	0xbe82c51c	-0.25541008
87	0x3d0c3826	0.034233235
88	0xbe3b7a69	-0.18308415
89	0x3cb1b860	0.021694362
90	0xbe4cb5af	-0.19991182
91	0xbea84c8b	-0.32870898
92	0x3e0d16c7	0.1377822
93	0x3ced95d8	0.029002115
94	0x3d8e1cd7	0.069390945
95	0xbde8e8aa	-0.11372502
96	0xbc29175d	-0.010320512
97	0xbd9a00c0	-0.07519674
98	0xbdc68e43	-0.09695103
99	0xbe31b9ff	-0.17356108
100	0xbddb4ff8	-0.10708612
101	0x3e2f937d	0.17146106
102	0x3b7015e4	0.0036634142
103	0xbe032932	-0.12808684
104	0x3dcbdd41	0.0995431
105	0x3c1924e6	0.009347176
106	0xbe2f18aa	-0.17099252
107	0x3ea6aa54	0.32551825
108	0xbeb81cc8	-0.35959458
109	0xbddc2f54	-0.107512146
110	0xbe33a482	-0.17543224
111	0xbd8a4c19	-0.06752796
112	0x3dcae8c5	0.099076785
113	0x3e4106cb	0.18850248
114	0xbe1733d9	-0.14765872
115	0xbeb3930c	-0.35073125
116	0xbdc02da4	-0.09383705
117	0xbe0d739c	-0.13813633
118	0xbe9d0c26	-0.3067333
119	0x3e1a208e	0.15051481
120	0x3e2453b0	0.16047549
121	0x3c89a012	0.01679996
122	0xbefe2808	-0.49639916
123	0xbc83b8e2	-0.01607937
124	0xbef8b549	-0.4857581
125	0xbe2f368c	-0.17110652
126	0xbb8b09e8	-0.0042431243
127	0xbdf0b22c	-0.117527336
128	0xbe20f4d4	-0.15718395
129	0xbe0efe38	-0.13964164
130	0x3e845171	0.25843385
131	0xbd9c6b18	-0.07637614
132	0x3e6577aa	0.2240893
133	0x3e39a5d3	0.18129663
134	0x3e0e9099	0.13922347
135	0xbe05a876	-0.13052544
136	0x3e1714b3	0.1475399
137	0x3e17ebc7	0.14836036
138	0xbe90024c	-0.28126752
139	0xbe1dba23	-0.15403037
140	0x3d8666a6	0.065625474
141	0xbe48b869	-0.19601597
142	0xbde1ab7e	-0.11019038
143	0x3e57c8ab	0.21072643
144	0xbdaa09a2	-0.083026186
145	0x3e204ea5	0.15655
146	0xbe1ebe16	-0.155022
147	0x3e5611b0	0.20905185
148	0xbdbe038f	-0.092780225
149	0x3e94704e	0.28991932
150	0xbd85b9ba	-0.06529565
151	0xbdb7ee2a	-0.08980973
152	0xbe0ca8f4	-0.13736326
153	0x3df54a7a	0.11977096
154	0x3dff9137	0.124788694
155	0x3d07288e	0.03299766
156	0xbe3e3127	-0.18573438
157	0x3ce522ec	0.027970754
158	0xbe737d88	-0.23778355
159	0x3c808549	0.015688555
160	0x3974951e	0.00023325204
161	0x3e63a081	0.22229196
162	0x3dcf7c13	0.10131087
163	0xbe2b128c	-0.16706294
164	0xbe4050f6	-0.18780884
165	0xbe733f6d	-0.23754664
166	0x3e509327	0.20368634
167	0xbd86d18b	-0.06582936
168	0x3e1e5ff2	0.15466288
169	0x3e58e930	0.21182704
170	0x3dbb3cca	0.09142454
171	0xbdedd224	-0.11612347
172	0xbdee998b	-0.1165038
173	0xbe0e2460	-0.13881063
174	0x3e8adce2	0.27121645
175	0x3e75e664	0.24013668
176	0xbe5e5e2c	-0.21715611
177	0xbe409f00	-0.18810654
178	0xbda37102	-0.07980539
179	0xbe0750c5	-0.13214405
180	0x3bf07c64	0.0073390473
181	0xbdf721d1	-0.12066997
182	0x3e153d29	0.14574112
183	0xbdb5a5b3	-0.08869495
184	0xbdb1ddf2	-0.08684911
185	0xbd40edb4	-0.04710169
186	0x3e628217	0.22119938
187	0xbe393767	-0.1808754
188	0x3ddab2fd	0.106786706
189	0xbdc7d236	-0.097568914
190	0x3d189c1f	0.037258264
191	0x3e9f2264	0.31080925
192	0xbe0efc08	-0.1396333
193	0xbea76a2e	-0.32698196
194	0xbe719e77	-0.23595606
195	0x3bc70ebd	0.006074755
196	0xbde18bd8	-0.11013001
197	0x3dbd2869	0.09236223
198	0x3b2b5222	0.0026141484
199	0x3df1917f	0.11795329
200	0xbe5db7ee	-0.21652195
201	0xbe169af1	-0.14707543
202	0x3e42cb63	0.19022898
203	0x3dbb912b	0.09158548
204	0xbdda4598	-0.10657805
205	0x3e200e20	0.15630388
206	0xbe02b713	-0.1276515
207	0x3e84b735	0.25921026
208	0x3e4e2da2	0.20134595
209	0xbd07a4b2	-0.03311605
210	0xbdf99cc6	-0.12188105
211	0x3e598927	0.21243726
212	0xbd808366	-0.06275062
213	0x3e001510	0.12508035
214	0x3dc310b2	0.09524669
215	0x3e12543e	0.14289948
216	0x3df99c5a	0.12188025
217	0x3db91e87	0.09039026
218	0x3de1cb3e	0.110250935
219	0x3dc2c4b7	0.09510177
220	0xbe9f9741	-0.31170085
221	0xbd3927b1	-0.04520387
222	0xbe8183fd	-0.25296012
223	0xbe28e6f2	-0.16494349
224	0x3dd57201	0.10422135
225	0xbe1b57da	-0.15170231
226	0x3ba11085	0.0049152994
227	0xbe5256b0	-0.20540881
228	0xbe07461c	-0.13210338
229	0x3d21445c	0.039371833
230	0xbd5f5741	-0.05452657
231	0x3d00e5ce	0.03146916
232	0x3e14ff7a	0.14550582
233	0x3e21f47a	0.15815917
234	0xbd8d0c10	-0.06887066
235	0xbe1382bc	-0.1440534
236	0x3e67f2ff	0.2265129
237	0xbe0ae6ef	-0.13564657
238	0x3da3f38e	0.08005439
239	0x3e060671	0.13088395
240	0x3c2a6e4c	0.010402273
241	0x3dfb251e	0.12262939
242	0x3e257d28	0.16161025
243	0xbbf7191d	-0.0075408355
244	0xbe794b4b	-0.24345128
245	0x3b3536cf	0.0027651077
246	0x3cc908e8	0.02454038
247	0xbc387ab3	-0.0112597225
248	0xbe1ed3e4	-0.15510517
249	0x3d998588	0.07496172
250	0x3e082607	0.13295756
251	0x3cc9ce65	0.02463455
252	0x3dd99447	0.10623985
253	0x3da0302e	0.078216895
254	0x3db2747c	0.08713624
255	0x3df050b0	0.1173414

layers.0.bias f4 [128]
0	0xbe0bc321	-0.13648655
1	0x3bee89f1	0.0072796275
2	0xbe1e5b98	-0.15464628
3	0xbe83ccff	-0.25742337
4	0xbe7fef44	-0.24993616
5	0xbe43bd97	-0.19115292
6	0x3e13bf19	0.14428367
7	0x3d2ab3cb	0.04167537
8	0xbe341f4d	-0.17590065
9	0xbe5c2bae	-0.21501037
10	0x3de9b08c	0.11410627
11	0x3df5e36b	0.12006267
12	0x3de24db4	0.11049977
13	0x3ddb1764	0.10697821
14	0x3e3c11e5	0.18366201
15	0xbe8f78ac	-0.28021753
16	0x3e2885b3	0.16457252
17	0xbc67662e	-0.014123483
18	0x3e662074	0.22473317
19	0x3e838e92	0.2569471
20	0x3e1647ab	0.14675777
21	0x3e191b9e	0.14951941
22	0xbe2148a7	-0.15750371
23	0x3dbaed0e	0.09127246
24	0x3de26602	0.11054613
25	0xbc1437ce	-0.009046508
26	0xbe7dfd3e	-0.24803635
27	0xbdebb15f	-0.1150844
28	0x3e790942	0.24319938
29	0xbe13f70b	-0.14449708
30	0xbc5a2f5a	-0.013316954
31	0x3d3007d0	0.0429762
32	0x3c5cfc1b	0.013487841
33	0xbe24cf6a	-0.16094747
34	0xbd145415	-0.036213
35	0x3e77bc9a	0.2419304
36	0x3e931beb	0.28732237
37	0xbdc3dfc2	-0.09564163
38	0x3c4b1bb0	0.012396738
39	0x3d19c2bc	0.03753923
40	0xbc65f647	-0.014035768
41	0x3e2d3818	0.1691593
42	0xbdab46e3	-0.0836313
43	0xbd0b2cc6	-0.033978246
44	0xbd9b4e0d	-0.075832464
45	0x3e1f1b3b	0.15537731
46	0xbe464f2a	-0.19366136
47	0x3dc8ef72	0.098112956
48	0x3d8895e9	0.06669218
49	0x3e07535d	0.13215394
50	0x3d96fc2c	0.07372317
51	0xbe14f098	-0.14544904
52	0xbd128167	-0.03576794
53	0x3dbe128a	0.0928088
54	0x3e719f98	0.23596036
55	0xbdce7db0	-0.10082567
56	0xbcd5a529	-0.026079731
57	0xbd24402c	-0.04010026
58	0xbe3b623a	-0.18299189
59	0x3e54c730	0.20779109
60	0xbe2a1dd7	-0.16612945
61	0xbd9318b4	-0.07182446
62	0x3da90870	0.082535625
63	0x3daaafac	0.08334288
64	0x3e3bde4a	0.18346515
65	0xbe13d631	-0.14437176
66	0x3e0a0d2a	0.13481584
67	0x3c86d2a9	0.016457872
68	0xbd039241	-0.0321219
69	0x3e51ac23	0.20475821
70	0x3d869602	0.065715805
71	0xbc9da2ae	-0.01924261
72	0x3e05058d	0.12990399
73	0xbe49f78c	-0.19723338
74	0x3e3fd119	0.18732108
75	0xbe2fcd09	-0.17168058
76	0xbe55742a	-0.20845094
77	0xbe4dac7e	-0.20085332
78	0xbc2409dc	-0.010012116
79	0x3e0908e7	0.13382302
80	0xbe52f89a	-0.20602646
81	0xbd9f2211	-0.077701695
82	0xbe195131	-0.14972378
83	0xbcd2daa3	-0.02573902
84	0xbcbb178d	-0.022838378
85	0x3aebc46a	0.0017987613
86	0x3e513806	0.20431527
87	0x3e0848cc	0.1330902
88	0xbd3231dd	-0.043504585
89	0x3e41dbfb	0.18931572
90	0xbdd4cdc1	-0.10390807
91	0x3ce580a4	0.028015442
92	0x3d3610c9	0.0444496
93	0xbd2010b7	-0.03907844
94	0xbe026da9	-0.12737145
95	0xbe557691	-0.2084601
96	0xbd3a9d43	-0.045560133
97	0x3e4776c4	0.19478899
98	0x3dc50f9d	0.096221186
99	0xbe5c2259	-0.21497478
100	0x3d753c99	0.059872244
101	0xbdb898e0	-0.090135336
102	0xbe43365f	-0.1906371
103	0x3d9c2717	0.07624643
104	0x3dc93633	0.09824791
105	0x3d2288db	0.039681297
106	0x3ceb9b49	0.02876057
107	0xbe25d056	-0.16192755
108	0xbe3dd90c	-0.18539828
109	0x3e0c0c6b	0.13676612
110	0x3e06ebee	0.13175938
111	0xbd7912da	-0.060808994
112	0x3afe3758	0.0019395156
113	0x3cb1c237	0.021699054
114	0xbd6f7ece	-0.05847054
115	0xbda20fdb	-0.079131804
116	0x3d996251	0.074894555
117	0x3d149807	0.036277797
118	0xbcc1a496	-0.023638051
119	0x3d24f246	0.040270112
120	0xbe36029c	-0.17774433
121	0xbe1458fe	-0.14487073
122	0x3e0dbbf1	0.13841225
123	0x3da5bc06	0.08092503
124	0x3cf5d8e7	0.030010654
125	0xbe7d2062	-0.24719384
126	0x3e654e33	0.22393112
127	0x3e3f5e02	0.18688205

layers.2.weight f4 [128, 128]
0	0x3d82d54c	0.063883394
1	0x3d3b3b69	0.045710955
2	0x3d089750	0.033347428
3	0xbca64182	-0.020294908
4	0xbdf45ae5	-0.11931399
5	0x3d33dc1f	0.043911096
6	0xbd12727d	-0.035753716
7	0xbd926d85	-0.071497954
8	0xbcfce1ad	-0.03086933
9	0x3db1fb2b	0.086904846
10	0x3d1fc005	0.039001483
11	0x3d943765	0.07237128
12	0x3e1951f5	0.1497267
13	0xbda94b1d	-0.0826628
14	0x3d99bf49	0.07507188
15	0x3cab51a3	0.02091295
16	0x3d51203a	0.051056124
17	0xbcd36698	-0.025805756
18	0x3d290092	0.04126031
19	0x3da872a7	0.08224993
20	0xbd2de5f9	-0.042455647
21	0xbda4b540	-0.08042383
22	0xbd9c43bc	-0.07630107
23	0xbdbad6c4	-0.091229945
24	0x3d9d3d98	0.07677764
25	0xbde1380f	-0.109970205
26	0x3d62e097	0.055389967
27	0xbdd03ea5	-0.101681985
28	0xbda13202	-0.07870866
29	0x3c426f57	0.011867366
30	0xbd7a7fd7	-0.061157074
31	0xbdd453be	-0.10367535
32	0xbd2f4415	-0.042789537
33	0xbc9f2486	-0.019426595
34	0xbd15a1a4	-0.036531106
35	0xbde0be6c	-0.1097382
36	0x3cf52307	0.029923929
37	0xbdedca8e	-0.116109
38	0x3c3efd4c	0.01165707
39	0xbd12be6f	-0.035826143
40	0x3d6fe29f	0.058565732
41	0xbd8db017	-0.06918352
42	0x3d834084	0.0640879
43	0x3cbf61dc	0.023362093
44	0xbdc786b9	-0.09742493
45	0x3d0a0f76	0.03370615
46	0xbc07b5ff	-0.008283137
47	0x3d935e9f	0.07195782
48	0xbe0fa275	-0.14026816
49	0xbe00bbc8	-0.12571633
50	0x3d889cd5	0.06670538
51	0xbd1f0c42	-0.03883005
52	0x3c486be4	0.012232754
53	0x3dce4872	0.100724116
54	0xbd53fc4d	-0.051754285
55	0xbcdce1a3	-0.02696306
56	0xbd0c6c51	-0.034282986
57	0xbd6f5784	-0.05843307
58	0xbda2f1c8	-0.07956272
59	0x3da3fd16	0.08007257
60	0x3dccf22e	0.100071296
61	0x3dab39a5	0.08360604
62	0xbd7ae1e7	-0.061250594
63	0xbd8a9c75	-0.06768123
64	0xbdd0f1dc	-0.10202381
65	0x3d8aa7fc	0.06770322
66	0xbdb31a64	-0.08745268
67	0xbd2b60bd	-0.041840304
68	0x3c9fbfed	0.019500697
69	0x3d25171e	0.04030525
70	0x3cebc44f	0.02878013
71	0xbcea4adc	-0.028600149
72	0xbbaba3f6	-0.0052380515
73	0xbdc9d080	-0.09854221
74	0x3d3ddc3c	0.04635261
75	0xbd9bbb6f	-0.076041095
76	0xbc331dbd	-0.010932383
77	0x3cc3a3c3	0.023881799
78	0xbc6319e6	-0.013861155
79	0xbb6786a4	-0.0035328055
80	0x3d1cdf6e	0.038299017
81	0xbe020611	-0.12697627
82	0xbd051037	-0.032486167
83	0xbdb9c736	-0.090711996
84	0x3ca4fe5d	0.020140821
85	0x3de785f5	0.11304847
86	0xbc465901	-0.012106181
87	0x3e2f5ab7	0.17124449
88	0xbd554172	-0.052064367
89	0xbdeeb92f	-0.11656415
90	0x3dfd9a63	0.123829626
91	0xbbe74e3a	-0.007058886
92	0xbd3814dd	-0.04494177
93	0xbc2e98f5	-0.010656585
94	0x3cece11a	0.02891593
95	0xbd0416f1	-0.03224844
96	0xbd25b8da	-0.04045949
97	0xbdad15ca	-0.084514216
98	0xbd3dc841	-0.046333555
99	0xbd81c92d	-0.06337199
100	0xbe23c842	-0.15994361
101	0x3cdb2ef0	0.02675578
102	0x3d005560	0.03133142
103	0x3e089f8d	0.13342114
104	0x3a1ba659	0.00059375685
105	0x3db0514a	0.08609255
106	0x3c82b28b	0.015954277
107	0xba8167e2	-0.0009872878
108	0x3b4e1b69	0.0031449443
109	0x3c971511	0.018442662
110	0x3db49e4d	0.08819256
111	0x3d164006	0.03668215
112	0xbe316fca	-0.173278
113	0x3caeff9c	0.021362118
114	0x3ccefec9	0.025267975
115	0xbb7dec8d	-0.0038745732
116	0xbd8e2ad0	-0.069417596
117	0xbb7a9f5f	-0.0038241965
118	0x3d976a90	0.07393372
119	0xbd6fe01e	-0.058563344
120	0x3c907e4b	0.017638346
121	0x3d187c3c	0.037227854
122	0x3d37ba3a	0.044855334
123	0xbd5ee13c	-0.05441402
124	0xbcfd861f	-0.030947743
125	0x3bb9e927	0.005673546
126	0xbdc383f3	-0.09546652
127	0x3d3fd8e4	0.046837702
128	0xbca62c82	-0.020284895
129	0xbb9d3d04	-0.0047985334
130	0xbd898828	-0.06715423
131	0xbb6353f0	-0.0034687482
132	0x3d046f92	0.032332964
133	0xbd8b9dce	-0.06817208
134	0xbe1e0ee1	-0.15435363
135	0xbdc2f3be	-0.095191464
136	0xbd2a658f	-0.04160076
137	0xbd09b690	-0.03362137
138	0x3d36a760	0.044593215
139	0x3d9cd760	0.07658267
140	0xbc05c761	-0.008165211
141	0xbd768af0	-0.060191095
142	0xbd0404b3	-0.032231044
143	0x3c097aa0	0.0083910525
144	0x3dae1e4f	0.08501875
145	0xbc0cbd0e	-0.008589996
146	0x3d7fdef4	0.062468484
147	0x3d43bc05	0.04778673
148	0x3aa96be0	0.0012925826
149	0x3ddd754a	0.10813387
150	0xbd3387d7	-0.04383072
151	0xbd64705d	-0.05577122
152	0xbd3a8422	-0.045536168
153	0x3daaeb06	0.083456084
154	0xbd64a17d	-0.05581807
155	0xbcda7da1	-0.026671233
156	0x3cd35166	0.02579565
157	0x3bf9f4f4	0.0076280776
158	0x3cfe2c01	0.031026842
159	0x3dab9c1f	0.08379387
160	0x3d6d1f9f	0.057891484
161	0xbcf891fa	-0.030343045
162	0xb9e48407	-0.00043585917
163	0xbd83472a	-0.06410058
164	0xbcb9799c	-0.022640996
165	0xbcec70cc	-0.02886238
166	0x3da8d4ee	0.08243738
167	0x3b4d3bd3	0.0031316176
168	0x3c19f1ae	0.009396
169	0xbd126396	-0.035739504
170	0xba43e1b6	-0.0007472293
171	0x3bb18510	0.0054174736
172	0xbcf4f851	-0.029903563
173	0xbce0e119	-0.027451085
174	0x3d6e2551	0.058141056
175	0x3ae559d4	0.0017498084
176	0xbd268a25	-0.04065909
177	0x3d5c142a	0.053730167
178	0x3cbc097f	0.022953747
179	0xbdd1be92	-0.102414265
180	0xbdaa4d0d	-0.083154775
181	0xbdaf58d2	-0.08561863
182	0xbc90a198	-0.017655179
183	0xbd18e793	-0.03733022
184	0x3d64b558	0.055837005
185	0x3c901349	0.01758732
186	0x3dc444b6	0.09583418
187	0xbd1c441c	-0.03815089
188	0x3d488cf9	0.048962567
189	0x3cea2d4b	0.02858605
190	0xbc8deab1	-0.017323824
191	0x3d5d176e	0.053977422
192	0x3da3bf4e	0.07995473
193	0xbd297bdb	-0.041377883
194	0xbc195f9b	-0.009361173
195	0xbb27a6a2	-0.0025581499
196	0xbda950b3	-0.08267345
197	0x3c0f4cd9	0.008746349
198	0x3c1f7f0d	0.009734881
199	0xbe5a2b0b	-0.21305482
200	0x3d952935	0.0728325
201	0xbd0a6139	-0.033784125
202	0x3dd13968	0.102160275
203	0xbd1ec215	-0.03875931
204	0x3b804e1c	0.0039155614
205	0x3c817af9	0.015805708
206	0x3d17e16f	0.037080225
207	0xbe37a622	-0.17934468
208	0xbe174a4b	-0.14774434
209	0x3ce63a7d	0.028104061
210	0x3daca18f	0.08429252
211	0xb8b4bf12	-8.6186585e-05
212	0x3d82b140	0.06381464
213	0xbcbcfd19	-0.023069905
214	0x3d40afd0	0.047042668
215	0xbc3a00e0	-0.011352748
216	0x3b1e044e	0.0024111453
217	0x3cdbe3b1	0.02684197
218	0xbcd7616e	-0.026291575
219	0xbcd22249	-0.025651114
220	0x3bbdc05c	0.0057907533
221	0xbcc96da2	-0.02458841
222	0xbcbd482a	-0.0231057
223	0x3bf7d010	0.007562645
224	0xbdc1d3c2	-0.09464218
225	0x3dab4e68	0.08364564
226	0x3d3e9a85	0.04653408
227	0xbba9f887	-0.0051870975
228	0xbbae1c40	-0.0053134263
229	0xbd67dede	-0.056609027
230	0xbd87148a	-0.065957144
231	0xbdca92d0	-0.098912835
232	0x3d43ea8b	0.0478311
233	0xbcde11bd	-0.027108068
234	0xbccc0e6f	-0.024909226
235	0xbd0c43fe	-0.03424453
236	0xbce7755d	-0.028254205
237	0x3b42e7c0	0.0029740185
238	0x3d5c108b	0.053726714
239	0xbd9dd3c5	-0.077064075
240	0x3d758ba6	0.059947632
241	0xbd0c0bfa	-0.03419111
242	0x3cc56719	0.024097012
243	0xbd4a49cc	-0.049386784
244	0xbd95598c	-0.0729247
245	0x3da55f7d	0.080748536
246	0x3cedb2e4	0.029015966
247	0xbd236112	-0.039887495
248	0xbd4d26fa	-0.050086
249	0x3b38fcea	0.002822692
250	0xbc2c1f94	-0.010505576
251	0x3d3ceb60	0.04612291
252	0x3d56d13b	0.05244563
253	0x3d2d175b	0.0422586
254	0x3d386c50	0.04502517
255	0xbdda62b3	-0.10663357

layers.2.bias f4 [128]
0	0xbcb22212	-0.021744762
1	0x3c98a714	0.018634357
2	0xbd097f43	-0.03356863
3	0x3d4c49c2	0.04987503
4	0x3d14bd3f	0.03631329
5	0xbbcb8427	-0.006210822
6	0xbc9f5caf	-0.019453375
7	0xbd3c2990	-0.045938075
8	0xbd79b94c	-0.06096773
9	0xbd066811	-0.03281409
10	0xbc60398d	-0.013685596
11	0xbd7e596f	-0.06209701
12	0xbd643684	-0.055716053
13	0x3d20022f	0.039064582
14	0x3b24de7d	0.0025157027
15	0x3c873df8	0.016509041
16	0xbd5e004b	-0.0541995
17	0xbaeeba6e	-0.0018213519
18	0xbd56b06c	-0.052414343
19	0x3cb33317	0.021874947
20	0x3db5beaa	0.08874257
21	0xbd9acd43	-0.07558682
22	0x3d6f448d	0.058414984
23	0x3d99dca1	0.07512785
24	0xbbd3c503	-0.0064626946
25	0xbc61e0a1	-0.013786466
26	0x3ca50b48	0.02014698
27	0x3da8fa2f	0.08250844
28	0x3da2a7d3	0.07942166
29	0xbca84069	-0.020538526
30	0x3d5d6e10	0.054060042
31	0x3d95fdac	0.07323775
32	0xbdc2b4a9	-0.095071144
33	0xbd4a3b18	-0.049372762
34	0xbcb9013d	-0.022583598
35	0x3dae44eb	0.08509239
36	0xbda0fb2e	-0.07860409
37	0xbd13c8db	-0.036080223
38	0xbdcb86c0	-0.09937811
39	0x3d7c0cf1	0.06153578
40	0x3d973b56	0.07384364
41	0x3d77fbad	0.06054275
42	0xbcca0dd4	-0.024664797
43	0xbd093f48	-0.033507615
44	0x3cdd000b	0.02697756
45	0x3d971c0d	0.07378397
46	0x3d5ef173	0.054429483
47	0x3d514958	0.051095337
48	0x3d57a5e7	0.05264845
49	0x3ca694bf	0.0203346
50	0x3d9b4ef8	0.075834215
51	0xbd736cdd	-0.059429992
52	0x3db142a1	0.086552866
53	0xbd41dd22	-0.04733003
54	0xbd5c0f79	-0.053725693
55	0x3b253c99	0.002521312
56	0xbd64845f	-0.0557903
57	0xbcc260aa	-0.023727734
58	0x3cc98dcc	0.024603747
59	0xbd2a20e1	-0.041535262
60	0xbdbcf187	-0.09225755
61	0x3cded8ec	0.027203046
62	0x3a05ea25	0.00051084376
63	0xbc8c8695	-0.017154017
64	0x3ceb77b1	0.028743597
65	0xbd8f439b	-0.069953166
66	0xbd658819	-0.056037996
67	0x3d955b41	0.07292796
68	0xbd5764cf	-0.052586373
69	0xbc93d006	-0.01804353
70	0x3d3c30c2	0.045944937
71	0x3d8619a9	0.06547863
72	0xbcc704c0	-0.024294257
73	0xbd17eaa4	-0.037089005
74	0x3cf2a393	0.029619014
75	0xbc33b8d3	-0.0109693585
76	0x3daa6695	0.08320347
77	0x3c4466ae	0.011987371
78	0xbd3cb341	-0.046069387
79	0xbdbe82a6	-0.09302263
80	0xbca9b38a	-0.020715494
81	0xbc8b0b3a	-0.016973127
82	0x3d52b4e4	0.051442042
83	0x3d5f19de	0.05446803
84	0x3d440847	0.047859456
85	0xbccc8c76	-0.02496932
86	0x3c6001c6	0.013672298
87	0xbd5dcb55	-0.05414899
88	0xbd9166e9	-0.07099707
89	0xbbf0a6b4	-0.0073440913
90	0x3c0e6322	0.008690627
91	0xbb8f7070	-0.0043774173
92	0xbd32da36	-0.043665133
93	0xbdbb3a79	-0.09142012
94	0xbc2ac82b	-0.0104237
95	0x3d1e843a	0.03870032
96	0x3d4c19d1	0.049829308
97	0xbd62d1fc	-0.055376038
98	0xbd8bdece	-0.06829606
99	0xbd495a4d	-0.049158383
100	0xbd88f34f	-0.066870324
101	0x3d2d24a3	0.042271268
102	0x3d2a5bc8	0.041591436
103	0xbdc655f3	-0.09684362
104	0x3d853e32	0.065060034
105	0xbc96663d	-0.018359298
106	0xbda8e444	-0.08246663
107	0x3d0cf057	0.034408893
108	0xbd5d0c3b	-0.053966742
109	0x3d847a04	0.06468585
110	0x3bb1a716	0.0054215295
111	0xbd852a65	-0.06502227
112	0xbd41451a	-0.04718504
113	0x3ced7c36	0.028989892
114	0xbcea2ef0	-0.028586835
115	0xbdc32c9b	-0.09529992
116	0x3d42efe8	0.047592074
117	0xbdb1c0e6	-0.086793706
118	0x3caa3212	0.020775829
119	0x3c60dd29	0.013724604
120	0x3c02d726	0.007985866
121	0x3d96c76b	0.07362255
122	0xbd617fd6	-0.055053554
123	0xbd742069	-0.05960122
124	0x3bfd4952	0.0077296877
125	0xbd0b8f0d	-0.03407197
126	0x3d821e23	0.063534044
127	0xbcd99ee2	-0.026565019

layers.4.weight f4 [7, 128]
0	0xbbe5c768	-0.0070122965
1	0xbc51ff45	-0.012817209
2	0xbd038490	-0.032108843
3	0x3de197cb	0.1101528
4	0x3de343b9	0.110969014
5	0x3e29e6e5	0.16591986
6	0x3e0694ea	0.13142744
7	0x3be07fb1	0.0068511595
8	0xbda1d579	-0.07902045
9	0x3d47666d	0.048681665
10	0x3dc29b66	0.09502296
11	0x3e0a3fbe	0.13500878
12	0x3d36702d	0.044540573
13	0x3d5d3cf5	0.05401321
14	0x3c2f51ff	0.010700702
15	0x3d24a18a	0.04019312
16	0xbc124998	-0.008928679
17	0x3d073144	0.033005968
18	0xbcbe95d6	-0.023264807
19	0x3d1cf31a	0.038317777
20	0xbcc1c44e	-0.023653176
21	0xbd32f051	-0.043686215
22	0xbd9a5bf1	-0.07537068
23	0x3d97dbfe	0.07415007
24	0x3d50cd9f	0.050977346
25	0x3dca63be	0.098823056
26	0xbd7b11fd	-0.06129645
27	0x3d0a6616	0.033788763
28	0x3dd6c921	0.10487581
29	0x3d57b00a	0.05265812
30	0xbcb2e1f0	-0.021836251
31	0xbdac1de3	-0.08404138
32	0x3c8193e4	0.01581759
33	0xbd962412	-0.073310986
34	0x3d07e657	0.033178654
35	0xbda7d781	-0.08195401
36	0x3e05a8f0	0.13052726
37	0x38e4eace	0.00010915623
38	0x3d01bd00	0.031674385
39	0xbcfae0a5	-0.030624697
40	0xbd4a135b	-0.049334865
41	0xbda5b029	-0.080902405
42	0xbd694f09	-0.05696014
43	0x3d6c6f5f	0.0577234
44	0x3d050889	0.032478843
45	0x3dd8038f	0.10547554
46	0x3dab3f5d	0.08361695
47	0xbd73fe49	-0.059568677
48	0xbc53a896	-0.012918612
49	0xbac07d0a	-0.0014685702
50	0xbd879c82	-0.06621648
51	0xbd0ffddf	-0.03515422
52	0x3d18ba39	0.03728697
53	0x3d7eadfd	0.062177647
54	0x3e55091c	0.20804256
55	0x3e13c2a8	0.14429724
56	0x3b153be6	0.0022771298
57	0xbcfd441e	-0.03091627
58	0xbdf3a30e	-0.118963346
59	0x3d7e5b8d	0.06209903
60	0xbd7aaf29	-0.061202202
61	0x3e27fc9a	0.16404954
62	0xbdaac7d9	-0.08338899
63	0x3e1678d3	0.14694528
64	0xbdbf783a	-0.09349103
65	0xbbcadbc9	-0.006190751
66	0x3c6cfd85	0.014464741
67	0xbd7cdd15	-0.061734278
68	0xbe324166	-0.1740776
69	0xbcf5b5dd	-0.029993946
70	0x3d4e924d	0.050432492
71	0x3d5094ce	0.05092316
72	0xbd0c3cc7	-0.03423765
73	0x3d77476f	0.06037086
74	0x3d5e5aa9	0.05428568
75	0x3cf189a7	0.029484583
76	0xbcb41a88	-0.021985307
77	0xbd72b762	-0.05925692
78	0x3d3c367f	0.04595041
79	0x3db34654	0.087536484
80	0xbabe3cc6	-0.0014513962
81	0xbd90caf7	-0.070699625
82	0x3e0d51c7	0.13800727
83	0x3e05148a	0.12996116
84	0x3e19370e	0.14962408
85	0xbd1e7102	-0.03868199
86	0x3c8fce8e	0.017554548
87	0xbd20dc1c	-0.039272413
88	0x3d1d6ad4	0.038431957
89	0xbdb2ae31	-0.087246306
90	0xbc5dae26	-0.01353029
91	0x3d580a3f	0.052744146
92	0xbd471313	-0.048602175
93	0xbc29ca79	-0.010363215
94	0xbd218a90	-0.039438784
95	0x3d3f3b4f	0.04668742
96	0xbc65ec50	-0.014033392
97	0x3ce3920f	0.027779607
98	0x3d496644	0.049169794
99	0xbd248ecb	-0.04017524
100	0x3ba63c69	0.0050731194
101	0x3ddda5f5	0.108226694
102	0xbdb032fd	-0.08603475
103	0x3d926878	0.07148832
104	0x3df599e8	0.11992246
105	0x3d3809ff	0.044931408
106	0xbc2a9638	-0.0104117915
107	0x3cf8b585	0.030359993
108	0xbd1c9bae	-0.038234405
109	0xbd8673af	-0.06565034
110	0x3dec88b1	0.11549509
111	0x3d8c679f	0.06855702
112	0x3c309c3b	0.010779436
113	0x3e02a3d6	0.12757811
114	0x3d6c057c	0.057622418
115	0xbd1c1db0	-0.03811425
116	0x3a10103e	0.00054955843
117	0x3ef7f25e	0.484271
118	0x3cd1f156	0.025627773
119	0x3e3397aa	0.17538324
120	0x3d156ee5	0.03648271
121	0xbd25492a	-0.040352978
122	0x3ca022b6	0.019547801
123	0xbdc7fcc4	-0.09765008
124	0xbda3351f	-0.079691164
125	0x3dc1b432	0.09458198
126	0x3d192c0a	0.037395515
127	0xbda33feb	-0.07971176
128	0x3e09f547	0.13472472
129	0x3c8f8697	0.017520232
130	0x3d809833	0.0627903
131	0xbd20d944	-0.0392697
132	0x3e8989d8	0.2686298
133	0xbcbc2e8d	-0.022971416
134	0x3e570835	0.20999224
135	0x3d43abcf	0.04777127
136	0xbc886b74	-0.0166528
137	0x3d10b116	0.035325132
138	0x3e112c43	0.14177041
139	0xbe132d18	-0.1437267
140	0xbd07769e	-0.033072107
141	0x3d693bad	0.056941677
142	0x3d0abded	0.033872534
143	0xbcd2ef33	-0.025748825
144	0x3c8a71ce	0.01689997
145	0x3bcb7c98	0.006209921
146	0x3cab8d91	0.020941528
147	0xbda70954	-0.08156076
148	0x3d7fb78f	0.062430914
149	0xbcf3906b	-0.02973195
150	0x3e2a30f8	0.16620243
151	0x3cf53c2c	0.029935919
152	0x3d58e09e	0.052948587
153	0x3e5abcd5	0.21361096
154	0x3d6a9a05	0.05727579
155	0xbd37b878	-0.044853657
156	0x3da08187	0.078372054
157	0xbce825cf	-0.028338341
158	0x3db6cd95	0.089259304
159	0x3c71e9ad	0.014765185
160	0xbc74f37c	-0.014950629
161	0x3e07702d	0.13226385
162	0x3cd0637d	0.025438065
163	0x3d913269	0.07089693
164	0x3d32f10f	0.043686923
165	0x379feb72	1.9063915e-05
166	0x3d659b5e	0.056056373
167	0x3d81383f	0.06309556
168	0xbc34e427	-0.011040724
169	0x3e05d128	0.13068068
170	0x3d7289c9	0.059213433
171	0x3d41c652	0.047308274
172	0x3c8a3c17	0.016874356
173	0xbd1fab2c	-0.0389816
174	0x3d5bcc11	0.05366141
175	0x3c541bb0	0.012946054
176	0x3e10906e	0.14117596
177	0x3cd67c77	0.026182396
178	0xbd27241f	-0.040805932
179	0xbccc00d7	-0.024902744
180	0x3d930c5a	0.0718009
181	0x3d8cdf73	0.06878557
182	0xbda4b6ad	-0.08042655
183	0x3c600648	0.013673373
184	0x3dcf9d1b	0.10137387
185	0xbd6e0130	-0.0581066
186	0x3c76eeee	0.015071614
187	0xbc12da64	-0.008963201
188	0x3e119ad9	0.14219226
189	0x3d872cb3	0.066003226
190	0x3db8b978	0.0901975
191	0xbde30dfa	-0.1108665
192	0x3ca16243	0.019700175
193	0x3d8da2d3	0.06915822
194	0xbcd3403b	-0.025787463
195	0xbd2a285c	-0.041542396
196	0x3d2c0f15	0.04200657
197	0xbd15c77c	-0.036567196
198	0xbdb071d0	-0.08615458
199	0x3d84fdcf	0.06493723
200	0x3ce58ba5	0.02802069
201	0x3c98002c	0.01855477
202	0x3c8b4960	0.017002761
203	0x3b422c01	0.002962828
204	0xbd953107	-0.07284742
205	0x3d767072	0.06016583
206	0x3dd93421	0.10605646
207	0x3c18cd44	0.009326283
208	0xbc833663	-0.016017145
209	0x3e4aa3e3	0.1978908
210	0xbdfa8591	-0.12232507
211	0x3e2c616a	0.16834036
212	0xbd9431d9	-0.0723607
213	0xbd1324de	-0.03592383
214	0xbbf6e753	-0.0075349
215	0x3c8ef2ec	0.017449819
216	0xbc16bd2c	-0.0092003755
217	0xbd064c19	-0.032787416
218	0x3b459dea	0.0030153939
219	0xbd999a32	-0.075001135
220	0x3de5a595	0.11213223
221	0x3cc2c597	0.023775859
222	0x3d0280c6	0.03186109
223	0x3d4eb231	0.050462905
224	0xbd420441	-0.047367338
225	0x3c18caa8	0.009325661
226	0x3d0a426b	0.033754747
227	0xbdee5cca	-0.11638792
228	0x3c8d0309	0.017213361
229	0xbdbe72c5	-0.09299234
230	0x3df12671	0.1177491
231	0x3db22877	0.08699124
232	0x3b47e228	0.003049979
233	0x3e141c19	0.14463843
234	0x3de24b55	0.11049525
235	0xbc33ea2a	-0.010981122
236	0x3cf5fdcd	0.030028248
237	0x3d430ffd	0.04762267
238	0xbd4b1b8a	-0.04958681
239	0x3c94487f	0.018100975
240	0x3d2d73af	0.042346653
241	0x3e2aef6d	0.16692896
242	0x3ce00061	0.02734393
243	0x3d257183	0.040391456
244	0x3bd424aa	0.0064740973
245	0x3ef4b20f	0.47792098
246	0xbd37e424	-0.044895306
247	0x3da046e3	0.078260206
248	0x3d5a9733	0.05336685
249	0xbd0606e3	-0.03272141
250	0x3c8207b0	0.015872806
251	0xbd65aae3	-0.056071173
252	0x3da6474e	0.08119069
253	0x3c72fbef	0.014830573
254	0x3d7b8d5f	0.06141412
255	0x3c235d43	0.009970966

layers.4.bias f4 [7]
0	0x3b8758f4	0.004130477
1	0xbcd04785	-0.025424728
2	0xbd3753f1	-0.044757787
3	0xbd6dbede	-0.058043353
4	0x3c98a293	0.018632209
5	0x3db866a5	0.09003953
6	0x3d83aaab	0.06429037
